state_dict_VAE_Beta=2.pt (torch, 77723 bytes, 30 tensors)

encoder.linear1.weight f4 [20, 10]
000000 36 e4 c6 3b 64 e2 16 3e 21 81 b0 3d 4c 30 13 3e
       0.0060696853 0.14734799 0.086183794 0.14373893
000010 d1 2e 0b 3e 41 a6 d7 bd 02 93 6d be 78 41 36 3e
       0.13592078 -0.10529757 -0.2320061 0.17798412
000020 bf 21 f0 3d 0c e3 7d 3e 45 ce 58 3d 8f 26 06 3e
       0.117251866 0.24793643 0.05293109 0.13100646
000030 19 84 be 3c ac 15 a6 bd 57 aa 12 3e d2 d9 59 be
       0.023256348 -0.08109602 0.14322792 -0.21274498
000040 ad 41 96 3e fe d8 40 3e a6 cc 27 3d 86 f6 0f bf
       0.29346982 0.18832776 0.040966652 -0.5623554
000050 16 75 3b 3d 71 b1 6c 3e 28 41 b9 bc 17 d6 71 be
       0.04576596 0.23114564 -0.022614077 -0.23616825
000060 00 3e f9 bd d7 69 17 3e 20 74 f3 3c 8b 92 a4 be
       -0.12170029 0.14786468 0.029718459 -0.32143053
000070 f8 8c 8f bd 95 f9 26 be 0c ad a3 bd 93 34 0d be
       -0.070093095 -0.16306145 -0.079919904 -0.13789587
000080 01 bd c5 be 23 96 9b 3d 6f 2b 37 bc 38 2c 19 bd
       -0.3862076 0.07596996 -0.011179789 -0.037395686
000090 76 86 7c 3e 80 76 5f 3b 52 0d 9c 3d c3 28 ae 3e
       0.24660668 0.003409773 0.07619728 0.34015474
0000a0 21 c5 97 be 33 75 26 be 18 92 36 be 1f de 1b 3d
       -0.29642585 -0.16255645 -0.17829168 0.038053628
0000b0 59 6f 14 be b2 24 bf be 36 8b 40 be 30 c0 bd 3e
       -0.14495601 -0.37332684 -0.18803105 0.3706069
0000c0 63 d0 fd bd 28 4c 93 be c6 6d 83 3e aa 2c 17 bd
       -0.12393262 -0.2876904 0.25669688 -0.03690783
0000d0 42 70 0d 3d a0 ca 79 3e 17 db 32 3e 8b 89 16 3d
       0.034530886 0.24393702 0.17466389 0.036752265
0000e0 a8 c1 ed 3d b9 f5 00 3e 4b fa 2b be 23 c7 bf 3d
       0.116092026 0.12593736 -0.16794698 0.09364154
0000f0 f4 48 16 3e 3a 7d 6c be 74 0f 7b be da 36 d7 3d
       0.14676267 -0.23094645 -0.24517614 0.10508509
000100 b7 85 41 3e 1c 47 da bd 0b f0 86 3e 70 35 0f 3e
       0.18898664 -0.10658094 0.26355013 0.13985229
000110 98 79 f6 bc 26 bb 75 3d 09 38 4a 3d 60 4f 9c be
       -0.030087277 0.05999293 0.049369846 -0.30529308
000120 50 de c6 3d 62 e4 2d be 76 31 d3 bc 88 98 0e be
       0.097103715 -0.16981652 -0.02578042 -0.13925374
000130 22 3a 5c be 3a e0 95 3d 06 e6 22 3e 2e 2a 40 be
       -0.21506551 0.073181584 0.1590806 -0.1876609
000140 cb a0 0f 3d 68 37 a2 3c d5 51 2f 3e 6a 28 2c be
       0.035065453 0.01980181 0.1712106 -0.16812292
000150 6d ca 46 3e 8a 2b 52 3e d4 26 14 3e 3a a8 88 3e
       0.19413157 0.20524421 0.14467937 0.26690847
000160 41 b6 87 3d c3 73 07 3d 4e 5d 55 be 71 39 31 be
       0.06626559 0.033069383 -0.20836374 -0.17307068
000170 6d a0 02 be cf cb 10 be 07 2c 79 bc 66 c2 ff 3c
       -0.1275651 -0.14140247 -0.015208251 0.031220626
000180 56 4c d6 bd 79 ca 6e be 88 7c e3 3d 2b 9e d5 be
       -0.10463779 -0.23319425 0.11107737 -0.41722235
000190 a6 44 41 39 95 17 82 3e 3a 44 d3 bd 90 60 c0 3d
       0.00018431488 0.25408617 -0.103157476 0.09393418
0001a0 e0 de 93 3d 8e 2b 28 3e 00 a5 c2 ba 2a 80 5b 3c
       0.072202444 0.16422865 -0.0014850199 0.013397256
0001b0 53 ee 93 3e bc 3f 1e 3f d2 2d 8a bb 35 bb 36 3e
       0.28892764 0.61816 -0.004216888 0.17844851
0001c0 31 83 15 be c2 3e 49 bd b6 23 06 be 61 84 9d bd
       -0.14600827 -0.049132116 -0.1309956 -0.07691265
0001d0 a1 b7 87 be 6f ad 1f 3e b2 f5 d0 bd db e0 50 be
       -0.26507285 0.15593503 -0.10203113 -0.20398276
0001e0 54 1e 99 bc b4 45 16 3e a1 b5 3c 3e a4 f1 47 be
       -0.01869122 0.14675027 0.18428661 -0.19525772
0001f0 0a 04 b5 3c d8 30 9a 3e 04 97 f4 3d 74 88 b3 be
       0.022096653 0.3011539 0.119428664 -0.35065043
000200 5e f7 5d 3e 88 9c a2 3e 95 b2 e0 3b 2b b4 6a be
       0.21676394 0.3176005 0.006857226 -0.22920291
000210 db 7a 0a 3d 87 ba 68 be da b7 6a 3e c6 78 b7 3c
       0.03380857 -0.22727405 0.22921696 0.022396456
000220 4a 79 c1 bd b1 c0 d7 3d d4 70 66 be c2 1a 92 3c
       -0.09446962 0.105348 -0.22503978 0.017835025
000230 3a 4a 2b bd ea bd 1f be 2c 04 c0 bd e4 fc c0 be
       -0.041818835 -0.1559979 -0.09375796 -0.3769294
000240 f9 22 31 be 9c 37 e6 3d b0 1f e2 bd ee ab cb 3c
       -0.17298497 0.112410754 -0.110412 0.024862256
000250 0f 2a 0d be 1c 9a 57 3c cb 57 51 be 55 8d 4a 3e
       -0.13785575 0.013159301 -0.20443647 0.19780476
000260 15 2b 63 be a1 f7 21 be b8 0a a1 3e a5 f7 9b be
       -0.22184403 -0.15817119 0.3145349 -0.30462375
000270 e8 30 51 be c0 d1 b4 3d 99 3c 8e 3d 09 63 f2 bd
       -0.20428813 0.08829069 0.06945152 -0.11835296
000280 78 11 28 3e 61 98 fa 3b 16 07 76 3e e1 f2 0b 3e
       0.16412914 0.0076475595 0.2402614 0.1366687
000290 4a 63 c5 3d 97 ee 5b 3e 0f c3 8a 3e 6c da 20 3e
       0.096380785 0.21477734 0.27101943 0.15708321
0002a0 90 81 37 3c cb 0e af 3e cd 09 74 3e ac bc 88 be
       0.011200324 0.34190974 0.23831864 -0.26706445
0002b0 52 40 83 be fb 92 9c 3d fc e4 17 3d d1 24 07 3e
       -0.2563501 0.07645222 0.03708361 0.13197638
0002c0 53 23 a0 be 3c 40 36 3d 9d 5a 99 be 42 41 f8 3c
       -0.3127695 0.044494852 -0.29951945 0.030304555
0002d0 26 ca 2f 3e be 2d a7 3e 90 3b 76 3e 70 03 9c bd
       0.17166957 0.32652086 0.24046159 -0.07617843
0002e0 5e e6 14 bd a3 c5 37 be 3c 3a 9c be e9 b3 41 bd
       -0.036352508 -0.17946486 -0.3051318 -0.047290716
0002f0 b3 33 a6 3d 8b f7 90 be a1 c3 2b 3d 95 f4 73 be
       0.081153296 -0.2831386 0.041934613 -0.2382377
000300 48 f0 51 bd c1 d7 b0 be 41 dd e3 3e 64 28 14 bd
       -0.05125454 -0.34539607 0.4450474 -0.036171332
000310 f2 34 5e be b4 0c 73 bd bc fd 76 be ab 5e 0a 3e
       -0.21699885 -0.059338287 -0.2412023 0.13512675

encoder.linear1.bias f4 [20]
000000 d2 80 bc be 67 55 56 3f 21 df 07 3c 27 c5 f6 3e
       -0.36817032 0.83724064 0.008292944 0.4819729
000010 14 55 23 bf 3b 12 eb 3e 5b f4 ad bd 8d b1 8f 3d
       -0.63801694 0.45912346 -0.08493873 0.07016287
000020 0b 50 37 be 53 04 ed 3e 95 2c 21 3f e1 a1 3a be
       -0.17901628 0.46292362 0.6295865 -0.18225814
000030 9b ae 52 3f 32 6e b3 3d 58 80 77 3d 2a 9d 7b 3e
       0.82297677 0.087612525 0.060425133 0.24571672
000040 80 ac 32 bf db ae 62 be 14 c3 29 bf 27 f5 89 3e
       -0.69794464 -0.22137015 -0.6631329 0.2694485

encoder.linear2.weight f4 [40, 20]
000000 1b 61 97 3d 8d 7f 4f 3d 42 e1 82 bd ad b5 2f be
       0.07391568 0.05065875 -0.06390621 -0.17159148
000010 99 94 0c be 96 8d 8e bd 0b 3c 3f 3c ee 56 fc bd
       -0.1372856 -0.06960599 0.01167203 -0.12321268
000020 23 e6 22 3e ec 8b ef bd c6 c0 84 be 36 72 9d bc
       0.15908103 -0.1169661 -0.25928324 -0.0192195
000030 88 82 42 bb 71 db 1d 3c 2c ad 29 3d 5b 7f ab 3b
       -0.0029679853 0.009634838 0.041424915 0.005233688
000040 05 29 de 3d db a0 b4 bd 6c 02 13 3e 1a ed 06 be
       0.108476676 -0.08819743 0.14356393 -0.13176385
000050 e2 21 19 3d ef 45 48 be 23 80 82 be 86 ce 0b 3d
       0.03738583 -0.19557928 -0.25488386 0.034132503
000060 be 0b 8a be 54 e9 39 be 3a 7e 1d 3e 45 d1 fb bc
       -0.26962084 -0.18155414 0.15380183 -0.030739436
000070 3c fb 8a be 02 a4 9b bd 60 d3 03 be fa 6d 9e 3c
       -0.27144802 -0.075996414 -0.12873602 0.01933955
000080 f1 3a 19 be f4 3a 26 3e 62 df 83 bd 10 c8 08 be
       -0.1496389 0.16233426 -0.06439091 -0.13357568
000090 f3 b5 25 be fc cd 13 3e c9 3c d0 bb cc 4d e5 3d
       -0.1618269 0.14434046 -0.0063549024 0.11196479
0000a0 ad 66 1b bc ec b6 e3 bd 51 8c 5a be 3f 5a 56 bd
       -0.009484929 -0.11118874 -0.21342589 -0.05233216
0000b0 f7 c4 b1 3c 0b 11 78 3c 0f a5 02 bd a3 5e b3 3d
       0.021700365 0.015140782 -0.031895693 0.08758285
0000c0 b3 92 72 3d 38 06 05 3d d5 6d ce bd 05 f7 39 3d
       0.059221935 0.032476634 -0.100795425 0.04540159
0000d0 b6 db dc be 35 eb 17 bd b7 00 14 be 96 71 76 be
       -0.43136376 -0.037089545 -0.14453398 -0.24066767
0000e0 6a f0 a5 3d e6 da 96 3d 7e 5f 8c be 3f 3c 8d 3d
       0.08102496 0.0736597 -0.27416605 0.06896257
0000f0 3e 33 51 3e 5b ae 0f be 0c 8b b9 bd 4e a8 73 be
       0.20429704 -0.14031355 -0.09059724 -0.23794672
000100 a2 b0 10 bd 38 73 85 3d 95 c2 e4 bd ba e6 6e 3d
       -0.0353247 0.06516117 -0.11169926 0.058325507
000110 e5 89 fd 3d 27 05 54 bd 28 a6 e6 3c be e3 8c 3c
       0.12379817 -0.051762726 0.028155401 0.01719844
000120 73 f4 c6 3d 39 72 a4 bc 56 72 39 3e 6c 14 7a bd
       0.09714594 -0.020073997 0.18110022 -0.061054632
000130 d8 77 85 bd 03 c8 41 be 59 d3 16 3e c5 1f 38 bd
       -0.06516999 -0.18923955 0.1472906 -0.044952173
000140 16 3b 6d 3e df 62 9d be e5 0b 00 3e f2 68 28 be
       0.23167071 -0.30739495 0.12504537 -0.16446283
000150 b8 58 4b be 44 81 2f be 9d 98 2a be 24 4e 45 bd
       -0.19858062 -0.17139155 -0.1665978 -0.048170224
000160 92 82 8c bd 33 4d 85 be 5b 17 d1 3d 1a 85 ec 3d
       -0.06860842 -0.2603546 0.10209533 0.115488246
000170 c0 10 82 bd 23 50 3e be 38 99 d3 3c 58 0b 03 be
       -0.06350851 -0.18585257 0.025829896 -0.12797296
000180 0b f6 78 bd ba a5 82 bd 39 ba 2f 3c ad ff fd 3c
       -0.06078152 -0.06379266 0.010725551 0.031005705
000190 32 25 0c 3c 14 d5 4d be ab 58 ba bb f7 f2 18 be
       0.00855379 -0.20100814 -0.0056868396 -0.14936434
0001a0 8d 19 48 be 18 e7 37 3e 08 ce f1 bd 2d dd 81 3d
       -0.19540997 0.17959249 -0.118068755 0.06341014
0001b0 c5 10 c6 3d ed 23 17 3e a5 92 c6 bd 5b 95 00 3e
       0.09671167 0.14759798 -0.09695939 0.12556975
0001c0 04 4d 22 3d b8 90 c8 bd a8 87 f8 bc 47 a4 d5 3d
       0.03962423 -0.09793228 -0.030338123 0.10431724
0001d0 4a c7 98 bd 1a 2e a9 bd d3 42 4a be 7f 20 66 bc
       -0.07459886 -0.08260746 -0.19752054 -0.014045834
0001e0 84 55 a3 bd 1b 90 26 be 3e 92 8a 3d 26 79 ad 3d
       -0.07975295 -0.1626591 0.06766175 0.08470373
0001f0 8a 4f 19 be f5 5e bd be 6a 13 9a 3c 02 10 8f 3d
       -0.14971748 -0.3698651 0.018808085 0.06985475
000200 66 ef 1d bd 97 fd 27 3e 73 f8 4b be 9a ad 47 be
       -0.038558386 0.1640533 -0.19918995 -0.19499817
000210 55 27 69 3e 34 7a 26 bc 17 41 ae bd f4 d1 5d be
       0.2276891 -0.010160971 -0.08508509 -0.21662122
000220 20 49 a1 be de 4a 78 bd 58 1a 54 bb 1a 63 1a be
       -0.31501102 -0.060618274 -0.0032364335 -0.15076867
000230 c1 cf a1 bd 12 03 ca 3c d0 26 60 be c8 fe 79 3d
       -0.07900954 0.024659667 -0.21889806 0.061033994
000240 a3 a1 5f be 55 4a f3 3d 83 cc cc 3a 8c 97 36 be
       -0.21839003 0.11879412 0.0015624914 -0.17831248
000250 55 8d 2d 3e 55 b7 5c be 80 90 91 38 d8 4f 2d bd
       0.16948445 -0.2155431 6.941054e-05 -0.042312473
000260 0e 08 87 be f5 36 66 3d 14 56 6d 3d ab b2 8a be
       -0.26373333 0.056204755 0.05794342 -0.27089438
000270 1d c1 fa 3d 19 cb 02 3e 3e 7b 99 bc 46 c6 4b 3e
       0.12243865 0.12772788 -0.018735524 0.19899854
000280 99 ab c8 bd d2 55 b9 bc 5b 27 2f be 95 8c b8 bd
       -0.09798355 -0.02262393 -0.17104857 -0.09011189
000290 d5 8d 28 3d d1 aa 00 3e c4 0e 6e 3d 4e 9f 0d 3c
       0.041150887 0.12565161 0.05811955 0.008643938
0002a0 71 ac 1c be eb 0f a2 be 68 0b 41 be 30 a9 86 3e
       -0.15300156 -0.3165277 -0.18852007 0.26300955
0002b0 d4 47 2d bc 58 40 a4 bd 06 1b dc bd d8 f3 e1 bd
       -0.010576207 -0.08020085 -0.10747342 -0.11032838
0002c0 62 2f d9 3c f7 f3 5b 3e 4b f4 51 be f4 fb fc 3d
       0.026511852 0.21479784 -0.20503347 0.12352744
0002d0 3c 60 a0 3d b0 e7 33 3d f5 1c 4c be 79 13 8a 3c
       0.07830855 0.043922126 -0.19932921 0.016854988
0002e0 d2 d3 d7 bd bb 17 dd bc 10 ee 5d ba 3d d7 37 3e
       -0.105384484 -0.026988855 -0.0008465955 0.179532
0002f0 8a 35 86 3d d0 a5 74 3c a5 27 ce 3d d9 b3 c6 3d
       0.065531805 0.014932111 0.10066155 0.09702272
000300 18 b2 61 be ee 32 ef bd ab 2e 4d 3e d6 7d 7a bb
       -0.22040594 -0.11679636 0.20037334 -0.0038221977
000310 3b 40 c6 3d 38 b8 ea 3d d4 25 7b be 92 65 45 3e
       0.0968022 0.11460918 -0.24526149 0.19277027
000320 eb 4e 0f 3e 81 0e 24 3e e7 7a 93 3c 24 5d b1 bd
       0.13994949 0.16021158 0.01800294 -0.08660343
000330 d4 35 ee 3d 83 e8 de bd 91 70 4e 3e b9 a8 f9 bd
       0.11631361 -0.10884192 0.20160128 -0.121903844
000340 d3 95 3d bd a8 52 74 bd d3 70 af be 85 6c d9 3d
       -0.04628546 -0.05964914 -0.34265766 0.106164016
000350 7c 2e af be a5 ad 31 be 6e 73 4f 3e ee 16 ef 3c
       -0.34215152 -0.17351396 0.20258877 0.029185738
000360 6a 5f 22 bd 42 a9 8a bd 49 e6 1b 3e b5 2f be bd
       -0.039641775 -0.067705646 0.15224566 -0.09286443
000370 60 fb 86 3e d1 7d c6 bc 8c b0 95 be cd 4d 8a be
       0.2636366 -0.024229916 -0.29236257 -0.27012482
000380 fd 71 44 bd 5b c7 67 3d 50 30 42 3e 4d 17 e6 3d
       -0.04796027 0.056586605 0.18963742 0.11234913
000390 e8 c8 96 bd 65 46 d2 bd 05 4e f7 bc 78 c1 47 bc
       -0.073625386 -0.10267333 -0.03018857 -0.012192123
0003a0 f2 35 a4 be 15 bc ee bd 4d ad 9c bd b3 7f a1 3d
       -0.32072407 -0.116569676 -0.07650242 0.07885685
0003b0 d9 42 53 be 7d fa 06 3e 0e 7f 06 3e 39 fe 37 3e
       -0.20630969 0.13181491 0.13134405 0.17968072
0003c0 24 9d 87 3d 80 8d 6f bd 88 26 3e be bd ea b2 3c
       0.06621769 -0.058484554 -0.18569386 0.021840448
0003d0 3f 94 e2 bc 69 0b 36 3d 44 54 06 3d 03 a8 3e be
       -0.02765858 0.044444475 0.032795206 -0.18618779
0003e0 84 f7 fc 3d 46 78 9f be 85 0a 67 3d e8 8e dc 3c
       0.12351897 -0.3114645 0.056406517 0.026923612
0003f0 c5 3e d5 be a7 8c b4 bd ca b8 07 be fb bc 43 3e
       -0.41649452 -0.0881589 -0.13254085 0.19115059

encoder.linear2.bias f4 [40]
000000 f3 8d 1d bf 5a 56 45 3e 8c eb 10 3d 68 8f ef be
       -0.6154472 0.19271222 0.035380885 -0.46789098
000010 fb 1e c1 3e 65 6c 04 bf 56 8f 74 3e 33 00 83 be
       0.3771895 -0.51727897 0.23882803 -0.2558609
000020 de f8 a9 3e 94 d8 f3 3e 03 0a a7 bd d3 a5 f2 be
       0.33197683 0.47626173 -0.081562065 -0.4739214
000030 60 96 7f be 08 22 c1 3e 00 46 73 3a 54 68 f2 3e
       -0.24959707 0.37721276 0.0009280145 0.4734522
000040 7a ab be be 11 0a 9c bd a6 a2 6a be 58 1f 60 be
       -0.372402 -0.076191075 -0.22913608 -0.21886957
000050 38 d0 3b be 62 4e 73 be 9c 72 33 bf ab a2 c5 be
       -0.18341148 -0.2376037 -0.70096755 -0.38600668
000060 de 1f 2e be 1d 59 02 be 97 b9 28 3e 3f 75 18 bd
       -0.17004344 -0.12729307 0.16477047 -0.03722119
000070 81 b0 b0 3d 18 75 91 3e 7e 1a b4 3e 95 64 ea be
       0.086274154 0.28409648 0.35176462 -0.45779863
000080 8d 2d fe be 58 02 7b 3d 3a ac e6 3d 17 4d ae bd
       -0.49644127 0.061281532 0.11263318 -0.085107975
000090 49 94 08 bf 40 b0 ae bd a2 65 94 3d ef e3 15 bf
       -0.53351265 -0.08529711 0.072459474 -0.58550924

encoder.linear3.weight f4 [80, 40]
000000 21 94 00 be 5f a3 21 be f0 39 41 bc 29 2f a3 bc
       -0.12556507 -0.15784977 -0.0117935985 -0.019919949
000010 4c e2 b2 bc 12 03 1e bd 47 ee 08 be 1b ed 2a 3e
       -0.021836422 -0.038577147 -0.13372146 0.16692011
000020 fb ed 1f 3d c5 16 92 bc 9b 3a 5a bd d4 3f 65 be
       0.039045315 -0.017833123 -0.053278547 -0.2238763
000030 e1 59 a5 3d 34 48 bc 3d dc db b6 3d fc 69 a9 bd
       0.08073784 0.09193459 0.089286536 -0.08272168
000040 aa e3 b8 3d 83 fc 33 be a0 e6 93 3b ef 16 cf bd
       0.090277985 -0.17576794 0.0045135766 -0.10111796
000050 c0 5b c4 bb 39 99 13 3e 85 66 9a 3c be c3 eb bd
       -0.0059923828 0.14413919 0.018847713 -0.11511944
000060 42 85 01 3e d0 ac 2d 3d 62 a2 b5 bc c2 1a 20 be
       0.1264849 0.042401135 -0.022172157 -0.15635207
000070 b8 5b 8c 3d 30 88 c1 bc f2 79 67 3d d5 e3 5b bc
       0.068534315 -0.02362451 0.05651278 -0.013421019
000080 ab ae 0c be f1 7a c7 3d be fb 13 3e 1a ed dd 3d
       -0.13738506 0.09740246 0.14451501 0.10836239
000090 25 28 7d bd 48 23 2f bd 87 a7 dc 3d 44 6c 09 be
       -0.061805863 -0.042758256 0.10774141 -0.13420206
0000a0 55 80 f1 3a e6 69 cf bd a1 a5 d9 3d 33 81 b3 bd
       0.0018425087 -0.101276204 0.10627294 -0.08764877
0000b0 cf 69 2b be 09 e9 1a bd 95 c0 8e 3d 38 68 8d bd
       -0.16739582 -0.037819896 0.06970326 -0.06904644
0000c0 21 c1 e1 bd 18 59 39 3c b9 fe 50 3e 20 b7 bf 3d
       -0.110231645 0.0113127455 0.20409669 0.093611
0000d0 77 98 21 bd b8 d4 c5 3d dc c6 b9 bc ac c4 da 3b
       -0.039452042 0.096597135 -0.022677831 0.006676277
0000e0 d9 3f 69 3d 97 e8 0b 3e 01 cf 9c bd 06 d1 a9 be
       0.056945655 0.13662945 -0.0765667 -0.33167285
0000f0 54 71 57 be f9 a2 c1 bc 87 e4 59 bd 88 0c 8f bd
       -0.21039325 -0.023637282 -0.053196456 -0.06984812
000100 a3 6e bf be be 2a cb bd 3b 2b cc bd 7d ae 92 bd
       -0.37389097 -0.09920262 -0.09969183 -0.07162187
000110 4c 0c ed 3d 34 1f d5 3c 4a 32 1c 3e c5 0b 0a be
       0.11574611 0.026015855 0.15253559 -0.13481052
000120 d1 65 f2 bc 21 d7 a2 bd 51 28 ed 3d f8 71 b1 bd
       -0.029589565 -0.07951189 0.11579955 -0.08664316
000130 b3 c7 10 be b4 62 3d bd d9 3a f2 3d b6 33 00 bd
       -0.14138679 -0.04623671 0.118276305 -0.031299315
000140 68 b3 23 3d fd 33 40 bd e4 17 d9 bd c1 30 45 3c
       0.039966017 -0.04692458 -0.1060026 0.01203555
000150 91 cf 4a be b6 8f 1a be eb f2 09 be cc c6 60 3d
       -0.19805743 -0.15093884 -0.13471572 0.054877087
000160 3f 39 30 be 23 58 b9 3d 33 0e b7 bd 1e b8 62 bd
       -0.17209338 0.09050014 -0.08938255 -0.05535137
000170 e7 31 ca bc ce e3 7d bc c7 d2 70 bd 4c d7 98 bd
       -0.024681998 -0.015496207 -0.058794763 -0.074629396
000180 78 a7 aa bc 8b 82 4c be c9 bf 09 be 0a 81 08 bd
       -0.020831808 -0.19971673 -0.13452066 -0.033326186
000190 29 7d b4 3d 99 e9 1a be 2a a4 10 3d 08 bf b2 3d
       0.08812935 -0.15128173 0.03531281 0.087278426
0001a0 ec b2 8e 3c 87 45 10 be be 7b 41 3d d5 95 c4 bd
       0.017419301 -0.14089023 0.04723715 -0.09598891
0001b0 58 d1 36 3b d1 36 b7 bd 56 5b 2f be ac 6d 62 3c
       0.0027895775 -0.08946002 -0.17124686 0.013820093
0001c0 c6 96 4b bd e6 16 23 3b 3e ec d6 bd 20 ee d1 3d
       -0.049704336 0.0024885475 -0.10494278 0.10250497
0001d0 1b 04 4b 3d 49 34 4a bd 5f 86 82 3c 7b a6 4d 3d
       0.049564462 -0.04936627 0.015933214 0.050207596
0001e0 83 90 0b bd 8a b9 d8 bd d3 d9 d6 3d 74 03 59 3d
       -0.034073364 -0.10582264 0.104907654 0.05298181
0001f0 00 2d 84 be 14 94 4d bb 4b e0 4d be a9 ba 13 bd
       -0.25815582 -0.003136878 -0.20105092 -0.036066685
000200 5c 33 cf 3c d6 02 19 3e cd 13 0b 3e a5 29 d3 3d
       0.025293045 0.14942488 0.13581772 0.103106774
000210 88 54 13 be 7d 71 3d be f0 a2 27 be 7c d9 36 be
       -0.14387715 -0.18500324 -0.1637075 -0.17856401
000220 b6 19 3e 3e f0 39 25 3d be e0 82 3d 37 f3 6a be
       0.18564495 0.040338457 0.063905224 -0.22944342
000230 4d c4 27 be 04 9f 8d bd f4 d7 5e bd 3e be 54 be
       -0.16383477 -0.069150954 -0.054405168 -0.20775697
000240 54 a5 a4 be cf 1f 84 bd da 0b 35 3d 9e 17 19 be
       -0.32157385 -0.064513795 0.044200756 -0.14950415
000250 d8 78 fb bd 8f 2f 94 bd 04 d5 ac 3d 87 4f a6 bd
       -0.122789085 -0.072356336 0.08439067 -0.081206374
000260 e2 17 d5 bd 3e 72 91 bc 6f f0 b9 3c 7c c1 6d bb
       -0.10404946 -0.01775467 0.022697655 -0.0036278656
000270 32 9a 0f be 7b 3d 18 be 9d 2b 4d bd 0a 27 f2 3c
       -0.14023665 -0.14867203 -0.05009042 0.02955963
000280 d0 be 9f bd cb 33 cc 3c 89 df 5a bd 15 3a 4b 3e
       -0.078000665 0.02492704 -0.053435836 0.19846375
000290 26 dc 1a 3e bd 62 8f 3d 69 d8 c1 3d 3c a4 6c bd
       0.15123042 0.07001255 0.09465105 -0.057773814
0002a0 ca 09 2d bd 2d 1e 39 3e ce 5a b8 be 58 6a 1c bd
       -0.042245664 0.18077917 -0.36006778 -0.038187355
0002b0 4f 99 cc bd d8 7f 92 bd 37 a0 cf bd f8 34 98 bc
       -0.09990179 -0.071532905 -0.101379804 -0.018579945
0002c0 6d 42 29 bd 36 25 5c bd dc 0a f7 3c 75 6a bb 3e
       -0.041323114 -0.053746425 0.030156545 0.36604658
0002d0 98 d3 45 3d 5b a8 1f bd 84 98 15 3d ac 1f 2f bd
       0.048297495 -0.038978916 0.036522403 -0.042754814
0002e0 9f f3 77 3e 01 1c 9b bd 51 58 11 3e 7b 82 08 bc
       0.24214028 -0.07573701 0.14193846 -0.00833189
0002f0 d3 fc 2e 3c 5a 5e 95 bc f9 b9 81 3e 6a 90 fe bd
       0.010680395 -0.018233467 0.25337198 -0.124298885
000300 1a db 2c 3d 6a 22 0e 3d 03 71 e6 3d 5f 6c 17 3e
       0.04220114 0.03470079 0.11252024 0.14787434
000310 e1 49 2e 3e 9a 2b 5b 3e ed 12 32 be 71 77 6d be
       0.1702037 0.21403351 -0.17390032 -0.23190095
000320 31 11 cf bb c2 fe ba 3b b0 20 9f ba 6d 92 18 be
       -0.006319188 0.005706639 -0.0012140479 -0.14899607
000330 c3 09 40 bd 4e 1c 1b bd c1 9c 21 3d 43 e7 c7 bd
       -0.04688431 -0.03786879 0.039456133 -0.097609065
000340 53 6a f8 bb 48 57 4e 3d cb 7c 22 3d d0 b0 e3 bd
       -0.007581034 0.050376207 0.039669793 -0.11117709
000350 4b 18 a3 3c 94 aa 3d be 75 9d 23 be 93 60 4b be
       0.019909045 -0.18522102 -0.15978034 -0.19861059
000360 b4 05 35 bd 18 97 52 be 4d c5 c8 bc 19 76 16 bd
       -0.044194892 -0.2056545 -0.024508143 -0.03673372
000370 27 60 f3 bd 89 d4 b1 bd a5 b0 7c be e8 f8 7d bd
       -0.11883574 -0.08683116 -0.2467676 -0.062004954
000380 2a 41 30 3d 2c c4 28 bd 16 3f 5d bc e1 43 f0 bc
       0.043030895 -0.04120271 -0.01350381 -0.029329242
000390 a0 5b 11 3e 31 68 27 be 7a dd d0 3c 5d 43 01 be
       0.14195108 -0.1634834 0.025496233 -0.12623353
0003a0 f8 6e 90 3c 46 34 f5 3c 77 e3 3b bc b1 87 0f 3e
       0.017631039 0.029932152 -0.011467806 0.14016606
0003b0 08 55 43 bb e7 f2 02 bd 23 2b 15 3c 36 c2 18 be
       -0.0029805321 -0.03196993 0.009104523 -0.14917836
0003c0 66 f8 52 be 83 19 0b be 7a 0b ce bd c8 3e 14 be
       -0.20602569 -0.1358395 -0.10060783 -0.14477074
0003d0 cf 3b 62 bd 4a 03 57 3d 53 07 91 3d e0 36 29 3d
       -0.05523282 0.05249337 0.07081475 0.0413121
0003e0 76 9f ec 3d 0a 7d cd bd 22 16 c0 bd d9 26 d2 3c
       0.11553852 -0.10033615 -0.093792215 0.02565329
0003f0 af 4b c3 bc 2a 76 ae bd 84 72 87 bd 1c 09 4d bc
       -0.0238398 -0.08518632 -0.06613639 -0.012514379

encoder.linear3.bias f4 [80]
000000 a9 9d 00 3e 79 a9 00 3f 89 70 a8 be f8 56 4d 3d
       0.12560143 0.50258595 -0.32898358 0.050131768
000010 f7 53 d2 3d d5 b8 51 3e 16 b7 7c 3e 39 b1 e8 bd
       0.10269921 0.20480664 0.24679217 -0.113619275
000020 8d 00 ad 3d d9 39 21 3e 61 50 5b 3e 45 c4 50 bd
       0.08447371 0.15744723 0.21417381 -0.050968427
000030 30 89 15 3d 27 71 9f 3c e0 a8 83 be f3 2b 57 3e
       0.036507785 0.019463135 -0.2571478 0.21012859
000040 38 a3 2f be 14 a2 11 be 92 26 93 be 8c e4 d9 bd
       -0.17152107 -0.14221984 -0.28740364 -0.10639295
000050 81 30 56 be 8a b3 5d be 70 f1 20 bf 9a 4f ac be
       -0.2091694 -0.2165052 -0.62868404 -0.3365448
000060 f8 5a 7c bd 9f 19 c2 be 3d 2b e0 be b7 ba f7 be
       -0.061610192 -0.37910172 -0.43782988 -0.4838464
000070 5f cf c7 bd 65 75 98 be 9a 92 bf 3e 65 d6 04 3d
       -0.0975635 -0.29777065 0.37416536 0.032431025
000080 62 9e 52 be 70 61 6e 3e 1a 7e 2a bd 88 b0 e5 bd
       -0.20568231 0.23279357 -0.041624166 -0.11215311
000090 0c 4c 99 be 14 c2 3d 3e 05 a5 e9 3a ee 2c a0 bd
       -0.29940832 0.18531066 0.0017825669 -0.0782107
0000a0 f8 06 0f 3f 1a 02 19 3e 82 d1 d5 3e 6a c5 56 be
       0.5587001 0.14942208 0.41761404 -0.20973745
0000b0 a4 58 c2 bd f8 07 f8 bd 85 a6 54 be 3a 31 52 3e
       -0.09489563 -0.12110895 -0.20766647 0.20526591
0000c0 64 85 3c be 7d 55 23 be 83 dc 26 3e ba 88 ac bb
       -0.1841026 -0.1595058 0.16295056 -0.0052653225
0000d0 28 61 db be 03 78 18 bf 4f 47 cf be cb bf ba be
       -0.42847562 -0.59558123 -0.40484092 -0.3647445
0000e0 f4 85 6f be 79 ac 17 be 4d 43 7b 3d 67 c9 cd be
       -0.23390943 -0.14811887 0.06134348 -0.4019272
0000f0 dc 52 06 be c4 cd 0d 3c c2 a4 83 bc e7 09 a5 3e
       -0.13117546 0.008655015 -0.016069774 0.32234117
000100 f6 bc e4 be 74 b2 b1 bd 63 05 9d be af 28 28 3d
       -0.44675416 -0.08676615 -0.30668172 0.041054424
000110 62 a2 0d be a2 f1 ab 3c 05 8c f4 bd 9c 22 4f be
       -0.13831475 0.020989243 -0.11940769 -0.20228046
000120 af bd 25 be 71 aa 84 3c 4f 92 e0 3b f7 cf 23 bf
       -0.1618564 0.016194554 0.006853379 -0.63989204
000130 93 16 17 be 4c ba e7 be 60 98 38 be f1 e8 d2 be
       -0.14754705 -0.4525932 -0.18026876 -0.41193345

encoder.linear4.weight f4 [40, 80]
000000 e6 11 98 bd 00 4e e3 3d df 17 a9 3d 98 02 40 3c
       -0.07425289 0.11098862 0.08256506 0.011719368
000010 cd 6a 03 be 55 98 02 be a5 b4 21 be 74 f1 bc 3c
       -0.1283371 -0.12753423 -0.15791567 0.023064353
000020 24 70 53 bd f5 f8 02 be cc 1b 8b bd 1e 83 f2 bd
       -0.051620618 -0.12790282 -0.06792411 -0.11841415
000030 40 2a f8 bd bd c8 23 be c8 c6 b0 bd 57 58 a9 be
       -0.121174335 -0.15994544 -0.086316645 -0.3307521
000040 44 c6 03 3d 95 30 16 3d e8 df 29 be 0c 39 22 be
       0.032171503 0.036667425 -0.1658932 -0.15842074
000050 b2 52 b2 bd 92 28 05 3e 3e 8b 9e bd be 1c 4b 3c
       -0.08707179 0.13003758 -0.07741402 0.012396989
000060 87 28 7f 3d be 03 c2 bd c7 96 85 bd 75 9a 17 3c
       0.06229451 -0.0947337 -0.06522899 0.009253134
000070 cf f9 a7 bd e3 19 ea bd d0 75 85 be a4 ef 8e be
       -0.08201944 -0.11430719 -0.26066446 -0.27917206
000080 ec 38 a4 3b cd 35 4e be 16 55 67 3d 6f 21 04 3d
       0.0050116684 -0.20137711 0.05647763 0.032258447
000090 31 3e bb 3d 56 65 a9 3c 7f 91 00 be 96 8b b9 3c
       0.091427214 0.020678204 -0.12555502 0.022649568
0000a0 45 14 ee bd ee d6 fd bd cb 26 91 3d 55 33 66 3d
       -0.1162496 -0.1239451 0.07087477 0.056201298
0000b0 91 f1 fa bc a1 98 04 be 27 5e 39 bd 36 dd fb bd
       -0.030632766 -0.12948848 -0.045255806 -0.12298052
0000c0 23 17 ca bd b4 e1 36 bd 88 8c b0 3d 3d 41 c8 be
       -0.09867694 -0.04464884 0.08620554 -0.39112273
0000d0 f3 9f 26 3d ba d5 9f 3c 64 75 79 bd 28 cf dd bc
       0.040679883 0.019511092 -0.060902968 -0.027076319
0000e0 7f f8 33 bd 31 7d 76 3d 72 b0 f1 bd cf 93 ed bd
       -0.043938156 0.060177986 -0.118012324 -0.11600458
0000f0 3f 51 52 3c 56 d9 f4 3b 59 d3 d7 bd e3 63 78 bd
       0.012836753 0.0074721975 -0.10538358 -0.060642134
000100 9a df c3 bd 2c bc 3a 3d 5b 52 65 3b 40 db 9f 3b
       -0.09564133 0.04558961 0.0034991715 0.0048784316
000110 bc e7 f3 3c 0f 05 17 be 6a a5 87 3d f2 1b 3e be
       0.029773585 -0.14748023 0.06623347 -0.18565348
000120 c5 03 88 3d 62 68 95 3c 4b 56 9e bc 57 9b 7c bd
       0.06641344 0.01823825 -0.019328257 -0.06167158
000130 91 91 ff bd d1 13 02 be 09 f3 f8 bd a7 3c 22 bd
       -0.124789365 -0.12702872 -0.1215573 -0.039608624
000140 12 00 d5 bd 08 25 e1 ba c6 e9 fd bb 24 d9 f6 bc
       -0.10400404 -0.0017177174 -0.007748815 -0.030132838
000150 56 ae 37 be 70 49 20 3a 2e 40 c4 3c 9c 41 28 bd
       -0.17937598 0.00061144587 0.023956385 -0.041078195
000160 de 57 a2 3d a2 f8 b1 3d 9b fb 15 3d 92 e1 e4 bd
       0.079269156 0.08690001 0.036616903 -0.111758366
000170 64 02 95 3b 20 36 ed bd 58 dd f6 bd a5 54 94 bd
       0.004547404 -0.11582589 -0.12053937 -0.07242707
000180 aa 13 f4 3d 1d 81 b5 bd aa a4 44 bd c6 37 4d 3d
       0.11917813 -0.08862517 -0.0480086 0.050102018
000190 44 30 c5 bd 97 e1 26 3c 51 c8 1f 3c 1f 9c 0b be
       -0.096283466 0.010185621 0.009752349 -0.13633774
0001a0 e7 ff 07 bd ca ae b0 bd 92 94 ad bd 0f f7 1d be
       -0.033203032 -0.08627088 -0.08475603 -0.15426277
0001b0 aa 4b 0b bd 05 83 16 3d bb b8 b1 3d 4b 65 cd bd
       -0.034007706 0.036746044 0.08677813 -0.10029086
0001c0 06 32 80 bd b2 48 8a bd 4f 36 a8 bd 74 91 f2 3d
       -0.06259541 -0.06752147 -0.082134835 0.11844149
0001d0 04 ab f0 bd 06 31 07 be 69 71 85 bd d2 8a 06 bc
       -0.11751369 -0.13202295 -0.06515772 -0.008211808
0001e0 86 07 9c 3c b6 d7 f3 bd e6 6c 18 bd 1b 53 40 3d
       0.019046556 -0.11906378 -0.03721323 0.046954256
0001f0 73 b2 9b 3d c2 b9 fa bd d4 7b 02 3e d4 72 db bd
       0.07602396 -0.12242462 0.12742549 -0.10715261
000200 b4 7e bf bd 0c bc 69 bd d3 3c a9 bd 95 a8 25 be
       -0.093503386 -0.0570641 -0.082635544 -0.1617759
000210 89 f1 6c bd a2 a9 64 bb 40 c0 eb bd 8e f6 0f be
       -0.057847533 -0.0034891148 -0.11511278 -0.14058897
000220 17 7f ea bd 40 ab 93 bd 9c ee b7 bd 34 0e 9a 3b
       -0.11450022 -0.07210398 -0.08981058 0.0047014
000230 6d a5 26 3d f5 6e 09 3d fe 04 b0 3c 72 9d 4b bd
       0.040685106 0.033553082 0.021486755 -0.0497107
000240 6c 3a 01 bd dc c2 11 bd 05 46 55 bc 6f 92 80 3c
       -0.031549856 -0.035586223 -0.013017182 0.015694825
000250 52 9e 32 3d 5f 79 25 3d c4 f6 cc bd 98 70 ff bd
       0.043608017 0.04039895 -0.10008004 -0.124726474
000260 20 16 ae bc dc 23 96 bd 94 c1 33 bd 96 cb 25 be
       -0.021250784 -0.073310584 -0.043885782 -0.16190943
000270 c7 03 9a bd 5d 1d ef bc 96 1a 27 be ca 25 d5 3b
       -0.07520252 -0.029188806 -0.16318735 0.006504749
000280 89 c8 39 bd c9 9b 56 bd 64 da b8 3c e4 79 11 3d
       -0.04535726 -0.052394662 0.022565074 0.035516635
000290 21 52 06 be 1f ec d2 bd 59 bb 87 bd cb d9 dd bd
       -0.13117267 -0.10298943 -0.066275306 -0.10832556
0002a0 ed 38 b6 3d ae 04 78 3d 9c ae 86 3d e3 5b 10 3e
       0.088975765 0.060551338 0.06576273 0.14097552
0002b0 fc 5a 95 bd dd de 17 bd 9d f3 a8 3c 76 9e 10 be
       -0.072927445 -0.037077773 0.020623976 -0.14122948
0002c0 65 86 7f 3d fe 4a 53 3d 60 35 3a 3c 22 47 07 be
       0.062384028 0.05158519 0.011365265 -0.13210729
0002d0 0e 9b 8c 3d 8f fe 6a 3c 75 74 84 3d f8 da 13 bd
       0.06865512 0.014342918 0.06467525 -0.036097497
0002e0 ed 7a 0c bc 4c 91 d3 bd de 78 99 bd 0d c9 03 be
       -0.00857423 -0.103304476 -0.07493757 -0.12869664
0002f0 d2 cb 29 3d 90 4c bf bd 92 00 00 3d 82 19 12 3d
       0.041454144 -0.09340775 0.031250544 0.035668857
000300 c3 21 c5 bd 88 6d 0e bd c2 78 5d 3c 6e c5 a2 bc
       -0.0962558 -0.034772426 0.01351756 -0.019869532
000310 91 3c d3 bd 3c 1a 7c bd f8 21 26 bd 3f cb 26 3d
       -0.103142865 -0.061548457 -0.04055974 0.040721174
000320 98 8f 05 bc 1d 12 03 3d 98 bb 87 bd 42 ba ca 3d
       -0.008151911 0.031999696 -0.066275775 0.09898807
000330 c9 6a 29 bd 5e 2b ca bd bb 37 65 3d 6d 89 bd 3d
       -0.041361604 -0.09871553 0.05596135 0.092547275
000340 c0 59 da bc 46 5f 93 bd 2a 28 7f 3d 28 7d 00 be
       -0.026654124 -0.07195906 0.062294163 -0.12547743
000350 d1 a3 93 3d e2 fc d1 bc 38 c8 cf bc e6 b0 06 3d
       0.0720898 -0.02563328 -0.025364026 0.032883547
000360 09 09 c7 bc 50 24 11 bd 10 10 a8 3d 9f 2f 4f 3d
       -0.0242963 -0.03543502 0.08206189 0.050582524
000370 56 ea 50 bd 50 76 80 3d a8 02 c5 bd 46 8e e1 bc
       -0.05100473 0.06272566 -0.09619647 -0.027533662
000380 4a 0b b0 bd 28 c0 f4 bb 8d 11 4d 3d e5 7f 2f bc
       -0.08595903 -0.007469196 0.050065566 -0.010711645
000390 6b 5a 84 bd 4c 18 1c bd 4f 4b d2 bd 73 f9 a4 bd
       -0.06462558 -0.03810911 -0.1026827 -0.08055391
0003a0 10 d9 d3 3b 68 5c d2 ba 0b 24 ea 3d a6 cc 32 3d
       0.006465085 -0.0016049268 0.11432656 0.0436522
0003b0 bb 3b 0f be 9f 45 1e be a3 73 17 3d bb a4 5a 3d
       -0.13987629 -0.15456246 0.036975514 0.053379755
0003c0 6e c4 7c 3e 02 a7 1f bd 18 37 46 bd 33 07 47 bd
       0.24684307 -0.03897763 -0.048392385 -0.04859085
0003d0 3b d5 a2 3b 12 74 88 3c 3f 27 6d 3d 24 a2 35 3c
       0.0049692667 0.01665691 0.057898756 0.011086021
0003e0 e9 a4 ed bc e5 24 07 3c a9 9a 3c 3e e5 7b 93 3d
       -0.0290093 0.008248542 0.18418373 0.072013654
0003f0 9c 9e 97 bc 73 3b 5a bc dc cc e7 3d f3 2d 8e be
       -0.018508248 -0.013319838 0.11318371 -0.2776943

encoder.linear4.bias f4 [40]
000000 a2 8b 68 3e 66 22 f6 bd b4 ad 88 bd e5 04 18 3d
       0.22709516 -0.1201828 -0.06673756 0.037114043
000010 a0 4a 09 bf 80 59 8b 3a 72 59 65 be f2 14 e0 3d
       -0.53629494 0.0010631531 -0.22397402 0.10941495
000020 f6 75 34 bd f1 6a 38 3d 23 09 6a 3e bb 1d 37 3f
       -0.04405781 0.045023862 0.22855048 0.7152974
000030 7b 37 40 be 29 d3 b2 be e2 b7 c4 3d 5e 59 ad be
       -0.18771164 -0.34926727 0.09605385 -0.33857244
000040 9a 20 8c bd 2c 09 88 bd 52 3d 48 bc 0b 6b 1d be
       -0.06842156 -0.066423744 -0.012221651 -0.15372865
000050 33 51 01 be 59 53 9e be fe d5 26 be 34 c4 24 be
       -0.12628631 -0.30922964 -0.16292569 -0.1609047
000060 d1 17 c8 3d dd 58 bc be 8b 33 09 3f 52 f6 21 bf
       0.097701676 -0.36786547 0.53594273 -0.6326648
000070 31 ff f6 3e bd 11 95 bd 34 3f 30 3e c0 a5 16 be
       0.4824157 -0.07278774 0.1721161 -0.14711666
000080 56 73 1e be 1f 6f 80 bc 01 20 5d 3d 6c db 6b 3e
       -0.15473685 -0.015677987 0.0539856 0.23032922
000090 9d e1 8a be c7 67 a9 bd cf fa 94 be ae 04 83 bd
       -0.27125254 -0.08271747 -0.29097602 -0.06397377

encoder.linear5.weight f4 [20, 40]
000000 6b c2 aa 3d 7c db 65 3c d5 84 8a 3c 66 83 ea bd
       0.083378635 0.01402938 0.016909042 -0.114508435
000010 e1 2b 3b 3d 65 9b 0a 3d 8e a7 b5 bd 68 ad 96 bc
       0.045696143 0.033839602 -0.08869849 -0.018393233
000020 2f 37 a7 3d d4 3c 7c 3e 48 d4 7a bd 37 73 03 3e
       0.08164822 0.24632579 -0.061237603 0.1283692
000030 5e ff 54 bc 85 aa 30 3e 95 04 b1 bc a0 bf 54 3e
       -0.013000337 0.17252548 -0.02160863 0.20776224
000040 b1 02 71 3e 5c ba 1f 3e 9c 7b 15 3e af ea 4d 3e
       0.23536183 0.15598434 0.14597934 0.20109056
000050 2e 7f 1c 3d e8 91 c0 3c 7e 45 0c be 5c 72 2f be
       0.038207226 0.023507074 -0.13698384 -0.17133468
000060 78 2a 0d 3d 85 e9 60 3e a6 97 bf be f9 e5 cb 3d
       0.03446433 0.2196408 -0.37420386 0.09955973
000070 1a e3 e7 3d 9c b6 92 bd 15 bf 3a be 37 ac e3 bc
       0.11322613 -0.07163736 -0.18236955 -0.02779208
000080 07 12 d3 bc 57 c9 ea 3d 4f 35 59 3e 9a 09 af bd
       -0.025765432 0.11464184 0.21211742 -0.08546753
000090 2b 16 16 3e ec db 96 bd d9 f9 b4 3d 73 b1 b4 bc
       0.14656894 -0.073661655 0.08836717 -0.02205727
0000a0 1a 05 77 bc ab d3 28 be a1 ab 94 3d 90 04 b3 3c
       -0.0150769 -0.16486995 0.07259298 0.021852762
0000b0 50 24 bc 3d e3 24 0f bd 75 ed 68 bd d0 b8 c2 bd
       0.091866136 -0.034947287 -0.05686708 -0.095079064
0000c0 d5 85 e1 bd 56 67 c1 3d 87 51 4c 3d 86 a2 01 be
       -0.110118546 0.09443538 0.049882438 -0.12659654
0000d0 15 4c 30 3d 32 d2 a0 bd 41 e4 e2 bd 48 3c f8 3d
       0.043041307 -0.078525916 -0.11078692 0.12120873
0000e0 4f 05 ca 3d 66 b6 c7 bd 4f f6 31 bd df 62 ca 39
       0.09864294 -0.097515866 -0.04344779 0.00038602107
0000f0 b2 db e5 3d 7b 3e 18 be 9e c8 cd 3d ba ff 90 3d
       0.11223544 -0.14867584 0.1004803 0.07080026
000100 83 5e 0d be 6f bc 3d be 77 e2 fc bd c8 b1 33 3d
       -0.13805585 -0.18528913 -0.12347882 0.043870717
000110 2a 1b d3 bd 88 4c dc 3d 77 81 06 3d ef 09 a0 3d
       -0.103079155 0.10756785 0.03283831 0.07814395
000120 72 65 b4 bc 15 d7 28 3c 18 bc 21 3b 66 4c a3 bc
       -0.02202103 0.010305186 0.0024678763 -0.01993389
000130 27 7f 1c be 9a e9 0c bd bc b4 01 be ed ea 2a 3d
       -0.1528288 -0.034402467 -0.12666601 0.04172795
000140 e8 5e 01 bd 9b f8 9e 3d c8 d0 e2 bd de 4f bf bd
       -0.03158465 0.077622615 -0.11074978 -0.09341405
000150 0f e8 2d bc 9a e6 b2 3d ba 90 be 3e 0d 38 a3 bc
       -0.010614409 0.0873539 0.37219793 -0.019924188
000160 d2 a5 23 be 7f 6e 27 3d b6 6a 26 be 4b 1b f9 3d
       -0.15981224 0.04087686 -0.16251644 0.12163409
000170 b8 15 24 bd 91 9e 64 be de a0 7c 3e 4b c4 10 be
       -0.040059775 -0.22326113 0.24670741 -0.1413738
000180 d2 51 9f bd 1a 79 ac be fe ad 73 be ef 19 94 be
       -0.07779278 -0.33686143 -0.23796842 -0.28926036
000190 1a ec 4c bd fc e8 d1 bd 83 32 66 3e be 3f 0a bc
       -0.05002985 -0.10249516 0.22480206 -0.008438049
0001a0 20 05 60 be 49 9c 44 be 81 62 6c bd 41 36 c2 3c
       -0.21876955 -0.19200243 -0.05771113 0.02370751
0001b0 be 55 d9 be 7a b1 2c 3d 53 30 9b be ae c7 a7 3b
       -0.4244823 0.042161442 -0.30310306 0.005120239
0001c0 45 a1 ca 3d d6 77 41 bb 45 7e aa be 46 db 9d 3e
       0.09894041 -0.002952089 -0.3329946 0.30831355
0001d0 ef 61 9c 3b 56 68 a3 bc cf 18 b8 bd 3b 16 f2 bd
       0.004772417 -0.019947212 -0.08989107 -0.118206464
0001e0 ac 43 4b be e3 b0 e5 3d a9 31 0d 3d f4 b1 43 3e
       -0.19850034 0.11215379 0.034471188 0.19110852
0001f0 5c 24 71 be 9d d8 1a 3e 2c ef 80 be 98 49 9f bd
       -0.23549026 0.15121694 -0.25182474 -0.07777709
000200 1f 63 14 3e 95 2c ac 3e 7c 69 77 3c c1 70 24 3e
       0.14490937 0.33627763 0.015100833 0.16058637
000210 19 35 4b be d7 a7 18 3e c3 d4 35 3e 33 2c 51 3e
       -0.19844474 0.14907776 0.17756943 0.20427017
000220 51 c2 c0 3d cb 55 c7 3d 90 0f 09 3c 13 11 03 3e
       0.09412063 0.097331606 0.008365527 0.12799482
000230 76 ff 9e 3d f8 38 46 3c 7f 35 0c be cb ea ba bd
       0.07763569 0.012098543 -0.13692282 -0.091268145
000240 3b e5 83 3e c7 9b 5b 3e f9 41 3d be cd ac d5 bd
       0.25760826 0.21446143 -0.18482198 -0.1043335
000250 3b 03 ab 3d 12 2f a1 bd f0 d6 4e 3d a0 7c 70 3e
       0.083502255 -0.07870306 0.05049795 0.2348504
000260 7f 03 91 bd 67 e0 d8 3e 18 57 6a 3e 18 c9 75 bd
       -0.07080745 0.42358705 0.22884786 -0.06000623
000270 d7 78 3e 3d 4e ec d7 b9 e4 e5 09 3d 97 97 a5 3d
       0.04650196 -0.00041184056 0.033666506 0.08085554
000280 e5 96 38 3d e4 a8 62 be 09 1a 93 3d 1d 6c 59 be
       0.04506578 -0.22134739 0.071827 -0.21232648
000290 c4 02 8e bd c0 9a 41 3e 16 29 f3 3d 0d 7e 0c 3e
       -0.06934121 0.18906689 0.11873071 0.1371996
0002a0 a6 94 99 bd 48 af 3e bd 0b 5d 25 3e be 8d b1 3d
       -0.074990556 -0.04655388 0.16148774 0.08669613
0002b0 1b bf 14 be 60 64 10 be 12 c7 75 3c 14 05 a3 bd
       -0.14526026 -0.1410079 0.015001075 -0.07959953
0002c0 ac 9a 42 bd cd ce 3c be 5c 8d 3b bd 3e 65 99 bc
       -0.047510788 -0.18438263 -0.045789108 -0.018725034
0002d0 73 28 42 3e 24 e3 07 bb 2e 04 c3 bb e9 0f 05 3e
       0.18960743 -0.0020734752 -0.005951426 0.1299435
0002e0 3e 01 fd bd d2 ac 44 be 20 0f b4 3d cc 98 97 bc
       -0.123537526 -0.1920655 0.08791947 -0.018505476
0002f0 36 e1 01 3d 83 27 28 bd 91 2b 88 be 58 af 52 be
       0.03170892 -0.041053306 -0.2659574 -0.20574701
000300 aa 59 88 bd fd b2 0f 3e 4f b5 4c 3d 98 64 a9 3d
       -0.06657727 0.14033122 0.049977597 0.0827114
000310 ef d2 46 3d 98 2f ad bd 05 7a c7 3d 24 9c e8 bd
       0.048541006 -0.084563434 0.0974007 -0.113579065
000320 8f 44 18 be 7c 8f 11 be 6d c2 f4 bd da 31 05 3d
       -0.14869903 -0.14214891 -0.11951146 0.032518245
000330 93 5a 0f be 3e e0 95 3d f9 47 cc bd aa 87 ab 3d
       -0.13999395 0.073181614 -0.09974665 0.08375485
000340 dc 6c e7 bb 43 6b 0d 3e d8 29 a2 be 70 2a 0f 3e
       -0.0070625376 0.13810448 -0.3167255 0.13981032
000350 3e 7d 99 bd 68 f9 96 bd 47 3f b0 bd 67 42 90 3a
       -0.07494591 -0.07371789 -0.08605819 0.0011006118
000360 a3 74 15 3e e6 20 76 bd a3 91 2c bd 0e 21 dd be
       0.14595275 -0.06008997 -0.042131077 -0.4318928
000370 f4 a5 84 bc 2a 0c d9 3c 96 a6 13 be d0 cc c2 be
       -0.016192414 0.026495058 -0.14419016 -0.38046885
000380 cf 55 b4 be d4 da 37 be 34 12 c9 3d 3b 19 fd bd
       -0.35221717 -0.1795457 0.09817925 -0.12358328
000390 4e cb ae 3d ee 21 90 3b fd 66 a3 3d 2d cc fa bd
       0.08534871 0.004398576 0.07978628 -0.12245975
0003a0 8a 91 91 bc b2 f4 4d 3e db 8a ef be 61 16 2d be
       -0.017769594 0.20112875 -0.46785626 -0.16903068
0003b0 2c 63 bd be 49 f0 a2 3e 93 62 cb bd 87 3f bd 3d
       -0.36989725 0.31823948 -0.09930911 0.092406325
0003c0 38 9d 1e 3e ce 07 fb 3d 50 a3 30 be f6 d5 6c bd
       0.15489662 0.12257348 -0.17249799 -0.057821237
0003d0 ec 1e d0 bd 62 a3 08 be 4d 34 16 be 74 db 08 be
       -0.10162148 -0.13343576 -0.14668389 -0.13364965
0003e0 75 c0 04 3e 26 1b 19 be b5 97 e5 bd 85 45 3d be
       0.12964042 -0.14951763 -0.112105764 -0.18483551
0003f0 e2 0f 8d 3d 42 8a 8f 3d 40 31 b1 bc 70 29 86 bd
       0.06887795 0.070087925 -0.02162993 -0.06550872

encoder.linear5.bias f4 [20]
000000 e6 09 4c 3d 91 2e db bd 09 31 0f 3f d6 07 9f 3d
       0.049814127 -0.10702241 0.55934197 0.077651665
000010 d3 86 33 3f f5 38 da 3e aa ba 03 bc 61 8a 2a bd
       0.701276 0.4262158 -0.00804011 -0.041635875
000020 19 af 07 3c b5 04 49 be 06 33 4b be 3e 0d 43 be
       0.008281493 -0.19630702 -0.19843683 -0.1904802
000030 35 2c 0b bf d0 a7 a5 3e 74 90 ba be ed cf 2b be
       -0.5436433 0.32354593 -0.36438334 -0.16778536
000040 b2 d4 d7 3e bb f8 98 3e ea 9e 11 3f 22 07 21 3f
       0.4215446 0.29877266 0.5688311 0.6290151

encoder.linear6.weight f4 [5, 20]
000000 9b e5 01 3c 7f 4a 19 be 0f 83 56 3e 86 b0 52 be
       0.007928277 -0.14969824 0.20948432 -0.20575151
000010 6f 38 84 3e c2 65 0f 3e ce 61 e1 bd 45 58 86 bd
       0.25824305 0.14003661 -0.11004983 -0.06559805
000020 57 91 62 be b6 0a 11 3e 59 1c 51 bd 56 ce ff 3d
       -0.22125755 0.14164242 -0.051052425 0.12490527
000030 49 89 66 be 40 cc 87 3d c8 d6 c9 bd c0 45 69 ba
       -0.22513308 0.066307545 -0.098554194 -0.0008898638
000040 e0 1f f0 3d 6b 8b 59 3e 7e c4 ab 3e 0c 9e 8d 3e
       0.1172483 0.2124459 0.3354835 0.27659643
000050 d7 df 57 be e6 39 01 3e 60 05 e9 bc a0 a0 9f 3b
       -0.21081482 0.12619743 -0.028444946 0.004871443
000060 fc a5 5b bd b4 e9 59 bd 36 a6 3a 3e 96 0b 46 3e
       -0.053625092 -0.053201392 0.18227467 0.19340357
000070 ec c7 40 bd 40 1f 3f 3e 11 3c e5 bd 7a cb 10 3e
       -0.04706566 0.18664265 -0.111930974 0.1414012
000080 26 a9 0f 3e 00 aa cc ba f4 5c e3 3d 20 ae 8b 3b
       0.14029369 -0.0015614629 0.11101714 0.0042627007
000090 a8 ee 03 be b0 43 f6 3d 33 60 3e be cc fa a1 3d
       -0.12884009 0.12024629 -0.18591385 0.07909164
0000a0 92 45 62 be b0 05 ec 3d 68 68 ab 3e 65 e4 8d bd
       -0.22096851 0.11524522 0.33478093 -0.069283284
0000b0 c9 41 34 3e 43 14 aa 3e e7 ac e6 3c f1 b4 1b be
       0.1760322 0.33218583 0.028158618 -0.15205742
0000c0 ea 33 5f 3e df 98 f8 bb d0 57 be bc 78 33 b7 3d
       0.21797147 -0.007586583 -0.023235232 0.08945364
0000d0 d6 4e 97 be 0a 92 e2 bc d0 95 aa bd 57 ae 9f 3b
       -0.29552335 -0.027657527 -0.08329356 0.004873078
0000e0 71 7c 42 3e e8 96 25 be 95 a8 54 3e 98 54 c4 3d
       0.18992783 -0.16170847 0.20767434 0.095864475
0000f0 8d 09 8b bd d4 da 4f 3b 6f 3a 24 bd fc 3c 63 bd
       -0.06788931 0.0031716125 -0.04009479 -0.05547808
000100 2a b7 0a be 52 d2 a9 bd b7 d1 0a 3e 1a 93 1c be
       -0.13546434 -0.082920685 0.13556562 -0.1529049
000110 b8 88 e5 bd 74 a5 2a be 6a 27 ac bd 4a e4 6b 3e
       -0.11207718 -0.16664678 -0.08405955 0.23036304
000120 24 d9 2d 3e 5e d6 f5 3d b5 d6 fc 3d 72 42 3a 3d
       0.16977364 0.12003778 0.123456396 0.045473523
000130 8e ee 05 3e d8 ef 9d bb 13 5a ed bd 87 85 cb bc
       0.13079283 -0.0048198514 -0.11589446 -0.024843944
000140 57 ff a4 3e 19 1d 80 3c b6 08 4e 3e 98 00 93 3e
       0.3222606 0.015638875 0.2012051 0.2871139
000150 55 97 49 3e 17 df 04 bf 65 ec 3a 3e 01 43 1a be
       0.19686635 -0.5190291 0.1825424 -0.15064622
000160 be 8d e6 be e9 e1 26 be 56 38 3a bc 64 37 90 bb
       -0.45030016 -0.16297115 -0.011365971 -0.0044011343
000170 3c 9e c0 3d 57 a6 55 3e 65 82 e0 bd de 40 cd bd
       0.09405181 0.20864235 -0.10962371 -0.10022138
000180 bb e9 2c 3e 43 3e 48 3e d2 7c 04 be ee 89 9a 3e
       0.16886036 0.19555001 -0.1293824 0.30183357

encoder.linear6.bias f4 [5]
000000 ec 92 05 3e 8a 24 f8 bd 2c ee 07 3f 41 f1 01 bc
       0.13044327 -0.12116344 0.53097796 -0.007931055
000010 2c a8 2a ba
       -0.0006510045

encoder.linear7.weight f4 [2, 5]
000000 86 51 a1 3a 11 1f 85 be 65 1b 07 3c 62 9c 86 3e
       0.0012307621 -0.26000264 0.008246277 0.26291186
000010 2c 6a e9 3b 1c e4 e7 be 94 f7 00 3e 5c 8e 1f 3f
       0.0071232524 -0.4529122 0.12594444 0.623266
000020 b1 eb 84 3e 56 b3 f5 be
       0.25961068 -0.47988385

encoder.linear7.bias f4 [2]
000000 36 52 50 bc 24 83 7a bc
       -0.012714913 -0.015290055

encoder.linear8.weight f4 [2, 5]
000000 ca a6 4b bb 00 00 62 3c a3 57 7b bc 56 d0 c4 be
       -0.0031074756 0.013793945 -0.015340718 -0.38440198
000010 54 ec 45 bc a8 5f 0a bf 00 85 06 bb ba a8 d8 be
       -0.012080271 -0.5405221 -0.0020526052 -0.42316228
000020 3d 15 9c 3e 48 bc 31 be
       0.30484954 -0.1735698

encoder.linear8.bias f4 [2]
000000 9f cd a0 be 21 af 3d bf
       -0.31406876 -0.7409535

decoder.linear1.weight f4 [5, 2]
000000 93 a9 0c 3d 47 30 70 bf cf bc a5 bc ca f3 5d bf
       0.034341406 -0.93823665 -0.020231633 -0.8670012
000010 a5 ad a1 bd 67 c9 72 3f df f7 51 3e 0b 4a 5b 3f
       -0.07894448 0.94838566 0.20504712 0.85659856
000020 d1 c6 0d bd 51 f8 79 be
       -0.034613434 -0.24411131

decoder.linear1.bias f4 [5]
000000 52 d4 1b 3e 3f 9c 40 3f 15 ee ef bd 36 81 66 be
       0.15217713 0.7523841 -0.117153324 -0.22510228
000010 df 5a 24 bf
       -0.6420116

decoder.linear2.weight f4 [20, 5]
000000 44 35 39 be c4 cd 45 3e 18 18 ab bd 7c 17 a0 bd
       -0.18086725 0.19316775 -0.08354205 -0.07816979
000010 d2 2a a6 3e af 6d b6 be 39 d2 80 be e5 8c 1b 3f
       0.32454544 -0.35630557 -0.25160387 0.60761863
000020 d0 2e a9 3e fa b2 59 be cc 18 20 be b0 80 2c 3e
       0.33043528 -0.2125968 -0.1563446 0.16845965
000030 60 c1 c4 3a d0 ab 7a be b3 ce 8e 3e 66 56 26 bd
       0.0015011244 -0.24479604 0.27892074 -0.04060974
000040 e3 70 c0 be 01 12 90 3e a6 43 6d be c4 31 c9 be
       -0.37586126 0.28138736 -0.23170337 -0.3929578
000050 9d 75 0d 3e 06 5b 4b be 9d 8c d8 3e a6 91 8b 3e
       0.13814397 -0.19858941 0.4229478 0.27259558
000060 80 dd 3a 3d 02 03 e8 3e c0 3b 99 bc 61 e7 58 3e
       0.045621395 0.45314795 -0.018705249 0.21182014
000070 76 d1 11 bd 0f f5 2f be 54 9b 2e 3e a7 56 c5 3e
       -0.03560015 -0.17183326 0.1705144 0.38542673
000080 b8 3a c5 be 85 17 d5 3d ec 34 c6 be 86 bc 6e 3e
       -0.3852136 0.104048766 -0.3871225 0.23314103
000090 09 ac ca 3e b9 14 a0 3e 5c 3d 1f bb ce 4e 0c be
       0.39584377 0.3126581 -0.0024298048 -0.13701937
0000a0 b3 90 92 be a9 9a 0e 3f aa b5 e6 be 2c 25 53 3e
       -0.28626022 0.5570474 -0.45060474 0.20619649
0000b0 78 2d 38 be db dd 1d bf 56 b6 de 3d 51 f8 74 3e
       -0.17986095 -0.6166665 0.108746216 0.2392285
0000c0 73 89 f6 3e ed 24 85 3e 04 f5 d2 be 5e 37 3a be
       0.4815174 0.26004735 -0.41202557 -0.18185183
0000d0 2d fd 21 be 58 f5 15 3f 70 d8 6d be ec e4 a0 3e
       -0.15819235 0.5857749 -0.23227096 0.31424654
0000e0 d6 ee 81 be 48 86 d5 3d d4 09 98 be b0 ae 4f 3e
       -0.2537753 0.10426003 -0.29694998 0.20281482
0000f0 90 c1 11 be bb 73 7f be 4b 19 02 3f 2c 01 b1 be
       -0.14233994 -0.24946491 0.50819844 -0.34571207
000100 ec 7b 63 3e 8f 98 93 3e 1a d4 89 3e 75 92 19 3e
       0.22215241 0.2882733 0.26919633 0.14997275
000110 a2 7e 72 be 88 51 2e 3e f8 4d 65 bd f9 60 93 be
       -0.23681119 0.17023289 -0.05598256 -0.28784922
000120 50 50 62 be ed ac 79 be ac 5e 02 be 56 a7 49 be
       -0.2210095 -0.24382372 -0.12731427 -0.1969274
000130 d8 59 27 3e d0 97 29 3e b7 fe c5 be a2 46 aa 3e
       0.16342866 0.16561818 -0.38670895 0.33257014
000140 5d 8a a8 3e c6 b9 dd 3e 56 70 59 bd 84 fd 80 3e
       0.32918063 0.43305796 -0.053085648 0.25193417
000150 d0 14 dd 3e f5 72 37 be 25 39 98 be ab 54 82 3e
       0.4317994 -0.17914946 -0.29731098 0.25455222
000160 fc 54 5e 3e 6c e1 5e 3d e3 08 65 3e 22 47 ca 3e
       0.21712106 0.054414198 0.22366671 0.39507395
000170 39 f1 d2 3c 07 16 b4 3d e1 75 57 be 88 74 30 be
       0.02574979 0.08793264 -0.21041061 -0.17231953
000180 55 e4 4f 3d 72 40 65 be cd dc ad 3c ba e0 8c 3c
       0.050754864 -0.22387865 0.02122345 0.017197002

decoder.linear2.bias f4 [20]
000000 9d 1d da be 89 e2 a4 bd 71 c0 9e 3e 2d 09 02 3f
       -0.42600718 -0.08051021 0.31006196 0.5079525
000010 92 70 d9 be 6d 64 56 be 84 e4 cd 3e 2b 7a 64 be
       -0.42468697 -0.20936747 0.40213406 -0.22312228
000020 ea 51 d8 3e f7 bb ca 3d cf b1 e0 3d 70 70 b7 be
       0.42249995 0.09899133 0.10971414 -0.3582797
000030 86 03 3e 3f 79 3d ca bd fa f0 27 be 5e be d7 be
       0.74224126 -0.09875006 -0.16400519 -0.42137426
000040 d4 14 c6 3e be 79 f9 3e 2a 87 94 bd 1d 9b 6f 3e
       0.38687766 0.48725694 -0.07252343 0.23399015
