state_dict_cVAE_Beta=1.pt (torch, 77611 bytes, 30 tensors)

encoder.linear1.weight f4 [20, 11]
-0.15577057 -0.22796464 -0.15425634 -0.14322609 0.025112113 -0.26214746 0.082229614 -0.3311442
-0.009900916 -0.39943948 -1.4316006 -0.08914868 0.17181928 -0.112598844 -0.24296893 -0.024239017
0.2187693 -0.12778871 -0.030549316 0.0059481664 0.2764288 0.7960296 0.085569955 0.33118397
0.13650824 -0.05344291 0.0887317 0.4040813 0.05579871 0.29066315 0.17052747 0.31851587
1.5320575 -0.12940334 0.06317308 -0.16071506 -0.29752192 0.11697033 0.22891608 -0.2951182
-0.3322505 0.10802602 0.008752199 1.4800951 0.12320901 -0.23692472 -0.20591924 -0.36817074
0.1763862 0.13954534 -0.26479772 0.18828925 0.24019922 0.050159037 0.12479911 -0.11877523
-0.03032626 -0.2995359 0.16461581 -0.15569404 -0.40181363 -0.06723687 -0.24291137 -0.23167545
-0.028183836 -1.5280714 -0.07254569 0.014822793 -0.29972604 0.30455932 -0.1773651 0.08543822
0.194657 -0.15636116 -0.22085571 -0.17695877 -1.993708 0.39962313 -0.17401502 0.13246971
0.104253456 0.260785 0.22264013 -0.029856801 -0.10143768 0.036627136 0.00075802935 -0.054735553
0.05325989 -0.4599356 -0.3759663 -0.28370357 0.07424026 0.088941246 -0.20741123 -0.14759383
-0.3044144 0.13377154 -0.08440408 0.1856601 -0.15786907 -0.15143503 0.048588187 0.15018347
0.22539961 -0.026697338 0.1059815 -0.060027644 -0.17353517 -0.268306 -0.086216345 -0.07503226
0.19304013 -0.0044834213 -0.1666717 -0.022415904 -0.26136678 -0.07789204 0.030498734 0.07849608
-1.5896044 0.108438455 0.014379773 -0.07577546 0.15584882 -0.203307 -0.3507139 0.07181448
0.012325844 -0.25489104 -0.13592492 -1.2082964 0.050764967 0.023677763 -0.2305851 -0.25904894
0.22118634 -0.14689639 -0.25243592 0.26542684 -0.27188715 0.13968621 0.4636093 0.17048386
0.11703113 0.2682985 0.14854527 0.07615877 0.16756988 0.24162465 -0.0019724052 0.20516355
-0.13492376 -0.5615906 0.035633918 -0.23533566 -0.34291452 0.17362021 0.19687584 0.26221156
0.18989173 0.05313781 -0.17257544 -0.22850618 0.5281396 0.23434149 0.058265407 -0.12108049
-0.14465314 0.19484627 -0.10761753 0.28464472 -0.03031536 -0.08907489 0.122560605 0.07461726
-0.052036725 -0.02067621 0.43848696 -0.26267907 -0.25702843 0.02988736 -0.013714671 0.20009036
-0.040483076 0.1414515 0.1719029 0.20347427 0.23792394 -0.30373114 0.16895829 0.15653457
-0.29960164 0.07947734 -0.25606087 0.018575674 -0.122489214 -0.04661981 0.1781327 0.13943602
0.3116033 0.10408372 -0.15086152 -0.2207089 0.022378445 -0.026963154 0.0135987075 -0.056815833
-1.3669153 0.29245335 -0.20415497 0.16418482 -0.103087716 0.089336924 0.14992653 -0.034231454
-0.04617305 -0.11457557 -0.08000797 0.2077362
00000000: 5282 1fbe 906f 69be 60f5 1dbe dca9 12be
00000010: ebb7 cd3c 3138 86be 0068 a83d bc8b a9be
00000020: 7437 22bc 5583 ccbe b03e b7bf 9593 b6bd
00000030: 65f1 2f3e 399a e6bd d9cc 78be e790 c6bc
00000040: 0f05 603e 0bdb 02be 8f42 fabc d6e8 c23b
00000050: 1388 8d3e 99c8 4b3f 4d3f af3d f290 a93e
00000060: d1c8 0b3e f4e6 5abd f7b8 b53d bfe3 ce3e
00000070: 308d 643d cdd1 943e c19e 2e3e 8314 a33e
00000080: 761a c43f 4f82 04be e360 813d 7d92 24be
00000090: cb54 98be 248e ef3d fa68 6a3e bc19 97be
000000a0: bd1c aabe bf3c dd3d 6265 0f3c c273 bd3f
000000b0: 0155 fc3d 659c 72be 7edc 52be e080 bcbe
000000c0: 969e 343e f9e4 0e3e 9193 87be e6ce 403e
000000d0: c9f6 753e 9073 4d3d ad96 ff3d 6e40 f3bd
000000e0: c76e f8bc c55c 99be 0c91 283e 426e 1fbe
000000f0: 84ba cdbe 7cb3 89bd c2bd 78be 543c 6dbe
00000100: cae1 e6bc d897 c3bf d692 94bd 4ddb 723c
00000110: b175 99be 33ef 9b3e 329f 35be 3cfa ae3d
00000120: 2a54 473e 241d 20be 0028 62be ae34 35be
00000130: d331 ffbf 679b cc3e fe30 32be 24a6 073e
00000140: d682 d53d 9d85 853e c6fb 633e 4096 f4bc
00000150: 8fbe cfbd 5606 163d 7db6 463a 6332 60bd
00000160: 0b27 5a3d ae7c ebbe a87e c0be 9841 91be
00000170: 470b 983d d426 b63d 9c63 54be d622 17be
00000180: 34dc 9bbe 68fb 083e 0cdc acbd ae1d 3e3e
00000190: 6ea8 21be c911 1bbe 6804 473d b2c9 193e
000001a0: 28cf 663e 60b4 dabc d40c d93d 8cdf 75bd
000001b0: 34b3 31be 675f 89be 3292 b0bd 83aa 99bd
000001c0: 50ac 453e aae9 92bb fcab 2abe 8fa1 b7bc
000001d0: ded1 85be dd85 9fbd 7bd8 f93c 8ec2 a03d
000001e0: 2878 cbbf fb14 de3d 2499 6b3c 2a30 9bbd
000001f0: d596 1f3e b62f 50be c690 b3be 7813 933d
00000200: 56f2 493c 1481 82be e72f 0bbe 75a9 9abf
00000210: edee 4f3d def7 c13c 801e 6cbe 10a2 84be
00000220: ac7e 623e 026c 16be 483f 81be 07e6 873e
00000230: cb34 8bbe e709 0f3e 335e ed3e 5293 2e3e
00000240: 04ae ef3d 6c5e 893e 401c 183e 21f9 9b3d
00000250: 7097 2b3e 746c 773e 7843 01bb 6516 523e
00000260: 7429 0abe 67c4 0fbf dff4 113d d5fb 70be
00000270: 7e92 afbe 7fc9 313e d299 493e 9840 863e
00000280: fa72 423e 08a7 593d 9eb7 30be 86fd 69be
00000290: 2834 073f 37f7 6f3e b5a7 6e3d 0cf9 f7bd
000002a0: f41f 14be c885 473e 9466 dcbd f4bc 913e
000002b0: eb57 f8bc e56c b6bd 0e01 fb3d efd0 983d
000002c0: 7624 55bd 2861 a9bc 5d81 e03e df7d 86be
000002d0: 3b99 83be 56d6 f43c 80b3 60bc 7de4 4c3e
000002e0: 95d1 25bd a9d8 103e 5007 303e 8f5b 503e
000002f0: 55a2 733e a682 9bbe 6703 2d3e 994a 203e
00000300: 6365 99be 04c5 a23d 691a 83be 032c 983c
00000310: a0db fabd 6af4 3ebd 6b68 363e 51c8 0e3e
00000320: 788a 9f3e d829 d53d 717b 1abe 8401 62be
00000330: 0053 b73c d5e1 dcbc 1dcd 5e3c b8b7 68bd
00000340: 15f7 aebf 72bc 953e 000e 51be 1120 283e
00000350: a71f d3bd 47f6 b63d 5786 193e 4836 0cbd
00000360: f41f 3dbd 99a6 eabd 38db a3bd ccb8 543e

encoder.linear1.bias f4 [20]
0.5199696 -0.26029775 -0.04121883 -0.011535252 -0.14108111 -0.43874 -0.46687466 -0.36543572
-0.21446627 -0.2702636 -0.7975909 -0.9359461 -0.13252947 -0.8457693 0.45780218 -0.27661112
0.0182821 0.1594871 -1.0327544 -0.23129731
00000000: ba1c 053f bf45 85be 13d5 28bd 5bfe 3cbc
00000010: 9177 10be 87a2 e0be 320a efbe 641a bbbe
00000020: 0c9d 5bbe fe5f 8abe eb2e 4cbf 2a9a 6fbf
00000030: ceb5 07be 5684 58bf 0c65 ea3e f99f 8dbe
00000040: 58c4 953c 9650 233e 4c31 84bf 34d9 6cbe

encoder.linear2.weight f4 [40, 20]
-0.23850222 -0.19667488 -0.0081202155 0.10716264 0.16902411 -0.1165155 0.16657208 0.077111885
0.03791748 -0.1678778 0.13547255 0.21806541 0.09198662 0.15474842 0.07836057 0.19285344
-0.27378184 -0.0055332966 0.093177855 -0.086338095 -0.10157923 0.08710377 -0.014643093 0.1273013
-0.11923749 -0.3240024 0.07231694 -0.2197831 0.11450475 -0.19431126 0.1024207 -0.4966951
0.06600623 -0.012942581 0.17040019 -0.21045083 -0.108879514 -0.18277708 0.028462218 0.17114767
-0.004622379 -0.18802717 -0.09905854 0.041345652 -0.110928796 -0.25599793 0.16556124 0.032628633
0.23585954 0.22076419 -0.18446325 -0.12470168 -0.06147608 -0.19652149 -0.175479 -0.1249203
0.12799044 0.027295899 -0.15614836 0.22909886 0.026887838 -0.22089426 0.05738251 0.101002395
0.08400747 0.14408386 0.12150707 -0.22559512 0.09216722 -0.021573126 -0.13677944 -0.21190055
0.12079118 -0.10660455 -0.21765608 0.21278825 -0.042513918 -0.14086021 -0.2507032 -0.028599292
-0.05243276 0.1783589 0.096495405 -0.43742633 -0.040846407 -0.1961292 -0.38753942 -0.034890983
-0.12622856 0.17403394 -0.065482356 -0.08045554 -0.183119 0.040222723 0.09497377 0.17509516
0.03405353 0.09365119 -0.23589118 -0.04696933 -0.19755629 -0.2016796 0.10379339 -0.24491774
-0.13122806 -0.32741717 -0.07820657 0.22707504 0.13944662 -0.06712377 -0.07360016 0.17164256
-0.094435155 -0.34544015 -0.246689 0.04872045 -0.01240507 0.06940698 -0.04800701 0.06996775
-0.017099012 -0.15968743 -0.21355695 0.12362693 0.19170393 -0.16183321 0.04203374 -0.05843476
-0.033852577 -0.17335817 -0.09827239 -0.10578293 -0.1408791 -0.15421659 -0.16256696 0.03629261
-0.032344174 -0.09283709 -0.30206943 -0.16153437 0.038700074 0.18024608 -0.26169556 -0.09486153
0.04818593 -0.2814573 -0.026117768 -0.08067485 0.057694808 0.078846544 0.1987615 -0.07776768
0.12665886 0.08175024 -0.18614289 -0.0049222438 0.3305033 -0.05944949 -0.027838074 0.06687962
-0.20095849 -0.039560232 -0.09698411 -0.20314467 0.17920268 -0.011502415 0.12407193 0.1707454
-0.13923347 0.0021929294 0.11518559 -0.18760051 0.26075703 -0.24872449 -0.14072299 0.11104652
-0.12693712 -0.017429061 -0.020996243 -0.060086668 0.05578644 -0.08700075 -0.30086374 -0.61484885
-0.04555939 0.1266451 0.40943438 -0.07877322 0.11563361 0.040789396 -0.15524465 0.012885597
0.15102838 0.05954073 0.08271356 -0.051242582 -0.46581665 0.24709041 0.09292017 -0.051402524
0.30878797 -0.43009302 -0.0873363 -0.16138943 0.2321853 0.24724293 -0.0068744672 -0.2897976
0.05742851 0.019853637 0.07354675 0.20247419 0.025893625 -0.26726457 0.060188692 -0.17077257
0.014738966 0.089976326 -0.19461773 0.14504565 -0.25212085 -0.043380752 -0.411752 -0.23505206
-0.24436298 0.10565789 0.3256716 -0.06465974 -0.047621485 0.027606875 -0.16194716 0.2134567
-0.23810044 0.09046957 0.14969946 0.13243197 -0.6966475 0.44028953 0.14381118 -0.17006181
0.14913958 0.17611244 -0.049385924 -0.055772852 -0.112433456 0.044560444 0.02720508 -0.20004709
-0.09746143 0.025164261 -0.36670738 0.0980491 -0.018366126 -0.3195909 -0.10368705 0.10171068
00000000: ed39 74be 2465 49be a70a 05bc 1678 db3d
00000010: a814 2d3e ae9f eebd df91 2a3e d6ec 9d3d
00000020: 5c4f 1b3d 28e8 2bbe 51b9 0a3e 8a4c 5f3e
00000030: 7b63 bc3d 5f76 1e3e 827b a03d 5f7b 453e
00000040: 222d 8cbe a850 b5bb 08d4 be3d 07d2 b0bd
00000050: c508 d0bd 7663 b23d 95e9 6fbc 465b 023e
00000060: c932 f4bd a4e3 a5be e71a 943d d20e 61be
00000070: 7781 ea3d 88f9 46be f2c1 d13d d24e febe
00000080: 462e 873d 1f0d 54bc 637d 2e3e 6c80 57be
00000090: 39fc debd ea29 3bbe 9929 e93c 5641 2f3e
000000a0: 5377 97bb 328a 40be 34df cabd 0f5a 293d
000000b0: a32e e3bd 2912 83be e388 293e 9aa5 053d
000000c0: 2a85 713e 0210 623e efe3 3cbe 9863 ffbd
000000d0: 58ce 7bbd ee3c 49be c4b0 33be 37d6 ffbd
000000e0: ed0f 033e a69b df3c 5be5 1fbe e498 6a3e
000000f0: e243 dc3c 1b32 62be ec09 6b3d 58da ce3d
00000100: 1c0c ac3d b88a 133e b3d8 f83d 6802 67be
00000110: 2bc2 bc3d 20ba b0bc e90f 0cbe 75fc 58be
00000120: 5e61 f73d 7c53 dabd 3ce1 5ebe 2ae5 593e
00000130: 1323 2ebd a93d 10be 2b5c 80be 1049 eabc
00000140: bcc3 56bd b7a3 363e 629f c53d 58f6 dfbe
00000150: 904e 27bd 18d6 48be 916b c6be d9e9 0ebd
00000160: 0f42 01be f435 323e 9d1b 86bd e0c5 a4bd
00000170: 8c83 3bbe 95c0 243d 9c81 c23d 254c 333e
00000180: b77b 0b3d 32cc bf3d 758d 71be ea62 40bd
00000190: 324c 4abe 1985 4ebe a191 d43d b7cb 7abe
000001a0: a660 06be 39a3 a7be c42a a0bd 5c86 683e
000001b0: 18cb 0e3e 3078 89bd aebb 96bd 11c3 2f3e
000001c0: 3867 c1bd 88dd b0be 0b9c 7cbe 188f 473d
000001d0: a23e 4bbc 3f25 8e3d 00a3 44bd 404b 8f3d
000001e0: 3a13 8cbc 1a85 23be acae 5abe 1e30 fd3d
000001f0: 094e 443e 9bb7 25be 922b 2c3d 4959 6fbd
00000200: 00a9 0abd ce84 31be 0943 c9bd b9a4 d8bd
00000210: 9c42 10be f4ea 1dbe f477 26be 8fa7 143d
00000220: 537b 04bd 5f21 bebd d8a8 9abe 4469 25be
00000230: f883 1e3d 6e92 383e f6fc 85be c346 c2bd
00000240: 9c5e 453d 2c1b 90be eef4 d5bc db38 a5bd
00000250: 6451 6c3d 4c7a a13d 2288 4b3e a944 9fbd
00000260: dcb2 013e ab6c a73d 3e9c 3ebe c64a a1bb
00000270: bb37 a93e 4f81 73bd ac0c e4bc 2ff8 883d
00000280: 10c8 4dbe e909 22bd 9b9f c6bd 2805 50be
00000290: e880 373e a074 3cbc 6d19 fe3d e2d7 2e3e
000002a0: 3893 0ebe 40b7 0f3b 6ce6 eb3d 591a 40be
000002b0: f281 853e a2b1 7ebe b019 10be 5c6c e33d
000002c0: cefb 01be 64c7 8ebc 5000 acbc 701d 76bd
000002d0: 5280 643d 732d b2bd d00a 9abe bc66 1dbf
000002e0: 7c9c 3abd 41af 013e 62a1 d13e db53 a1bd
000002f0: 50d1 ec3d c812 273d 74f8 1ebe 1c1e 533c
00000300: 2fa7 1a3e fbe0 733d ba65 a93d bee3 51bd
00000310: 857f eebe 4505 7d3e ee4c be3d 748b 52bd
00000320: 7519 9e3e 2735 dcbe 60dd b2bd 4543 25be
00000330: fcc1 6d3e 402d 7d3e 3643 e1bb 5a60 94be
00000340: 283a 6b3d 18a4 a23c ae9f 963d 6555 4f3e
00000350: de1e d43c e7d6 88be 6b88 763d 01df 2ebe
00000360: b47b 713c 8245 b83d df49 47be d986 143e
00000370: fc15 81be 04b0 31bd 28d1 d2be 7db1 70be
00000380: 4a3a 7abe 2a63 d83d 6ebe a63e 536c 84bd
00000390: bf0e 43bd d027 e23c 7ad5 25be 6594 5a3e
000003a0: 9ad0 73be 1c48 b93d d14a 193e 3f9c 073e
000003b0: 7e57 32bf a16d e13e 3d43 133e af24 2ebe
000003c0: 0cb8 183e d256 343e e548 4abd 1372 64bd
000003d0: 8343 e6bd 0385 363d 30dd de3c 25d9 4cbe
000003e0: dc99 c7bd 4825 ce3c 12c1 bbbe f7cd c83d
000003f0: 8f74 96bc 6ba1 a3be e059 d4bd b04d d03d

encoder.linear2.bias f4 [40]
-0.7123284 -0.11459058 0.16967845 -0.14493503 -1.380533 0.087924436 0.06647089 0.7829066
0.12902716 -0.40650335 0.71983695 -0.46449807 0.057728313 -0.2049359 0.08857377 -0.27799803
-0.032059446 -0.0066060945 -0.09674108 0.08746338 0.33315736 -0.46278298 -0.85544056 -0.74668676
-0.82162726 0.16391645 -0.08905958 0.035007793 0.4833889 0.4921115 -0.19112875 0.25707513
-0.15113725 -0.409401 -0.2934042 0.31633374 -0.726875 -0.7670689 0.7088033 -0.007465799
00000000: 275b 36bf 77ae eabd 30c0 2d3e d969 14be
00000010: 4eb5 b0bf ba11 b43d e421 883d 916c 483f
00000020: b21f 043e 3521 d0be 3c47 383f b1d2 edbe
00000030: 8674 6c3d b7da 51be 2a66 b53d c255 8ebe
00000040: c450 03bd f077 d8bb 3020 c6bd 0020 b33d
00000050: 9a93 aa3e e4f1 ecbe 27fe 5abf dd26 3fbf
00000060: 2a56 52bf b7d9 273e de64 b6bd 5564 0f3d
00000070: c07e f73e 0af6 fb3e 41b7 43be 5a9f 833e
00000080: b9c3 1abe 029d d1be 1339 96be 7ff6 a13e
00000090: 7b14 3abf a15e 44bf 2274 353f a9a3 f4bb

encoder.linear3.weight f4 [80, 40]
0.041346945 0.17815307 -0.047227804 -0.060782634 0.010547732 -0.19476017 -0.009324944 0.30677488
-0.15477833 -0.08575002 -0.15760194 -0.3712651 0.0487158 0.31209183 -0.100671925 0.14013785
-0.25343525 0.1212856 -0.1919907 -0.068036795 -0.65138626 -0.002886672 0.12080716 -0.006959135
0.10105956 -0.34221464 0.037409194 -0.2201057 0.14571902 -0.14071119 0.012733646 -0.05837874
0.15307085 0.1852716 0.10298311 -0.18449162 -0.032117877 0.1633873 -0.07233457 -0.24003264
0.06459318 -0.0910049 -0.0017433185 -0.082330585 -0.12389354 0.106493875 -0.039999533 -0.33162862
0.10552509 -0.34590283 -0.044307947 0.02677099 -0.03407991 0.2282195 -0.0142115615 -0.12319927
-0.11495242 -0.06852333 -0.05319349 0.15854056 0.15815528 -0.22264944 -0.19860366 -0.038229536
0.1086542 -0.21250537 0.1484901 -0.14654459 0.24557161 -0.04668312 -0.15077302 -0.08455266
0.10414612 -0.0438943 0.20001052 -0.15765628 -0.16981255 -0.17302606 -0.271694 -0.079731405
-0.04114654 0.010921892 0.021536872 0.039570883 0.000925825 -0.07168537 -0.029171815 -0.11894533
-0.06821965 0.1261278 0.060435504 -0.012546132 -0.12739614 -0.024001729 -0.03564315 -0.08302263
-0.15187642 0.1279332 -0.10303732 0.06277427 -0.08838017 0.0041191 0.046400905 -0.22181873
-0.09091721 -0.09611498 0.10751024 -0.15140972 -0.11255632 0.025865734 -0.014375604 -0.14883384
-0.00897862 0.10081101 -0.12319411 -0.16125147 -0.12810367 0.011955781 0.08422524 -0.0468338
0.22215101 0.17423227 -0.013990465 0.18151371 -0.005341126 0.08237842 0.06541728 0.16393194
-0.16815342 -0.4274407 -0.103206016 -0.5344444 -0.12515974 0.028627269 0.067814365 -0.04857992
0.23596168 0.03704388 0.2341942 0.057073265 -0.028791428 -0.0007173226 0.19650587 -0.03185369
-0.15800823 -0.27095905 -0.12595592 0.17379126 -0.05549013 0.113504626 0.10812953 0.18923466
0.04239032 -0.0155180385 -0.14589429 -0.1956079 0.043021843 0.20289308 -0.2901712 -0.017752774
-0.16139743 0.02652679 -0.13047516 -0.09515368 -0.27307397 -0.034168355 -0.16246209 -0.07511249
0.14324693 0.0816773 0.060111947 -0.056069 -0.015646972 -0.06859052 -0.09087018 -0.32802397
0.025503173 0.052247345 -0.1026653 -0.15548925 -0.21277551 0.06261736 -0.28722835 -0.30453345
0.05833801 0.077420324 0.00019912329 -0.03285025 -0.15444066 -0.051418483 0.039630823 -0.15748759
0.042094693 -0.15724875 0.029883556 -0.14268821 -0.06606655 0.014357859 -0.0318897 0.012691781
-0.37118876 -0.014578761 0.023244163 0.027716264 -0.13380425 -0.01593682 0.033039667 -0.12336063
0.057571385 0.0667637 0.035159603 -0.07711171 0.18984929 -0.0912351 0.106140144 -0.13603754
-0.028379181 0.066342644 0.027714223 0.084804796 0.32093558 -0.024387848 -0.19711357 -0.13991414
-0.3824262 0.13125512 0.011070375 0.11329447 0.11831763 -0.14541449 0.04584314 -0.13768291
-0.09389927 0.09663034 0.08114926 -0.0952272 -0.08820786 -0.24659425 0.07295944 0.040718038
-0.35358766 -0.20661885 0.065095276 -0.03658764 -0.2981739 0.18788595 -0.21980041 0.21956174
0.015630895 -0.025910404 -0.04845515 0.022766124 0.06366948 -0.061557237 -0.06764944 -0.22976087
00000000: 6a5b 293d c26d 363e f171 41bd 36f7 78bd
00000010: 65d0 2c3c 366f 47be a6c7 18bc 9911 9d3e
00000020: 367e 1ebe b59d afbd 6762 21be 7616 bebe
00000030: 388a 473d 80ca 9f3e 152d cebd 4c80 0f3e
00000040: 44c2 81be 9664 f83d 3699 44be e056 8bbd
00000050: 40c1 26bf 522e 3dbb bf69 f73d 7509 e4bb
00000060: 51f8 ce3d c236 afbe 623a 193d 6363 61be
00000070: 5e37 153e 9816 10be c8a0 503c 8c1e 6fbd
00000080: 9bbe 1c3e d7b7 3d3e cfe8 d23d 5feb 3cbe
00000090: 098e 03bd 004f 273e 2624 94bd 1ecb 75be
000000a0: 6e49 843d c760 babd 1080 e4ba f09c a8bd
000000b0: e5bb fdbd 7619 da3d 8dd6 23bd 3acb a9be
000000c0: 8a1d d83d 2d1a b1be 407c 35bd d64e db3c
000000d0: 6097 0bbd 5fb2 693e 9cd7 68bc e64f fcbd
000000e0: 2d6c ebbd f655 8cbd 6be1 59bd 7558 223e
000000f0: 75f3 213e 37fe 63be c25e 4bbe 9396 1cbd
00000100: 1886 de3d 029b 59be ca0d 183e c90f 16be
00000110: 2077 7b3e cd36 3fbd 3e64 1abe f229 adbd
00000120: 904a d53d 82ca 33bd 8fcf 4c3e a670 21be
00000130: 57e3 2dbe be2d 31be 7a1b 8bbe 384a a3bd
00000140: 4689 28bd bcf1 323c 186e b03c 1415 223d
00000150: 10b3 723a c7cf 92bd bbf9 eebc 9c99 f3bd
00000160: beb6 8bbd a527 013e 388b 773d 4b8e 4dbc
00000170: 2274 02be 469f c4bc 8dfe 11bd c507 aabd
00000180: 7e85 1bbe ec00 033e 3b05 d3bd cc8f 803d
00000190: aa00 b5bd 84f9 863b e00e 3e3d 7324 63be
000001a0: cd32 babd eed7 c4bd 542e dc3d 260b 1bbe
000001b0: ee83 e6bd 60e4 d33c a787 6bbc e667 18be
000001c0: 101b 13bc 0176 ce3d 324d fcbd 1b1f 25be
000001d0: 9c2d 03be 2ee2 433c 487e ac3d ccd4 3fbd
000001e0: 8e7b 633e f269 323e 4338 65bc bbde 393e
000001f0: 9d04 afbb 04b6 a83d 7ff9 853d c6dd 273e
00000200: 6930 2cbe 82d9 dabe ad5d d3bd 59d1 08bf
00000210: e029 00be bc83 ea3c 42e2 8a3d bdfb 46bd
00000220: f09f 713e 53bb 173d 9bd0 6f3e a8c5 693d
00000230: 00dc ebbc b40a 3cba d638 493e 0479 02bd
00000240: e9cc 21be 25bb 8abe 97fa 00be 56f6 313e
00000250: 9e49 63bd 1d75 e83d 0473 dd3d bbc6 413e
00000260: 79a1 2d3d 5f3f 7ebc 5065 15be 704d 48be
00000270: ac37 303d 34c3 4f3e 5291 94be 446e 91bc
00000280: 5e45 25be b64e d93c 489b 05be efdf c2bd
00000290: 5ad0 8bbe 1ef4 0bbd 765c 26be 94d4 99bd
000002a0: 53af 123e 6e46 a73d f237 763d 9ca8 65bd
000002b0: 142e 80bc 3079 8cbd 251a babd c2f2 a7be
000002c0: 08ec d03c 5001 563d 2f42 d2bd 9338 1fbe
000002d0: d3e1 59be 883d 803d 980f 93be cfeb 9bbe
000002e0: d6f3 6e3d 8c8e 9e3d c0cb 5039 fc8d 06bd
000002f0: b125 1ebe 309c 52bd ee53 223d 6d44 21be
00000300: 7c6b 2c3d d105 21be 5cce f43c dc1c 12be
00000310: e64d 87bd 3a3d 6b3c c69e 02bd 30f1 4f3c
00000320: 740c bebe c1db 6ebc 8b6a be3c 380d e33c
00000330: fb03 09be ef8d 82bc 9a54 073d 7fa4 fcbd
00000340: f9cf 6b3d 68bb 883d 8403 103d bfec 9dbd
00000350: da67 423e 78d9 babd 0160 d93d 6d4d 0bbe
00000360: 757b e8bc a7de 873d f008 e33c 23ae ad3d
00000370: ab51 a43e 06c9 c7bc 24d8 49be a745 0fbe
00000380: 5ecd c3be be67 063e 8560 353c ee06 e83d
00000390: 8350 f23d 89e7 14be 04c6 3b3d c0fc 0cbe
000003a0: 434e c0bd 21e6 c53d 9531 a63d 7a06 c3bd
000003b0: 53a6 b4bd 3483 7cbe c26b 953d f5c7 263d
000003c0: 7109 b5be e493 53be ac50 853d ecdc 15bd
000003d0: 40aa 98be 2d65 403e 5c13 61be cbd4 603e
000003e0: 5d0c 803c 0e42 d4bc e878 46bd 0680 ba3c
000003f0: 2565 823d 7123 7cbd ca8b 8abd 6f46 6bbe

encoder.linear3.bias f4 [80]
-0.3193315 -0.109998286 -0.10455186 -0.4125479 0.142226 0.5768028 0.68771225 -0.25871015
-0.2473244 0.3618104 -0.5842695 0.25931877 0.19240534 -0.18779504 -0.1691771 -0.5918573
-0.037949067 -0.17802899 -0.3148726 0.033768926 0.45355934 -0.7722827 -0.3452788 0.07276148
0.6164337 0.97390926 0.17060229 -0.05326958 -0.38301754 -0.30583906 0.09571541 0.06721796
0.12512879 -0.11233738 0.24939048 -0.21384536 -0.28691095 -0.040496863 -0.38603613 0.48909673
-0.19693978 -0.07271056 0.049458645 0.36767176 0.014617451 -0.026554232 0.19221766 -0.08937653
0.021454535 -0.12349525 -0.76104414 0.37286794 -0.41008878 -0.21799958 -0.6653123 0.5086814
-0.17722097 0.11318666 0.2248669 -0.5929412 -0.011235551 -0.55902153 -0.09223358 -0.12777606
-0.08319405 0.19672059 0.0349605 0.05045577 -0.16821097 -0.017111735 0.5241212 -0.25530085
0.10325763 0.051108573 -0.17057799 -0.10944833 -0.08852369 -0.7148908 -0.30046928 -0.30582362
00000000: 6b7f a3be c846 e1bd 491f d6bd 7a39 d3be
00000010: b1a3 113e 59a9 133f e90d 303f a875 84be
00000020: 9c42 7dbe 363f b93e b092 15bf 6ec5 843e
00000030: e805 453e 584d 40be c33c 2dbe f683 17bf
00000040: 7b70 1bbd 3b4d 36be fb36 a1be 4951 0a3d
00000050: ee38 e83e 52b4 45bf 62c8 b0be f903 953d
00000060: 99ce 1d3f 1e52 793f 5eb2 2e3e 3431 5abd
00000070: e01a c4be f096 9cbe 7106 c43d 92a9 893d
00000080: c321 003e 2411 e6bd 3860 7f3e 47fa 5abe
00000090: fee5 92be 0ae0 25bd 87a6 c5be e36a fa3e
000000a0: 95aa 49be 46e9 94bd 2695 4a3d 793f bc3e
000000b0: 087e 6f3c 4388 d9bc b5d4 443e 0b0b b7bd
000000c0: 6cc1 af3c 14eb fcbd cad3 42bf 8ce8 be3e
000000d0: 28f7 d1be 483b 5fbe e851 2abf f238 023f
000000e0: 6a79 35be 68ce e73d 8243 663e ffca 17bf
000000f0: 5115 38bc 091c 0fbf f6e4 bcbd bad7 02be
00000100: a461 aabd 1f71 493e be32 0f3d b6aa 4e3d
00000110: 7f3f 2cbe e92d 8cbc cf2c 063f cbb6 82be
00000120: bc78 d33d 3957 513d ffab 2ebe 7226 e0bd
00000130: e94b b5bd 1503 37bf 1cd7 99be ea94 9cbe

encoder.linear4.weight f4 [40, 80]
0.039728787 0.09651474 -0.0049801543 -0.056742847 -0.018617816 0.05562416 -0.12770781 -0.08749331
0.06629156 -0.06133881 0.06100209 -0.05614243 -0.0453112 0.05380694 -0.071287505 -0.03372258
0.04541348 0.041127082 0.07823321 -0.008171961 0.03423785 -0.102595024 0.052458577 -0.07876018
-0.032436807 -0.055121265 0.007506647 -0.059343517 -0.015350674 0.0060689384 -0.036330663 -0.059162036
-0.079909116 -0.0814669 -0.11976241 -0.0799188 -0.0859806 -0.037186094 -0.032448698 -0.10390875
0.082481205 -0.11389896 -0.0122560365 -0.14816445 -0.032621846 -0.029754758 -0.017488958 0.026371479
-0.009142834 -0.08711479 -0.04944749 -0.11626255 -0.07620319 0.00280796 -0.09386113 0.030750081
-0.08453209 0.00030662608 0.0028781379 -0.09027246 0.084229335 -0.077756606 -0.0034900978 -0.07911238
-0.060978733 -0.061784673 -0.08367137 -0.042116657 -0.06183253 -0.0055698156 -0.09098237 -0.040438898
0.04658921 0.09545877 -0.10632958 0.06227649 0.06615674 -0.1136619 0.050347805 0.051530965
-0.15441464 0.023129433 0.037361875 0.17096995 0.020586597 0.013961604 0.10198667 -0.07793744
-0.23676284 0.13742524 0.036556136 0.08671094 -0.09757084 9.435916e-05 -0.0006934358 0.08615698
0.08190515 0.0249463 -0.05345418 -0.0392343 0.08561699 -0.15256813 -0.00038665533 -0.13885567
-0.27173814 -0.20026137 -0.016223717 -0.13010727 -0.025508659 -0.122033834 -0.6847999 -0.028700076
-0.03563165 -0.14908646 -0.015885875 0.068293974 0.02041658 -0.042442672 -0.073977426 -0.08832934
-0.012114211 -0.022175748 -0.1742001 -0.06875214 0.049119823 -0.29607448 0.016458953 -0.11686795
0.01390112 0.052802987 -0.015527501 0.05496455 -0.08075856 -0.087921664 -0.13904649 -0.048637476
-0.097182736 0.006161833 -0.34100318 -0.12738398 0.0012263802 0.077229224 -0.15096602 -0.039811805
-0.14002934 0.012043823 -0.055262394 -0.08889734 0.05170827 0.062310398 -0.25490072 -0.55679846
-0.09852007 0.04720776 -0.13819829 -0.12076841 -0.1480852 -0.01955336 0.07123555 -0.10590399
-0.4385112 -0.007766516 -0.05348258 0.0149441445 0.034268655 -0.040247478 0.3613662 -0.09044108
-0.17850304 0.0981402 -0.16073178 0.13815652 -0.019796725 -0.16724089 0.03380933 -0.26165202
0.039497633 0.035666563 0.03523232 0.047623146 -0.14585263 -0.11940504 0.17788371 0.07377846
0.025974127 0.4100558 0.05780949 -0.029785382 -0.18476675 -0.13252918 0.17130663 -0.086960614
-0.039447363 -0.12623854 0.026310988 0.023092687 -0.0669071 -0.07689144 -0.032280277 0.045320872
-0.23852283 0.03882143 -0.024916254 0.08466498 0.06770964 -0.18454222 -0.092159696 -0.1763638
0.019170169 -0.1272504 -0.4567313 -0.09578465 -0.08722606 -0.010203583 -0.13222392 0.019704109
-0.041955955 0.031348996 -0.114018664 -0.1458409 0.019746564 -0.02831466 -0.051557593 0.0029272055
-0.13672379 0.1472912 0.06181382 0.11379577 -0.022026142 -0.018862268 0.16578563 0.06662897
0.0028683357 -0.19906284 -0.44316003 -0.04806814 -0.20468697 -0.2442528 -0.11347303 -0.21462467
-0.15625046 -0.21466893 0.07630489 0.09949607 -0.02057093 -0.042600427 0.22751203 -0.025635876
-0.034175936 -0.07573077 -0.04054333 -0.10457827 -0.18797591 0.03946617 -0.08102826 -0.1727053
00000000: a7ba 223d 85a9 c53d 9030 a3bb 306b 68bd
00000010: 6484 98bc 29d6 633d d6c5 02be b12f b3bd
00000020: dfc3 873d 673e 7bbd 54dd 793d 9bf5 65bd
00000030: 3d98 39bd aa64 5c3d 2fff 91bd b020 0abd
00000040: 7c03 3a3d df74 283d bc38 a03d b0e3 05bc
00000050: fd3c 0c3d 571d d2bd cede 563d 044d a1bd
00000060: 75dc 04bd d6c6 61bd 52fa f53b 3012 73bd
00000070: 6581 7bbc f2dd c63b 76cf 14bd e453 72bd
00000080: 64a7 a3bd 1ed8 a6bd ff45 f5bd 78ac a3bd
00000090: 9916 b0bd 7250 18bd ede8 04bd 1cce d4bd
000000a0: e8eb a83d dc43 e9bd 8bcd 48bc 6cb8 17be
000000b0: 7c9e 05bd 40c0 f3bc 0145 8fbc 0009 d83c
000000c0: d3cb 15bc 3d69 b2bd 7489 4abd 0f1b eebd
000000d0: 6b10 9cbd c005 383b 443a c0bd 98e7 fb3c
000000e0: 291f adbd a8c2 a039 249f 3c3b c4e0 b8bd
000000f0: 6e80 ac3d db3e 9fbd 20ba 64bb ac05 a2bd
00000100: d6c4 79bd ed11 7dbd e55b abbd 8482 2cbd
00000110: 1b44 7dbd 0083 b6bb f754 babd 42a3 25bd
00000120: 54d4 3e3d e37f c33d 53c3 d9bd a215 7f3d
00000130: 2f7d 873d 92c7 e8bd 8039 4e3d 2212 533d
00000140: df1e 1ebe f079 bd3c c408 193d bf12 2f3e
00000150: 39a5 a83c 36bf 643c 63de d03d aa9d 9fbd
00000160: f571 72be 34b9 0c3e e3bb 153d 8195 b13d
00000170: 38d3 c7bd b0e2 c538 b0c7 35ba 1273 b03d
00000180: e3bd a73d 2f5c cc3c c5f2 5abd 25b4 20bd
00000190: f657 af3d d23a 1cbe 00b8 cab9 2e30 0ebe
000001a0: 4321 8bbe 5111 4dbe 9ae7 84bc d73a 05be
000001b0: 89f7 d0bc e0ec f9bd 0c4f 2fbf 6c1c ebbc
000001c0: 7ef2 11bd 1faa 18be 1823 82bc b6dd 8b3d
000001d0: ac40 a73c 5ed8 2dbd 7a81 97bd 03e6 b4bd
000001e0: af7a 46bc eaa9 b5bc 8361 32be eccd 8cbd
000001f0: de31 493d 1397 97be edd4 863c 7758 efbd
00000200: 86c1 633c f247 583d 0f67 7ebc 8222 613d
00000210: be64 a5bd 4610 b4bd 3462 0ebe 1738 47bd
00000220: be07 c7bd 34e9 c93b f897 aebe f270 02be
00000230: 7ebe a03a 5b2a 9e3d d696 1abe b411 23bd
00000240: da63 0fbe 7453 453c d25a 62bd cf0f b6bd
00000250: 0dcc 533d 3039 7f3d 5982 82be 588a 0ebf
00000260: e4c4 c9bd ed5c 413d da83 0dbe 6e55 f7bd
00000270: a6a3 17be 5e2e a0bc f2e3 913d 31e4 d8bd
00000280: 8a84 e0be 427e febb 8d10 5bbd 49d8 743c
00000290: 4a5d 0c3d 8ada 24bd fe04 b93e 2c39 b9bd
000002a0: 80c9 36be bbfd c83d df96 24be e778 0d3e
000002b0: be2c a2bc 3241 2bbe a77b 0a3d 41f7 85be
000002c0: 45c8 213d 1a17 123d c44f 103d 7d10 433d
000002d0: 645a 15be a18a f4bd 2627 363e 2919 973d
000002e0: b1c7 d43c d5f2 d13e a5c9 6c3d 7900 f4bc
000002f0: 7f33 3dbe bbb5 07be 016b 2f3e 6818 b2bd
00000300: 8f93 21bd ad44 01be 248a d73c e02c bd3c
00000310: 9706 89bd 4279 9dbd 5338 04bd 61a2 393d
00000320: 543f 74be 3803 1f3d 2c1d ccbc d564 ad3d
00000330: 5aab 8a3d a3f8 3cbe 39be bcbd b698 34be
00000340: c20a 9d3c ee4d 02be afd8 e9be be2a c4bd
00000350: 94a3 b2bd ee2c 27bc b565 07be 836a a13c
00000360: 02da 2bbd ce67 003d 9e82 e9bd 5157 15be
00000370: 8cc3 a13c 25f4 e7bc 0e2e 53bd 5cd6 3f3b
00000380: 5201 0cbe 81d3 163e 7d30 7d3d c20d e93d
00000390: 2b70 b4bc 0b85 9abc b5c3 293e c574 883d
000003a0: b0fa 3b3b 21d7 4bbe dfe5 e2be 19e3 44bd
000003b0: 7699 51be 681d 7abe 8c64 e8bd 92c6 5bbe
000003c0: 1f00 20be 2cd2 5bbe bd45 9c3d 98c4 cb3d
000003d0: 5e84 a8bc c97d 2ebd eaf8 683e 5402 d2bc
000003e0: 11fc 0bbd bc18 9bbd c310 26bd 222d d6bd
000003f0: c27c 40be 47a7 213d 25f2 a5bd a8d9 30be

encoder.linear4.bias f4 [40]
0.020716652 0.2735203 0.7491804 0.41132766 0.03104322 -0.21879627 0.64171416 0.08583093
-0.11313256 0.42654714 -0.13375026 -0.20906964 -0.5778812 0.21180785 -0.122330934 -0.21397465
-0.18307687 0.0749725 -0.08939272 0.15301816 0.08920404 0.8072002 -0.15482172 0.67164266
-0.111112595 -0.17170149 0.049227286 -0.1287839 -0.16968006 -0.14725257 0.32692912 -0.19340353
-0.2216018 0.8761716 0.65638953 -0.24215889 -0.08131885 -0.19155805 -0.26010257 -0.7534679
00000000: f8b5 a93c da0a 8c3e 49ca 3f3f 8a99 d23e
00000010: 5a4e fe3c 210c 60be 6147 243f 20c8 af3d
00000020: 0bb2 e7bd 6364 da3e d4f5 08be 5a16 56be
00000030: 06f0 13bf 28e4 583e a488 fabd 2c1c 5bbe
00000040: 8178 3bbe 2f8b 993d 8813 b7bd cbb0 1c3e
00000050: 9cb0 b63d aca4 4e3f 9689 1ebe c6f0 2b3f
00000060: 008f e3bd 84d2 2fbe 8da2 493d eddf 03be
00000070: 9cc0 2dbe 61c9 16be 4163 a73e 930b 46be
00000080: 95eb 62be c84c 603f 2509 283f 80f8 77be
00000090: 7f8a a6bd cb27 44be 2a2c 85be 46e3 40bf

encoder.linear5.weight f4 [20, 40]
-0.07381822 0.07648437 -0.13772354 0.11618884 0.082227945 0.03148113 -0.18412562 -0.16692871
-0.19844477 0.063216835 0.050359935 -0.118731625 0.026998091 0.13825347 -0.0981155 -0.11817947
-0.01708527 -0.013659328 -0.10921957 0.12452639 -0.16715196 -0.00063652266 -0.1540356 -0.16984256
-0.04468342 0.053880293 -0.065197945 0.13189588 -0.043034665 0.052670274 -0.0039039254 0.00666494
-0.13622358 -0.099505775 -0.19655605 -0.22861381 0.032181248 0.119257525 0.07424335 -0.051646538
0.09486197 -0.08255216 0.18711588 -0.122872904 -0.19159748 0.13950661 0.06705167 -0.13569163
-0.11628904 0.0017508569 0.023888152 0.006726043 0.11130406 0.02942382 0.04770473 0.011076347
0.039340325 -0.033769157 0.06909554 0.092191175 -0.11822842 0.091311686 -0.19399443 0.1018814
-0.03190681 -0.050125033 0.029701961 -0.13685109 0.16528952 -0.002997784 -0.05236423 -0.122202694
0.07989626 0.16114199 0.09248295 -0.21767962 -0.1576559 -0.052373063 0.04469914 0.13422793
-0.081386276 -0.044575017 0.1296133 0.034155887 -0.10877852 -0.17160946 -0.14237954 -0.09941721
-0.03008601 -0.12349526 0.101777926 -0.0850013 -0.012414527 -0.021564325 -0.13653953 0.06834734
-0.11093694 0.12746774 -0.13116166 0.01992336 0.013364191 -0.10056984 -0.18444727 -0.16723055
-0.15362515 -0.14720725 -0.043502785 0.069659755 -0.11965513 -0.018832667 0.04864862 -0.07603165
-0.005599356 -0.014996441 -0.0402903 0.017300718 -0.037534013 -0.032211855 0.09666298 0.08483745
0.08982546 -0.15618262 0.025576996 -0.09005225 0.07834049 -0.1444182 0.104246795 0.06933228
-0.15553387 -0.02472012 0.10263535 0.13069162 -0.025609924 -0.091908194 -0.0074457563 0.09984988
-0.13194022 -0.09494448 -0.013816088 0.11436401 0.002519202 0.045965105 0.014768105 -0.06373803
-0.14554094 0.10729776 -0.15752836 -0.13173856 0.02335558 -0.124356456 -0.09480682 -0.024159174
-0.108958356 -0.028167695 0.008673143 0.013917324 -0.005796181 -0.024509639 -0.07095911 -0.16523907
-0.05726985 -0.07734957 -0.10804145 -0.10849856 0.1601429 -0.1858539 -0.105576284 0.04571237
0.009198822 -0.034173265 -0.045763165 0.07385498 -0.06203215 0.027301878 0.02670163 0.014397872
-0.18025641 0.07533979 0.08243754 0.10187338 0.15177983 0.020584274 0.040191524 0.08467972
-0.17724599 -0.10685952 0.04324949 -0.043509092 -0.10081657 -0.021153137 -0.066421226 0.052913453
0.0059347097 0.091077074 -0.12390366 -0.1453422 0.029555041 0.037126794 -0.028178096 -0.09649638
0.12577012 0.03759312 -0.114619195 -0.0479433 -0.010383239 -0.16995072 -0.077054806 -0.11792373
-0.1470746 0.12094213 0.025203139 0.12044817 0.03333682 -0.05067486 0.038925014 0.024112556
0.03443232 0.06522429 0.13032104 -0.047530893 -0.033129424 0.10970067 -0.05817157 -0.18652773
-0.15617153 0.098956004 -0.06304929 0.14541914 0.14331034 0.1265615 0.049765565 -0.038898177
-0.033768997 0.022646394 -0.0996982 0.0029562535 -0.14958398 0.14303175 -0.07680796 -0.0015445095
-0.031755105 0.07509035 -0.14872509 0.09286703 0.10154689 -0.14070256 -0.074404225 0.09316391
-0.0038930625 -0.014391333 0.08182629 0.02189055 -0.15448056 0.024839662 0.13058259 -0.041908015
00000000: 022e 97bd d6a3 9c3d 6607 0dbe 6af4 ed3d
00000010: 2067 a83d 5bf2 003d 6d8b 3cbe 5cef 2abe
00000020: 1b35 4bbe d477 813d 3846 4e3d 9129 f3bd
00000030: 1a2b dd3c 5192 0d3e c7f0 c8bd 1408 f2bd
00000040: 68f6 8bbc 60cb 5fbc 83ae dfbd b107 ff3d
00000050: e229 2bbe 50dc 26ba 82bb 1dbe 35eb 2dbe
00000060: f605 37bd 95b1 5c3d 8086 85bd b70f 073e
00000070: 1e45 30bd c9bc 573d 00d9 7fbb 9265 da3b
00000080: 327e 0bbe afc9 cbbd fd45 49be bd19 6abe
00000090: 7cd0 033d 4a3d f43d e60c 983d 528b 53bd
000000a0: fe46 c23d 1b11 a9bd 4e9b 3f3e caa4 fbbd
000000b0: 2132 44be d2da 0e3e 6352 893d bff2 0abe
000000c0: f328 eebd 027d e53a 16b1 c33c 2366 dc3b
000000d0: 62f3 e33d 390a f13c 0966 433d 9179 353c
000000e0: 5223 213d 8751 0abd f681 8d3d bace bc3d
000000f0: be21 f2bd 9f01 bb3d 7aa6 46be 32a7 d03d
00000100: b7b0 02bd e84f 4dbd 8751 f33c b122 0cbe
00000110: a841 293e 7876 44bb e07b 56bd 6845 fabd
00000120: a6a0 a33d 6802 253e b367 bd3d 68e7 5ebe
00000130: 8c70 21be 2385 56bd 7216 373d 0c73 093e
00000140: d9ad a6bd 4b94 36bd 59b9 043e 0be7 0b3d
00000150: 46c7 debd 64ba 2fbe f1cb 11be 409b cbbd
00000160: f076 f6bc 15eb fcbd f270 d03d 2915 aebd
00000170: 4d66 4bbc aba7 b0bc 05d1 0bbe b1f9 8b3d
00000180: e832 e3bd e786 023e 3e4f 06be 5036 a33c
00000190: 7bf5 5a3c 8ff7 cdbd bfdf 3cbe 7c3e 2bbe
000001a0: e94f 1dbe 7fbd 16be fa2f 32bd c6a9 8e3d
000001b0: c00d f5bd f746 9abc c643 473d 7bb6 9bbd
000001c0: cd7a b7bb a2b3 75bc 7107 25bd 3cba 8d3c
000001d0: 44bd 19bd 94f0 03bd 3ef7 c53d 42bf ad3d
000001e0: 69f6 b73d 56ee 1fbe d986 d13c 506d b8bd
000001f0: fb70 a03d 5de2 13be 587f d53d 15fe 8d3d
00000200: 4544 1fbe d981 cabc 7b32 d23d 06d4 053e
00000210: e7cb d1bc 5d3a bcbd 88fb f3bb 187e cc3d
00000220: 561b 07be 4072 c2bd e05c 62bc ae37 ea3d
00000230: 3219 253b e845 3c3d ecf5 713c 1689 82bd
00000240: af08 15be eebe db3d 1d4f 21be 79e6 06be
00000250: 3454 bf3c 99ae febd 142a c2bd 76e9 c5bc
00000260: 8f25 dfbd f0bf e6bc cc19 0e3c 7d05 643c
00000270: e4ed bdbb 70c8 c8bc 0353 91bd 6e34 29be
00000280: ca93 6abd 7469 9ebd d644 ddbd 7e34 debd
00000290: 80fc 233e 7c50 3ebe 6138 d8bd e53c 3b3d
000002a0: a8b6 163c 44f9 0bbd 2872 3bbd 4841 973d
000002b0: 6c15 7ebd 30a8 df3c 60bd da3c 0de5 6b3c
000002c0: 2395 38be bf4b 9a3d 03d5 a83d fea2 d03d
000002d0: 2c6c 1b3e 5aa0 a83c de9f 243d 906c ad3d
000002e0: f97f 35be 2ad9 dabd 6126 313d 9736 32bd
000002f0: eb78 cebd 5849 adbc da07 88bd c7bb 583d
00000300: f477 c23b 9e86 ba3d 34c1 fdbd 96d4 14be
00000310: 6a1d f23c 4412 183d c0d5 e6bc e59f c5bd
00000320: e2c9 003e 3efb 193d 78bd eabd 3260 44bd
00000330: 761e 2abc 9007 2ebe e9ce 9dbd ff81 f1bd
00000340: b99a 16be 82b0 f73d d076 ce3c 88ad f63d
00000350: 308c 083d 7190 4fbd d66f 1f3d b287 c53c
00000360: e808 0d3d 5094 853d e172 053e c1af 42bd
00000370: b8b2 07bd bfaa e03d 5045 6ebd 2001 3fbe
00000380: 6eeb 1fbe 72a9 ca3d fc1f 81bd c1e8 143e
00000390: f2bf 123e 5699 013e fad6 4b3d b253 1fbd
000003a0: 5c51 0abd ee84 b93c 922e ccbd b4bd 413b
000003b0: 8b2c 19be ea76 123e 7e4d 9dbd 2471 caba
000003c0: a411 02bd f8c8 993d 644b 18be 1231 be3d
000003d0: d1f7 cf3d 5514 10be 3e61 98bd b8cc be3d
000003e0: c022 7fbb a0c9 6bbc 8b94 a73d d053 b33c
000003f0: 2730 1ebe 8c7c cb3c 71b7 053e bda7 2bbd

encoder.linear5.bias f4 [20]
-0.11832182 0.28507343 -0.27586806 -0.17739516 -0.07109314 -0.20252311 -0.10710814 -0.028490424
-0.63912755 0.48897192 -1.0292917 0.82589763 0.53137666 -0.4039916 -0.42290345 -0.07534206
-0.20604713 0.20700625 0.8524167 -0.14665802
00000000: b652 f2bd 25f5 913e 943e 8dbe 14a7 35be
00000010: 4899 91bd 3862 4fbe 835b dbbd c064 e9bc
00000020: dd9d 23bf 875a fa3e d5bf 83bf 076e 533f
00000030: 4d08 083f fdd7 cebe cd86 d8be f04c 9abd
00000040: 05fe 52be 72f9 533e fb37 5a3f 852d 16be

encoder.linear6.weight f4 [5, 20]
0.0403837 0.018816754 -0.041930806 0.07570191 0.0027323393 0.21775615 -0.07275734 0.07653936
-0.2293764 -0.11948418 -0.31860453 0.17199455 0.1521968 0.19347283 0.28990957 0.142905
0.36960092 0.29323703 0.43098277 0.081151776 0.054151505 -0.11187305 -0.042067662 0.089264475
0.057898 -0.060800552 -0.15406379 -0.09752821 0.22383629 0.36911002 0.019476056 0.12421946
-0.08593858 -0.2277216 0.11347222 -0.0214695 0.25608632 0.17008284 0.15354574 -0.09875779
-0.003298656 -0.20201309 0.14015706 -0.016264569 -0.046146102 -0.097283185 -0.104062244 0.25563344
-0.22353469 -0.14750965 -0.07258407 -0.060827255 0.20296574 0.08318382 0.21510637 0.0042703655
-0.058548775 0.2041889 0.19533469 0.1808328 0.074037805 0.2942115 -0.15728047 -0.01124942
0.040288944 0.21208279 0.14422816 0.26830316 -0.4278906 -0.23580682 0.38932794 0.14646502
0.0799189 -0.2963707 0.11624176 0.3109702 0.22707486 -0.12444266 -0.14553219 -0.21294013
0.0039872983 0.1460555 -0.23085697 -0.040857177 0.06774655 -0.043074496 -0.05050674 -0.12152659
-0.19328108 0.16198266 -0.08476511 0.3999871 0.23107833 -0.12796545 -0.18191488 -0.063012816
-0.15660383 -0.027888445 0.21719407 0.0029841745
00000000: 6169 253d 9825 9a3c a3bf 2bbd 9a09 9b3d
00000010: 0c11 333b 78fb 5e3e cd01 95bd abc0 9c3d
00000020: a6e1 6abe 1fb4 f4bd 2220 a3be 571f 303e
00000030: 7ad9 1b3e be1d 463e 076f 943e b055 123e
00000040: 553c bd3e 2a23 963e c6a9 dc3e e732 a63d
00000050: f8cd 5d3d b31d e5bd 244f 2cbd 4bd0 b63d
00000060: 7426 6d3d 000a 79bd e6c2 1dbe dfbc c7bd
00000070: 5735 653e fdfb bc3e 408c 9f3c c666 fe3d
00000080: 9100 b0bd da2f 69be 2064 e83d cee0 afbc
00000090: bf1d 833e 322a 2e3e 183b 1d3e 8641 cabd
000000a0: 442e 58bb 85dc 4ebe 5585 0f3e 463d 85bc
000000b0: b203 3dbd 683c c7bd 961e d5bd 63e2 823e
000000c0: 47e6 64be c50c 17be f5a6 94bd 0026 79bd
000000d0: 40d6 4f3e 475c aa3d d844 5c3e 6cee 8b3b
000000e0: d7d0 6fbd e516 513e d105 483e 3c2c 393e
000000f0: 22a1 973d e4a2 963e 220e 21be 7d4f 38bc
00000100: 0506 253d 3b2c 593e 8cb0 133e 085f 893e
00000110: 7a14 dbbe 5877 71be fe55 c73e edfa 153e
00000120: 85ac a33d e6bd 97be 2910 ee3d 7c37 9f3e
00000130: 5086 683e cbdb febd 6406 15be fa0c 5abe
00000140: e2a7 823b 938f 153e c565 6cbe db59 27bd
00000150: b4be 8a3d e26e 30bd 28e0 4ebd efe2 f8bd
00000160: 7aeb 45be c8de 253e 5499 adbd 1ccb cc3e
00000170: cc9f 6c3e 6009 03be e547 3abe dd0c 81bd
00000180: c15c 20be 4f76 e4bc 1f68 5e3e 2492 433b

encoder.linear6.bias f4 [5]
-0.14443362 0.1345869 0.48194462 -0.03173619 0.80431795
00000000: 68e6 13be 26d1 093e 72c1 f63e cffd 01bd
00000010: c8e7 4d3f

encoder.linear7.weight f4 [2, 5]
-0.59306085 -0.16925511 -0.057321955 -0.21853381 0.6627357 0.021378856 -0.444418 0.4279353
0.21310006 0.009578279
00000000: d6d2 17bf 3651 2dbe 6dca 6abd 54c7 5fbe
00000010: 0ca9 293f b622 af3c c28a e3be 561a db3e
00000020: e736 5a3e 37ee 1c3c

encoder.linear7.bias f4 [2]
0.43180925 -0.052187636
00000000: 1a16 dd3e b4c2 55bd

encoder.linear8.weight f4 [2, 5]
0.0675586 -0.2592572 -0.6316787 0.2774067 -0.39073414 -0.42672583 0.0031676106 -0.67175394
0.47342768 -0.7558804
00000000: 2a5c 8a3d 5cbd 84be b2b5 21bf 4008 8e3e
00000010: 4e0e c8be cf7b dabe b097 4f3b 11f8 2bbf
00000020: 1d65 f23e 6181 41bf

encoder.linear8.bias f4 [2]
-0.45041472 -0.79947454
00000000: c29c e6be 5daa 4cbf

decoder.linear1.weight f4 [5, 3]
0.02046247 0.786651 -0.23831047 -0.3349822 0.29103062 0.2832296 -0.051915944 0.032794524
0.53320044 0.071825914 -1.1675519 0.313744 -0.46574557 -0.20922692 -0.2207403
00000000: e9a0 a73c f661 493f a907 74be c982 abbe
00000010: f701 953e 7803 913e d0a5 54bd 8d53 063d
00000020: d37f 083f 7719 933d 5772 95bf 0ea3 a03e
00000030: 3476 eebe 953f 56be bf09 62be

decoder.linear1.bias f4 [5]
0.24707109 0.67737025 0.23930946 -0.26301667 0.8219682
00000000: 3400 7d3e 2368 2d3f 8a0d 753e 1faa 86be
00000010: 826c 523f

decoder.linear2.weight f4 [20, 5]
0.41673404 0.20261696 0.087967135 -0.3396014 -0.06488202 0.53869396 0.3615583 -0.06711211
-0.28310332 -0.46585536 -0.59825194 0.075693764 0.39113134 -0.16416267 0.2257974 -0.62887275
-0.12617765 -0.0420134 0.5093989 -0.12394985 0.3176728 -0.63325745 0.07271923 -0.18122944
-0.11886971 0.8408191 0.24470733 0.050646536 -0.4437422 0.02917684 0.1956922 -0.19489764
0.12840788 0.3247026 -0.64541376 -0.029556593 0.011386211 -0.031052828 -0.121571675 0.4951327
0.7051397 0.3458421 -0.48416516 -0.19742121 0.2906419 -0.4278501 0.48208168 0.52549213
0.8845836 -0.03917707 -0.7147368 -0.43836978 -0.3370469 -0.7149172 0.44182158 -0.24546085
-0.3046572 -0.3237347 -0.25109315 0.5874664 -0.6106394 0.12572633 0.07600902 0.83477914
0.2600614 -0.10833939 -0.32508254 -0.10577373 -0.03080676 0.071440175 0.3052482 0.7162641
0.5477719 -0.049304865 0.16704473 -0.1720495 0.16688584 -0.3685165 -0.057293206 0.3115761
0.20019563 -0.15260781 -0.70763195 -0.009329915 -0.74743426 -0.1722351 0.25391588 0.16638198
0.7917372 -0.23657304 0.60564435 0.14977373 0.2928975 0.123839095 -0.11042516 -0.09763485
0.3359977 -0.4624101 0.013144588 0.5831696
00000000: 2a5e d53e d27a 4f3e 1d28 b43d 3ce0 adbe
00000010: dde0 84bd d9e7 093f 2b1e b93e 1372 89bd
00000020: ebf2 90be 9884 eebe 0a27 19bf 5505 9b3d
00000030: 5e42 c83e 421a 28be 6f37 673e cefd 20bf
00000040: b734 01be 3e16 2cbd f767 023f 6bd9 fdbd
00000050: 02a6 a23e 291d 22bf d2ed 943d 3694 39be
00000060: f671 f3bd ec3f 573f 8f94 7a3e be72 4f3d
00000070: 2d32 e3be 4504 ef3c 8963 483e 3f93 47be
00000080: 5b7d 033e 6b3f a63e d639 25bf ab20 f2bc
00000090: 3b8d 3a3c 8062 febc 92fa f8bd 0982 fd3e
000000a0: 0984 343f 3712 b13e 7fe4 f7be c928 4abe
000000b0: 04cf 943e 2b0f dbbe 69d3 f63e a786 063f
000000c0: 1274 623f 2378 20bd fef8 36bf 0172 e0be
000000d0: 6991 acbe d004 37bf 7036 e23e 175a 7bbe
000000e0: 07fc 9bbe 8ec0 a5be 488f 80be 3364 163f
000000f0: dd52 1cbf 67be 003e 9eaa 9b3d 16b4 553f
00000100: c526 853e 0be1 ddbd 3871 a6be e69f d8bd
00000110: 755e fcbc 3a4f 923d 7e49 9c3e 165d 373f
00000120: c73a 0c3f e6f3 49bd c60d 2b3e be2d 30be
00000130: 1fe4 2a3e 32ae bcbe 48ac 6abd e786 9f3e
00000140: 1500 4d3e 3945 1cbe 5e27 35bf 80dc 18bc
00000150: da57 3fbf 665e 30be 4301 823e 0a60 2a3e
00000160: 4aaf 4a3f 3440 72be 820b 1b3f 495e 193e
00000170: a9f6 953e 5a9f fd3d 9626 e2bd c8f4 c7bd
00000180: e407 ac3e 04c1 ecbe 665c 573c 9a4a 153f

decoder.linear2.bias f4 [20]
-0.05381879 0.48919496 0.31866273 0.38198975 -0.22180577 -0.36063024 0.39422685 0.019741347
-0.07936702 -0.017076543 -0.17164 0.4626867 0.057901334 0.5409246 -0.12518318 0.1861109
-0.12954119 -0.017242525 -0.14114136 0.008889894
00000000: 1771 5cbd c377 fa3e c327 a33e 2994 c33e
00000010: 0d21 63be 87a4 b8be 1ad8 c93e 9bb8 a13c
00000020: 2d8b a2bd 1be4 8bbc 65c2 2fbe 45e5 ec3e
00000030: f329 6d3d 097a 0a3f 0530 00be db93 3e3e
00000040: 72a6 04be 3240 8dbc 5c87 10be eba6 113c

decoder.linear3.weight f4 [40, 20]
0.053352676 -0.049441077 0.12901329 -0.04152781 -0.37115827 -0.15251762 -0.296345 -0.19222213
0.07250355 0.42658293 -0.7174263 -0.004319117 0.0063531073 -0.14939357 0.3171883 0.20166549
-0.036689226 0.25988352 -0.20405968 -0.18365827 0.038275804 -0.051706903 0.04992311 -0.18375161
-0.11965671 -0.122030646 -0.19598886 -0.04188923 -0.022270191 -0.08826672 -0.10083106 0.08709187
0.16784665 -0.03696564 0.15759644 -0.14219464 0.12744313 0.03491205 0.017240006 -0.11839475
0.068279415 -0.042249024 -0.12317189 0.042778425 -0.076226875 -0.18103291 -0.04601477 0.20922896
-0.12354126 0.058326103 -0.09305716 -0.13865781 -0.123911954 0.020479493 -0.17424805 0.17559956
0.07178375 -0.04265743 0.068669155 0.20987655 -0.11721842 -0.21595956 0.31861076 0.10736896
-0.08462544 -0.4544888 -0.45595106 0.06499989 -0.22009836 0.18800038 -0.6923241 0.0069957566
-0.037094507 0.07940473 0.14784421 0.068892986 -0.04451508 0.06787132 -0.015456427 -0.1010564
-0.29348993 0.07361879 0.1676732 0.23574828 -0.056509137 -0.63848484 0.021567438 0.0670108
-0.22366245 0.32265508 -0.6410453 0.10771047 -0.00636668 0.5410086 -0.043870114 -0.09292834
0.03236719 0.28052074 0.008268421 -0.1497498 0.024273584 -0.24501926 0.041071106 -0.0399504
-0.40532783 -0.2723301 -0.5093807 0.052834585 0.114713855 0.21851377 -0.24462447 0.08065607
0.23097846 -0.31402305 0.32455987 -0.036408406 0.09403605 0.29580274 0.07868828 -0.04701232
-0.25351128 -0.344941 0.27038807 0.19655901 0.014980337 -0.5754564 -0.382749 0.12588882
-0.17672265 0.27920553 -0.08199242 0.30549237 0.21755664 0.47778526 -0.19719991 0.15522753
0.34962434 0.2414051 -0.13417105 -0.08023504 0.04709734 -0.20113821 -0.00068368175 -0.1463666
-0.27229756 0.1676014 -0.21259372 -0.036278095 0.05982245 -0.0704599 0.0533238 0.22391896
0.15321757 0.082049854 0.10499984 0.20442204 0.036701474 0.014167878 -0.2561722 0.3615085
-0.23173012 -0.7129264 -0.046069928 0.02211959 0.40485916 0.2845627 0.42077023 0.29062
0.018871514 0.035354305 0.17189255 0.25962952 0.318917 -0.057024695 0.06364105 -0.06450356
0.19154999 0.17523243 -0.4731601 0.44437745 0.13693702 0.11040193 0.25961325 -0.13419808
0.040926047 0.0031891507 0.5506025 -0.12608951 0.09143862 0.185107 -0.28665274 -0.58125764
-0.21993548 -0.16114128 0.29466453 -0.2790342 -0.23089217 0.40471965 -0.08227826 -0.56639546
0.5809299 0.37090543 0.032598663 -0.64424825 0.1419363 0.29691026 -0.05065421 0.11729361
0.34580553 -0.15427163 -0.24034528 0.1600091 -0.38287932 -0.04648107 0.11264763 0.30370444
0.020411696 0.010362764 0.47579047 0.28849146 -0.22836903 0.17156611 0.2042807 0.37721074
-0.25666422 -1.0514107 -0.39899746 0.0035379194 -0.28258693 0.013628598 -0.3296087 0.5424193
-0.029381378 0.5460333 -0.23144503 0.073332466 0.12185977 -0.14510028 -0.3200755 -0.1286687
-0.06562508 -0.3094031 0.22394367 0.064088434 -0.27354813 -0.1890951 -0.18079013 -0.31346387
-0.1136664 0.20921566 -0.5478698 -0.029328188 0.18547367 -0.160337 0.20007014 -0.07097388
00000000: 5688 5a3d ba82 4abd 0f1c 043e 1119 2abd
00000010: 7508 bebe 942d 1cbe 88ba 97be e1d5 44be
00000020: be7c 943d 1469 da3e 40a9 37bf 6187 8dbb
00000030: ba2d d03b a1fa 18be 8166 a23e 6681 4e3e
00000040: 7147 16bd 740f 853e 05f5 50be ea10 3cbe
00000050: 17c7 1c3d 9eca 53bd 2d7c 4c3d 6229 3cbe
00000060: 940e f5bd 34eb f9bd 4eb1 48be 0b94 2bbd
00000070: fa6f b6bc 2fc5 b4bd 8480 cebd 395d b23d
00000080: fedf 2b3e 4869 17bd f660 213e 799b 11be
00000090: 7480 023e f0ff 0e3d ea3a 8d3c f278 f2bd
000000a0: 14d6 8b3d 500d 2dbd 8b41 fcbd 6e38 2f3d
000000b0: d61c 9cbd b160 39be fc79 3cbd 1e40 563e
000000c0: 3303 fdbd 5ae7 6e3d c194 bebd 50fc 0dbe
000000d0: 8dc5 fdbd 9cc4 a73c 156e 32be 5fd0 333e
000000e0: 5c03 933d 8fb9 2ebd 6aa2 8c3d e1e9 563e
000000f0: 3610 f0bd 8124 5dbe f320 a33e 42e4 db3d
00000100: 1a50 adbd c2b2 e8be 6b72 e9be aa1e 853d
00000110: 7761 61be 2c83 403e 273c 31bf a93c e53b
00000120: 69f0 17bd f29e a23d 7964 173e c417 8d3d
00000130: 7255 36bd 1e00 8b3d f43c 7dbc a8f6 cebd
00000140: 5044 96be 73c5 963d 86b2 2b3e ff67 713e
00000150: 2076 67bd be73 23bf 32ae b03c f53c 893d
00000160: c507 65be 0c33 a53e 8b1b 24bf 4f97 dc3d
00000170: 959f d0bb 8a7f 0a3f 26b1 33bd 3751 bebd
00000180: 7593 043d 6aa0 8f3e 4578 073c 0358 19be
00000190: 65d9 c63c 54e6 7abe 2d3a 283d 08a3 23bd
000001a0: 2187 cfbe da6e 8bbe c666 02bf 1469 583d
000001b0: 19ef ea3d 13c2 5f3e d67e 7abe 022f a53d
000001c0: 9e85 6c3e a1c7 a0be b62c a63e fb20 15bd
000001d0: f995 c03d 7573 973e 5227 a13d fe8f 40bd
000001e0: 3bcc 81be 1b9c b0be 4e70 8a3e c446 493e
000001f0: 1670 753c 1c51 13bf adf7 c3be 00e9 003e
00000200: c8f6 34be 07f4 8e3e a4eb a7bd 7f69 9c3e
00000210: 2bc7 5e3e 45a0 f43e c6ee 49be f7f3 1e3e
00000220: f601 b33e e632 773e 2364 09be 4552 a4bd
00000230: 24e9 403d 2df7 4dbe 1b39 33ba 20e1 15be
00000240: 966a 8bbe b49f 2b3e 2bb2 59be 5798 14bd
00000250: 6308 753d 484d 90bd 0f6a 5a3d 034b 653e
00000260: 11e5 1c3e c109 a83d 280a d73d 0354 513e
00000270: 4954 163d 6320 683c 0129 83be a417 b93e
00000280: a94a 6dbe 5882 36bf d2b3 3cbd 2434 b53c
00000290: b349 cf3e 34b2 913e 326f d73e 25cc 943e
000002a0: 6f98 9a3c adcf 103d 9a04 303e 29ee 843e
000002b0: 1749 a33e ba92 69bd 3d56 823d 711a 84bd
000002c0: ae25 443e 2170 333e 0a42 f2be 7185 e33e
000002d0: 3839 0c3e 681a e23d 07ec 843e 396b 09be
000002e0: 12a2 273d 1201 513b 49f4 0c3f 9c1d 01be
000002f0: 2c44 bb3d b08c 3d3e 26c4 92be 4dcd 14bf
00000300: c436 61be 3802 25be 45de 963e 92dd 8ebe
00000310: ff6e 6cbe 6a37 cf3e 8181 a8bd 4bff 10bf
00000320: d2b7 143f 51e7 bd3e 2d86 053d 74ed 24bf
00000330: c057 113e 9f04 983e ca7a 4fbd a237 f03d
00000340: 6c0d b13e 62f9 1dbe 131d 76be 6dd9 233e
00000350: c208 c4be ef62 3ebd cdb3 e63d 267f 9b3e
00000360: 6e36 a73c 95c8 293c cf9a f33e 27b5 933e
00000370: 92d9 69be 07af 2f3e f62e 513e c421 c13e
00000380: 7e69 83be a094 86bf 6549 ccbe 70dc 673b
00000390: 3caf 90be 7c4a 5f3c 79c2 a8be fedb 0a3f
000003a0: 37b1 f0bc d7c8 0b3f edff 6cbe 552f 963d
000003b0: 9d91 f93d 2b95 14be f0e0 a3be bac1 03be
000003c0: 7166 86bd 156a 9ebe 7d51 653e cc40 833d
000003d0: 800e 8cbe 25a2 41be 0c21 39be 567e a0be
000003e0: eec9 e8bd a13c 563e 3241 0cbf ab41 f0bc
000003f0: cfec 3d3e 622f 24be 30df 4c3e c15a 91bd

decoder.linear3.bias f4 [40]
-0.15113862 -0.19868393 -0.14574924 0.30037633 0.4255528 0.24516703 0.13153407 0.23775402
0.05435988 0.2007783 0.0017376365 0.50174487 0.16423796 0.25102124 -0.12682262 0.24527314
0.016045209 -0.17718221 -0.18422881 -0.15407032 0.33418158 -0.048545245 0.3361357 -0.4608317
0.28386107 0.023797352 -0.05749561 0.009801099 0.026618129 -0.107206345 0.045890555 -0.02379854
0.294391 -0.012957473 0.16056415 -0.18045376 -0.10900872 -0.086282864 0.08584799 0.09485835
00000000: 15c4 1abe cd73 4bbe 4a3f 15be edca 993e
00000010: 0ee2 d93e 110d 7b3e deb0 063e ca75 733e
00000020: 77a8 5e3d d498 4d3e 68c1 e33a 5a72 003f
00000030: ff2d 283e db85 803e cadd 01be e228 7b3e
00000040: 3e71 833c 416f 35be 7aa6 3cbe 9cc4 1dbe
00000050: d919 ab3e 61d7 46bd fa19 ac3e 22f2 ebbe
00000060: 3d56 913e aaf2 c23c 8480 6bbd ca94 203c
00000070: 430e da3c 008f dbbd bcf7 3b3d 28f5 c2bc
00000080: 6bba 963e 954b 54bc ee6a 243e dfc8 38be
00000090: f73f dfbd 12b5 b0bd 12d1 af3d 1845 c23d
