state_dict_cVAE_Beta=0.1.pt (torch, 77739 bytes, 30 tensors)

encoder.linear1.weight f4 [20, 11]
000000 94 b5 10 be 93 94 c2 3e c0 5a 61 be f2 cb c6 bd
       -0.14131767 0.38003978 -0.22007275 -0.09706868
000010 74 0f 17 3e 14 dd b1 be c0 c2 3d 3d 37 03 8c bd
       0.14751989 -0.34738982 0.046328306 -0.06836551
000020 ad 9a a0 be 3c 96 85 be c7 51 bf be 68 cf 34 3e
       -0.31368008 -0.26091182 -0.3736708 0.17657244
000030 18 16 a9 be 12 4d 59 be 8f e2 5d 3b 61 fb d3 bd
       -0.3302467 -0.21220806 0.0033856963 -0.10350681
000040 5a 18 3f be b2 ba 54 be 7b 50 1f 3e cc 3f 00 be
       -0.18661633 -0.20774344 0.15558045 -0.12524337
000050 99 b7 ec 3d d1 7c c9 be 05 0b 15 be 3a bb 18 3d
       0.11558456 -0.3935304 -0.14554985 0.03728793
000060 41 ab 91 bd 19 3e e3 3b fd f4 5a be 20 04 98 3e
       -0.07112742 0.006934893 -0.21382518 0.29690647
000070 b0 14 9e 3c cb 78 87 3c e9 07 b8 3e f9 b5 48 3e
       0.019296974 0.01653709 0.35943535 0.19600667
000080 2f 7a 40 be 0c df a9 bd d6 c6 92 bc 8a e3 04 3c
       -0.1879661 -0.08294496 -0.017917078 0.00811089
000090 97 f1 5f 3e 0b 4c ca bd 1c b7 c5 be 3e 75 0e 3e
       0.21869503 -0.09877785 -0.38616264 0.13911912
0000a0 bc ac 03 be 4b d7 5e be fe a2 8f be 76 e1 70 bf
       -0.12858862 -0.21761815 -0.2805404 -0.94094026
0000b0 0a be e4 3b 09 9e b1 be 0b 4b 9f bd 5f 8f a5 be
       0.0069806622 -0.34690884 -0.07777985 -0.32335946
0000c0 04 5c 0f be ed 44 2a 3e e8 41 48 3e ce e6 f5 3d
       -0.13999945 0.16627856 0.19556391 0.12006913
0000d0 b1 fb 55 3d b2 09 ee 3d 22 d2 06 3f 81 90 f3 3c
       0.052241985 0.11622943 0.5266439 0.02973199
0000e0 98 d0 ca bd b0 bc 6f 3e e6 ea 51 3e e5 2f fa 3d
       -0.09903067 0.23411822 0.20499763 0.122161664
0000f0 5a 28 ed 3e 28 63 60 bd 70 49 26 3e d5 ec d9 bd
       0.46319848 -0.054782063 0.16238952 -0.10640875
000100 0a 93 8a 3e 12 0d 1a 3e 5c 47 31 bd 29 a9 24 3e
       0.27065307 0.15044048 -0.043280944 0.16080154
000110 2e cc 49 3d f1 d4 bc bd f8 d1 3e 3e c6 ed db be
       0.049266987 -0.09220303 0.18634784 -0.42954844
000120 01 3e 1b be 34 e4 87 bc b0 2d 73 be ec 37 86 be
       -0.15160371 -0.016588308 -0.23747897 -0.2621454
000130 83 c9 74 3e f3 09 4c be 99 85 09 be 55 48 f0 bd
       0.23904996 -0.1992567 -0.1342987 -0.11732546
000140 31 b0 2a 3e 7f 4a 82 3d 19 d6 58 3e a8 ba 3c 3e
       0.16668774 0.06361865 0.21175422 0.18430579
000150 d8 3d 80 bc 22 ec 2e 3e 1e 40 d6 3e d0 c5 20 be
       -0.01565449 0.17082265 0.41845793 -0.1570046
000160 02 57 a9 bd 3f 79 2a 3d 71 d5 82 bd 49 eb f1 3d
       -0.082685485 0.041619536 -0.06388367 0.11812455
000170 2e 89 48 3e de 4b b6 3e 8f db 49 be 7e 8f 1f be
       0.1958358 0.35604757 -0.19712661 -0.15582082
000180 ee 43 d8 bc 6c 40 27 3d 4d 01 72 bd 74 ae 82 bd
       -0.026399579 0.04083292 -0.05908327 -0.063809305
000190 99 98 88 be af d8 ad be b3 bb 07 3d e9 2e 60 3e
       -0.26678923 -0.3395438 0.03313799 0.21892895
0001a0 25 5e 3e be 26 b6 8c 3e 4b 0e e6 bd c0 49 a8 3e
       -0.18590601 0.27482718 -0.11233195 0.32868767
0001b0 6f 6d 8e be b2 a5 79 bf cd e8 52 3e f3 ca bb 3e
       -0.27817866 -0.97518456 0.20596619 0.36678275
0001c0 f8 1b c5 be 37 fc 13 be 1a 9f 92 3d 30 58 cf 3d
       -0.384979 -0.14451681 0.071592525 0.10124242
0001d0 72 d7 95 3e 5a 3c 5d 3e 8b 62 07 3e 92 5f d7 3e
       0.29265934 0.21605054 0.13221185 0.42065102
0001e0 92 d3 6e 3f 17 2c 3d 3d ac 9f ec be 44 03 53 be
       0.9329158 0.046184625 -0.4621557 -0.20606714
0001f0 e9 b1 56 3d 92 7f 92 3e 7f c2 79 3d b4 c0 aa 3d
       0.052415762 0.28612953 0.0609765 0.083375365
000200 3f 63 19 be ce cf 3b be 1b fd aa 3d a0 5a 3b 3e
       -0.14979266 -0.1834099 0.08349057 0.1829629
000210 93 be fd bd 37 da 5b 3e 71 8a b3 bd 8f db 18 3e
       -0.12389865 0.21469961 -0.0876664 0.14927505
000220 f0 d9 1d 3e af 1c d7 3d 9e 97 68 be 04 7c 4f 3e
       0.15415168 0.10503518 -0.22714087 0.20262152
000230 23 44 92 3d 88 dc 7c 3c fa 39 1d 3f ff 0f f1 3d
       0.07141902 0.015433438 0.6141659 0.11770629
000240 ae d9 a7 3d e0 1b d9 3c 59 23 96 bd e0 af ec 3d
       0.08195816 0.02650255 -0.07330961 0.11556983
000250 94 d9 66 bd a0 9d 34 3c cc 1f 9f 3e b1 8a 11 3d
       -0.056359842 0.011023909 0.31078947 0.035532657
000260 5e 41 6a be f4 46 ea bc 5a 67 54 be 25 f3 54 be
       -0.22876498 -0.028598286 -0.2074255 -0.20795877
000270 df fe c2 be 3d 94 12 be 91 5a 9c 3d b5 5d bd bd
       -0.38085076 -0.14314361 0.07634462 -0.09246389
000280 30 8b 38 3e 0e 4c db bd a7 89 9b bd 82 4d 8c be
       0.18021846 -0.10707866 -0.075946145 -0.27402884
000290 ac 37 cf bd 19 c5 35 3e 85 8c 4b be 23 a5 b5 3d
       -0.101180404 0.17750968 -0.19877823 0.08869388
0002a0 6d 7a 2d be 37 7a 4c bd f9 e1 2d 3d d8 d6 20 bd
       -0.16941233 -0.04992124 0.042451832 -0.03926739
0002b0 9c c6 0c be 69 6a 2f bd 86 a0 b6 be b3 d4 0a bf
       -0.13747638 -0.04282609 -0.35669345 -0.54230803
0002c0 1d 48 27 bd 47 97 61 bc f0 97 87 bd 9e b2 db be
       -0.040840257 -0.0137689775 -0.06620777 -0.42909712
0002d0 04 b0 a7 3d dd ce fa bd 90 00 e1 3d c2 4e 2d bd
       0.08187869 -0.12246487 0.109864354 -0.042311437
0002e0 87 a4 5e be 54 45 57 3e c8 30 5d be 1e a9 3c bc
       -0.2174245 0.2102254 -0.2160064 -0.01151493
0002f0 e1 8a cc be 4b a6 94 be 87 d5 c5 bc c1 8f 77 be
       -0.39949706 -0.2903312 -0.02414967 -0.24175932
000300 5c 31 db 3d e2 2b 1f 3e 1f e0 10 be 7e 17 69 3e
       0.10702774 0.15544084 -0.14147995 0.22762868
000310 29 2c b5 be 88 0d ce be 28 f1 13 be cb 85 03 39
       -0.35385254 -0.402447 -0.14447463 0.00012542975
000320 12 49 26 3e f9 2d c8 bb 38 13 f2 3d 43 2e af 3d
       0.16238812 -0.006108996 0.11820072 0.085537456
000330 b8 28 f3 3d d5 a6 46 3d 4c f1 9b 3e 89 04 23 be
       0.11873001 0.048498947 0.30457532 -0.15919699
000340 fe 10 42 bf 1f 5b 1b be 6a 4f 91 3d 23 ad 80 3c
       -0.7580718 -0.15171479 0.07095225 0.015707558
000350 df 63 2d 3e 2b 5d 0b 3e e9 ac 95 3e cf 73 27 be
       0.16932629 0.1360976 0.29233482 -0.16352771
000360 56 51 16 3d b7 fc 2c bd 6c bc b0 3d 58 05 98 3d
       0.03669866 -0.042233195 0.086296886 0.07422894

encoder.linear1.bias f4 [20]
000000 bf 68 34 bc 0f 4a 9d bd 06 19 3a be 92 03 5f 3d
       -0.011011302 -0.07680141 -0.18173608 0.054446764
000010 3d 1e a0 3e 76 14 0b 3f fd 94 c5 3e 71 1c 82 be
       0.3127307 0.54328096 0.38590232 -0.25412324
000020 d2 f1 a0 3e 24 c3 98 3d e5 a3 c1 3e 3c 50 a3 3d
       0.31434494 0.07459095 0.37820354 0.07974288
000030 8d 99 3c 3e bc 84 18 bf db 3e aa 3e e4 56 dd bd
       0.1841795 -0.59577537 0.3325108 -0.10807589
000040 db 7d 0f 3e 97 6c 8f 3e 30 4f 2b bf 77 48 1e bf
       0.14012854 0.28012535 -0.66917706 -0.6182932

encoder.linear2.weight f4 [40, 20]
000000 87 4b d7 bd 47 e3 4e 3d 8d a0 16 be bc 80 ee bb
       -0.105124526 0.050509717 -0.14709683 -0.00727853
000010 99 58 1f 3c 83 70 7e be 29 cb 41 3d 9e b7 37 3d
       0.009725713 -0.24847607 0.04731289 0.044852845
000020 56 b7 ac bd 12 01 b5 bd b1 0f 6e be 72 c4 97 bb
       -0.08433406 -0.08838095 -0.23248173 -0.0046315724
000030 1d c9 e2 3c 81 50 81 3c 4a c0 15 3e 7f d1 eb bc
       0.027683789 0.015785458 0.14624134 -0.028786419
000040 c9 76 0b 3e 66 f2 4f 3c 0a bf 62 be d1 6b 1a be
       0.13619532 0.01269207 -0.22143188 -0.15080191
000050 9c 75 0f be ef 34 92 bd a1 3e 6a 3e 3d bc 52 3c
       -0.14009708 -0.071390025 0.22875454 0.012862262
000060 2c 80 00 3e 4f d8 77 3d 2c 5a 34 bf 57 9d 46 3e
       0.12548894 0.060509022 -0.7045009 0.19395958
000070 01 8a 98 3c c0 a5 3b be 64 ab f3 3e 4f 12 de bd
       0.018620493 -0.18324947 0.47591698 -0.10843336
000080 1a 34 3c 3e 00 b5 2f be 20 3e 70 3e 83 fd a6 bd
       0.1837925 -0.1715889 0.23461199 -0.08153822
000090 4c 82 b1 bd 7b 14 51 bd 0c f2 b1 bd 53 4e 94 3e
       -0.0866743 -0.051044922 -0.08688745 0.28966007
0000a0 6a 3d c5 bd ff 78 25 3e 80 a5 c3 3d 16 1a e8 bd
       -0.096308544 0.16159438 0.09553051 -0.113331005
0000b0 d4 6c 30 3d 81 9a 9d 3d ff c7 05 be 27 d8 07 be
       0.043072537 0.07695485 -0.13064574 -0.1326605
0000c0 e2 1f 5a 3c c3 db 4e be 7b 3d 56 bf fc f3 2e bd
       0.0133132655 -0.2020102 -0.8368756 -0.04271315
0000d0 d1 e3 b3 3d 93 1a 17 be 79 76 04 3d 92 26 10 bf
       0.08783687 -0.14756231 0.032339547 -0.56308854
0000e0 fc f3 8a 3e a8 4f 85 bd 69 61 a6 3e a1 cc 23 3b
       0.2713927 -0.06509334 0.32496193 0.0024993795
0000f0 a3 0e a3 3d a7 96 c2 bd 74 ad 5a be 4b 2c 5b be
       0.07961776 -0.09501391 -0.2135523 -0.21403615
000100 74 9d fb bd 18 16 2f 3d e2 c9 e0 3a cc 13 8c bd
       -0.12285891 0.04274568 0.001715001 -0.068397135
000110 6a fe 22 3d 12 14 19 3e da 07 a9 bd 4d 41 be 3d
       0.03979341 0.14949062 -0.08253451 0.09289799
000120 da 3a 85 3d 71 b4 9a bd e8 40 00 3e a3 33 27 be
       0.06505366 -0.07553948 0.1252476 -0.16328292
000130 7b 67 0f be 75 9e 24 3d d2 cd 7b be 14 1e dd bd
       -0.14004318 0.04019018 -0.24590233 -0.107967526
000140 ac 8d 22 3e d3 c2 1a bc f4 ca 89 3e e4 61 b1 3d
       0.15874356 -0.009445864 0.26912653 0.08661249
000150 33 9b 6a 3c 48 bf af bd 0d a5 b3 bd b3 d7 c0 bc
       0.014319229 -0.08581406 -0.08771715 -0.023540353
000160 ae 52 44 bd d3 79 83 3e ed 64 ec bd 2a e2 03 3e
       -0.047930412 0.25678882 -0.115426876 0.12879243
000170 d2 c3 8d bd c1 85 08 be f7 df 06 be b6 e9 16 3e
       -0.069221154 -0.13332273 -0.13171373 0.14737591
000180 fc 64 a4 3c 35 e0 85 3e e0 7f 86 3e 11 47 06 be
       0.020067684 0.2614762 0.26269436 -0.13113047
000190 37 2d 70 3e 1f 71 ab 3d e4 73 31 3c 71 2d 19 3e
       0.23454748 0.083711855 0.010830853 0.14958741
0001a0 0d 3d 12 be 0b b7 15 bd e9 95 0c be 2a 40 a7 be
       -0.14281102 -0.036551517 -0.13729061 -0.3266614
0001b0 59 be fa 3c 25 84 98 be f1 cf 95 bd de 49 3e bd
       0.030608343 -0.29788318 -0.07315052 -0.046457164
0001c0 96 15 df 3b 15 5c 04 be 55 a1 d0 be 22 71 2a be
       0.006807993 -0.12925752 -0.40748087 -0.16644719
0001d0 78 9f c2 3c 7e 66 1e bb 6b 82 8b be 19 4c 98 3d
       0.023757681 -0.0024169977 -0.2724794 0.074363895
0001e0 45 66 39 be ff 66 e6 3d fa ef 2a 3e 68 b3 07 be
       -0.18105419 0.11250114 0.16693106 -0.13252032
0001f0 57 5d 8a be e7 87 7a bd 26 b0 82 3d 5b f0 40 3e
       -0.27024338 -0.061164763 0.06381254 0.18841688
000200 86 2b 4b bd c7 57 29 3e a2 df c6 bd 16 01 36 bd
       -0.049602054 0.1653739 -0.09710623 -0.04443463
000210 ef 85 da be 0d 8d 47 bc b0 b5 c8 3d 0f fb 5c 3e
       -0.42680308 -0.012179625 0.09800279 0.21580146
000220 fd 5a 12 bd 33 0f ad 3e 1e a5 79 3d 21 8b aa bd
       -0.035731304 0.3380066 0.060948484 -0.08327318
000230 5a 4c d6 be cd d7 8c 3e f0 68 f3 bd e4 f1 63 3d
       -0.41855127 0.27508393 -0.118852496 0.055650607
000240 b0 bc 65 bc b4 88 47 be 8b 16 0d bf 86 fa 63 be
       -0.014022037 -0.19485742 -0.5511252 -0.22263536
000250 d4 1c 0b bc 93 6e e2 3c 3b c6 95 3e 14 b0 8a 3d
       -0.00849076 0.027640617 0.292528 0.067718655
000260 62 a2 6d bd ac 57 15 be 82 ef 1e be a4 58 e4 bd
       -0.05801619 -0.14584225 -0.15521052 -0.11149719
000270 a0 1f bf 3d ea 77 8f be b6 6a 59 be 91 65 78 3d
       0.09332204 -0.28021175 -0.21232113 0.060643736
000280 45 98 87 be 83 87 80 bd 14 9b 58 3e 54 7e 8a bd
       -0.2648336 -0.06275847 0.21152908 -0.067623764
000290 4a e3 a1 be ed bc aa be 80 ea 33 bf a1 e7 a7 bb
       -0.3161872 -0.33347264 -0.70279694 -0.005124048
0002a0 a6 e4 ae bd 93 9c 79 be f3 f6 90 3d bb b6 67 be
       -0.08539705 -0.24376135 0.07078352 -0.226283
0002b0 e9 44 00 3e f3 a9 1a bd 38 0a fa bd af f1 ce bc
       0.12526287 -0.037759732 -0.1220898 -0.025261728
0002c0 2a 4c 58 bd c9 e5 c0 3d 1d bd 0e 3e 32 93 01 3e
       -0.05280701 0.09418828 0.13939328 0.12653807
0002d0 10 e8 b0 3d 56 6a eb bd 53 ac af 3d 6a 54 17 be
       0.086380124 -0.11494891 0.0857779 -0.14778295
0002e0 16 4b 9f bd b8 40 55 be 38 a3 c1 3c 57 3c 9b bd
       -0.077779934 -0.2082547 0.0236374 -0.07579868
0002f0 69 be 22 be 00 28 8e b9 41 33 8b 3d b8 3f 9c bd
       -0.15892948 -0.00027114153 0.06796885 -0.07629341
000300 5d de 1f be 91 b4 9d 3d 4c a2 ce bd 7d 67 de bd
       -0.15612169 0.07700456 -0.100895494 -0.108595826
000310 6a 40 b8 bd 72 cd 38 be bf 67 39 be 39 68 fc bd
       -0.08996661 -0.18047121 -0.18105982 -0.123245664
000320 c2 a3 cf be 9e e7 80 bd b2 0f dd bc 53 82 58 be
       -0.40554625 -0.062941775 -0.026985023 -0.21143465
000330 d2 2b af 3d 8e 5b 94 3e 06 1c b2 3d 47 5e c7 be
       0.0855328 0.289761 0.08696751 -0.38939115
000340 cf 5d 67 3d 38 11 d4 3e 87 b7 dd be fc dd 20 bd
       0.056485947 0.41419387 -0.43304083 -0.0392742
000350 ec 1b 27 be c4 c0 3b 3d 38 1f b5 3d 7c 24 3e 3e
       -0.16319245 0.045838133 0.08843845 0.18568605
000360 83 98 bc bd 1a 8e 02 3f 3b b5 4e 3c 99 a1 78 be
       -0.09208777 0.5099808 0.012616451 -0.24280395
000370 8b dd 0b 3e 72 b6 8d 3d b9 b0 fa bd 53 e1 bf 3b
       0.1365873 0.06919564 -0.122407384 0.005855718
000380 34 da ce bd fc 63 03 3e 92 c2 74 3e 30 f2 cf bd
       -0.10100213 0.1283111 0.23902348 -0.101536155
000390 99 53 bb be f4 4b 78 be 1c d3 95 be 96 e9 08 be
       -0.36587217 -0.24247724 -0.29262626 -0.13370356
0003a0 08 b4 ed be eb e6 36 be 72 78 8d bc 3d 52 2c bd
       -0.46426415 -0.17861526 -0.017269347 -0.042070616
0003b0 e2 8b 7b bd f5 9e 91 be 51 2e ec bc 1d 2e 4d be
       -0.0614127 -0.28441587 -0.02883068 -0.20037122
0003c0 6b 24 da 3e f9 e1 2c 3e a9 53 ad be a3 1a 3f 3e
       0.4260591 0.16883077 -0.3385289 0.18662505
0003d0 2c 47 7a 3d 2a 95 91 bd 4f cf 38 3e 18 34 57 be
       0.06110303 -0.07108529 0.18047832 -0.21015966
0003e0 bf 76 19 3d b1 29 a9 be 4c f7 ac ba c2 4c 11 bd
       0.03746676 -0.3303962 -0.0013196259 -0.035473593
0003f0 b8 a1 b6 3c a2 a2 10 3e af 7e 7d be b6 0e 29 bd
       0.02229391 0.1412454 -0.24755357 -0.041273795

encoder.linear2.bias f4 [40]
000000 c0 a4 5a 3d 23 a4 f4 bc 4a 3f 9b be 39 da f9 3d
       0.053379774 -0.029863423 -0.30321723 0.12199826
000010 d9 e1 21 be 7a 3e f7 3e 78 55 bf bd b5 77 96 3e
       -0.1580881 0.48289853 -0.09342474 0.29388204
000020 e5 71 b1 be 7c 0a d3 3d 38 08 ec 3d a0 dd 32 be
       -0.34657207 0.10304734 0.11525005 -0.17467356
000030 69 be 0e be 44 98 00 bf 4c c5 08 bf 42 32 f9 bd
       -0.13939823 -0.5023234 -0.5342605 -0.12167789
000040 6e d2 87 3d 41 a7 b2 3e 91 9c 03 3e 81 12 a4 3e
       0.06631933 0.3489323 0.12852694 0.32045367
000050 8b 78 35 3e d8 51 0e be 0e 1d 9d bc 75 6c a7 be
       0.17721765 -0.13898408 -0.019178893 -0.32699934
000060 93 c6 b1 ba ec 81 48 bf f3 84 d1 3e 37 f2 ea 3e
       -0.0013563208 -0.78323245 0.40921745 0.4588792
000070 55 06 46 3e f5 6e 02 3e 18 57 0b bf 98 b4 1b bf
       0.19338353 0.12737639 -0.5442977 -0.6082244
000080 f6 c6 39 bf 09 96 25 3d 5f 61 ab 3e 5d 93 68 be
       -0.72569215 0.040426288 0.33472726 -0.22712465
000090 eb c1 0d be e0 b7 6a 3d 47 ed 89 be 96 e8 1f be
       -0.13843505 0.057304263 -0.2693884 -0.15616068

encoder.linear3.weight f4 [80, 40]
000000 cc e3 81 3d 45 39 a3 be b8 3d 9d bd b0 a3 76 3d
       0.06342277 -0.3187963 -0.076777875 0.0602147
000010 b8 77 f0 bd b6 14 80 3e fa 60 46 be 12 31 92 be
       -0.117415845 0.250158 -0.19372931 -0.28553063
000020 7e 0e 78 be 9e 4d 06 be 57 d5 c8 be bc 76 ef be
       -0.24224278 -0.13115546 -0.39225265 -0.46770275
000030 a4 00 6d 3e 25 b1 54 3d e0 16 9d 3e 12 5b ab 3b
       0.23144776 0.05192675 0.30681515 0.0052293623
000040 33 5e d4 3d 13 ec 10 bd 0a d8 d4 3e ce a6 01 be
       0.103695296 -0.035381388 0.41571075 -0.12661287
000050 dd c8 90 3d c3 c9 fa bd 85 af 04 3d 05 a5 65 3d
       0.07069562 -0.12245514 0.03239395 0.056065578
000060 a7 98 8c 3d a5 66 0d be 08 9b 0f be 44 52 88 bd
       0.068650536 -0.13808687 -0.14023983 -0.06656316
000070 e9 fe 45 3c de 3c 71 be 40 b7 49 3d f3 41 9d be
       0.012084701 -0.23558375 0.049247026 -0.30714378
000080 72 c0 61 be 72 7d 1a 3d 5d ad 8b 3e e3 79 00 3c
       -0.22046068 0.03771729 0.27280703 0.00784156
000090 10 c3 16 be fb 6a 67 be 5c 82 c5 3d b3 d4 0a 3e
       -0.14722848 -0.22599404 0.09644005 0.13557701
0000a0 12 5b f6 3c 2d 46 13 3e 63 d3 92 be e5 ce 01 bd
       0.030072723 0.14382239 -0.286769 -0.03169145
0000b0 3d 2e 5e be 1a 4e 49 3e e9 f2 c8 bd 7d 36 39 3d
       -0.21697326 0.196587 -0.098119564 0.04521798
0000c0 e3 a6 a3 bd 66 c6 f9 3d e3 67 26 bd bf e0 6d be
       -0.079908155 0.121960446 -0.040626418 -0.23230265
0000d0 57 ca ed bd 92 5c 01 be 80 8d dc b9 a5 af 31 3d
       -0.11610859 -0.12632969 -0.00042067096 0.0433804
0000e0 5e 7a 0a bd 2f 9d 79 be 55 f3 07 bd 15 2f 9e bc
       -0.033808105 -0.24376367 -0.033191044 -0.01930956
0000f0 16 58 11 3d cf eb 33 be c0 ce 87 3d 6d c2 e3 3d
       0.035484396 -0.17570423 0.06631231 0.11121068
000100 d8 48 57 be 90 56 07 bd 51 05 16 be 50 a9 93 3d
       -0.21023881 -0.033041537 -0.14650466 0.07210028
000110 07 e2 49 be 9d 03 30 bd 63 e7 e4 be 3e d2 28 be
       -0.19715129 -0.042972196 -0.44707784 -0.16486451
000120 7e 3f 46 be 38 84 26 be b3 b1 31 3e 7f de 8f be
       -0.19360158 -0.16261375 0.17352943 -0.2809944
000130 74 48 b4 be b2 65 2f be fb 20 a4 3d a4 17 b0 bc
       -0.35211527 -0.17128637 0.08014103 -0.021495648
000140 fe 84 a2 3d 4c a6 29 be 19 e1 cb 3d 3c 5e 38 3b
       0.079355225 -0.16567343 0.09955043 0.002813234
000150 2a 3a 83 3e 6a 68 63 be 2e fd 26 3e 07 d6 b6 be
       0.25630313 -0.222078 0.16307518 -0.35710165
000160 91 d9 08 bc 5a 91 99 3d a2 d2 a0 3c 65 14 35 3d
       -0.008352653 0.07498427 0.019631688 0.044208903
000170 90 56 e5 3c 1b 2d 50 be b6 2d 6c be 96 8d b4 3b
       0.027995378 -0.20329706 -0.23064312 0.0055100424
000180 5b ca b2 3d 88 82 24 be d0 62 d7 bc 79 08 bf 3a
       0.087300025 -0.16065419 -0.026292235 0.0014574669
000190 b5 30 1c bd c8 4f 08 3e 61 71 69 3e 6c 6b 8f 3d
       -0.03813239 0.13311684 0.22797157 0.07002911
0001a0 6a 00 6b bc 0d 68 6c 3d 06 09 c4 be 0e 90 e4 bd
       -0.01434336 0.057716418 -0.38288134 -0.11160289
0001b0 72 34 02 3e 56 8e 90 3e c4 9e ce 3d a3 0a 57 3e
       0.12715319 0.28233594 0.10088876 0.21000151
0001c0 ce da 43 be cc 01 cf 3d 7b 37 1c be 6f ad 45 bb
       -0.19126436 0.101077646 -0.15255539 -0.003016319
0001d0 2e ab cb 3d 93 75 cc 3d 54 6c 23 be 00 9f 61 ba
       0.09944759 0.09983363 -0.15959293 -0.00086067617
0001e0 82 82 31 3d a2 5e a8 3e ad 02 9a 3b e8 fc 4b 3b
       0.043337353 0.328847 0.004700026 0.0031126086
0001f0 76 ee 0d 3e fb 0e a4 bc 5f a0 27 be 5f a1 4e 3e
       0.13860497 -0.020026674 -0.1636977 0.20178746
000200 c6 cc b3 3e b9 6d 81 3d 31 ad 51 be 7f 7b 5b be
       0.35117167 0.06319756 -0.20476224 -0.21433829
000210 9e 72 8b bf 97 85 1d 3c d4 1f 50 3e ec 1a 16 be
       -1.0894353 0.00961437 0.20324641 -0.14658707
000220 5a 0d ca be 53 44 2a bd 5a a4 3e bc 75 38 93 bb
       -0.3946331 -0.041569065 -0.011635864 -0.004492814
000230 4f cf 29 bf 71 80 46 3e 32 ef 53 be 17 f8 d1 bc
       -0.6633195 0.19384934 -0.20696715 -0.025630994
000240 ca 96 3c 3d c9 8f 06 3e 88 01 bf 3d d3 44 bb bc
       0.04604224 0.13140787 0.09326464 -0.022859966
000250 94 1f 88 3e d5 65 a4 bd 95 53 e4 3d 22 1b a5 3d
       0.26586592 -0.080272354 0.111487545 0.08061816
000260 76 e6 99 3d 28 6a 0a 3e f1 b9 19 3e 48 e3 83 3e
       0.0751466 0.13517058 0.15012337 0.2575934
000270 10 98 cf 3d 47 a4 a1 3e 34 c6 0a be 32 d6 e5 bd
       0.101364255 0.31570646 -0.13552171 -0.11222495
000280 de c2 17 be 95 1a e8 bc 38 99 2a be e8 2f 18 3d
       -0.1482043 -0.028332988 -0.16660011 0.037155062
000290 a1 57 79 bd 8c 6d 73 bb d8 24 bb bd a2 5e 4e be
       -0.060874585 -0.0037144152 -0.09137887 -0.20153287
0002a0 45 c3 8b be 8e a6 12 be 0a 3d 57 bd bb 51 2d bc
       -0.27297416 -0.14321348 -0.052548446 -0.010578568
0002b0 8e 7a db bd c8 3e 4c bd 8c 25 2f be df b4 8e bd
       -0.10716735 -0.04986456 -0.17104167 -0.06968092
0002c0 8e c9 06 3c 96 07 50 3e 16 97 b6 bc 64 82 32 bd
       0.008226765 0.20315394 -0.02228884 -0.04358138
0002d0 1f 79 bd bd 51 f2 c5 3d 2d ba 07 be c1 c4 d6 bd
       -0.09251618 0.09665359 -0.13254614 -0.104867466
0002e0 28 3e 28 3d 53 34 48 be 9d 32 1d 3d d4 68 bf 3c
       0.0410749 -0.1955121 0.038378347 0.023365416
0002f0 d7 8c e7 bc a5 18 1d 3e 51 1d b2 bd 09 84 02 be
       -0.0282654 0.15341432 -0.08696998 -0.1274568
000300 20 a4 52 bd 85 ea 6f 3b 93 67 d4 3d 5e de 8a 3c
       -0.051426053 0.003660829 0.10371318 0.016951736
000310 70 0d eb 3d 61 45 4e 3c 5b 55 84 bd b4 ec 23 be
       0.114771724 0.012589783 -0.06461593 -0.16008264
000320 68 1e 26 bd a0 9e fa bd c4 86 0d 3e f8 0d d6 bd
       -0.04055634 -0.122372866 0.1382094 -0.10451883
000330 83 a1 1f 3e cd ce 40 3e 31 9d 0e be 17 95 ff bd
       0.15588956 0.18828888 -0.13927151 -0.124796085
000340 10 56 3c 3e 1b 98 e4 3d dd 65 a9 be bf 80 3e bd
       0.18392205 0.11161824 -0.33085528 -0.0465095
000350 46 4d e7 bd e4 33 58 3e 58 43 75 be e4 5c d4 3d
       -0.112940356 0.21113545 -0.23951471 0.1036928
000360 92 8d 44 be 78 96 d1 bd c1 99 45 be b7 9a a7 bc
       -0.1919463 -0.10233778 -0.19296934 -0.020459516
000370 a2 6c aa bd 55 67 31 bd 0a c7 92 bb 95 20 87 be
       -0.08321501 -0.043311436 -0.0044792937 -0.26392046
000380 d1 99 b1 3d 44 29 59 bb 99 da 5c 3d fa 29 30 be
       0.08671916 -0.0033136168 0.05391941 -0.17203513
000390 1d 24 06 bf a3 1f 90 be 6c 20 05 bd 2e 07 26 3e
       -0.52398854 -0.28149137 -0.032501623 0.16213676
0003a0 1b 26 0d bd 88 6b 90 3d e1 cb 2b bd 66 41 6d 3e
       -0.03446017 0.0705176 -0.04194248 0.23169479
0003b0 95 18 a3 3c a8 17 5a bd bc 09 f2 bb 99 69 c7 3c
       0.019909183 -0.053245217 -0.0073864143 0.024342345
0003c0 91 9f de 3d 49 90 6a 3d 45 7f e7 be 74 43 23 3e
       0.108702786 0.057266507 -0.45214286 0.159437
0003d0 da 96 4f bd fe 7d a4 bd 1a 33 e2 3b d4 30 26 3e
       -0.050680973 -0.080318436 0.0069030644 0.16229564
0003e0 2a 7f 95 3d 9e 63 08 be 0e cf 5c be ca 58 f6 3d
       0.07299645 -0.13319251 -0.2156336 0.12028654
0003f0 a3 88 99 bd b6 d3 01 be 26 a7 11 3e d7 28 06 bd
       -0.074967645 -0.12678418 0.14223918 -0.03275379

encoder.linear3.bias f4 [80]
000000 94 bb ad bc e6 19 ae bd 52 1c 4d be aa c5 28 3e
       -0.021207608 -0.085010335 -0.20030335 0.16481653
000010 a9 78 82 3e 7e 1f 58 bd e9 0e 87 3e 74 08 a5 3c
       0.2548268 -0.05276441 0.26378563 0.020145632
000020 85 90 1e be 81 00 b7 bd 3a 4c c0 bd 51 81 25 be
       -0.15484817 -0.08935643 -0.09389539 -0.16162612
000030 95 26 ca bd 37 e2 25 be 00 b0 65 3d 4e cc 9c bd
       -0.0987064 -0.16199575 0.05607605 -0.076561555
000040 ed 89 91 3e 1e 34 8d 3c d9 1e 87 be 4a 9f 86 3e
       0.28425542 0.017236765 -0.26390722 0.26293403
000050 f8 8c 52 be 7e ba 8b 3b 9d a3 8b 3e 93 cd 43 3e
       -0.20561588 0.004264175 0.27273265 0.19121389
000060 ae 3f 22 bc ae a5 d3 be 14 25 15 be c7 6d c3 3d
       -0.009902878 -0.4133734 -0.14564925 0.09542423
000070 5d fe 28 3f 95 e9 2a 3e 59 30 cb be 93 26 38 be
       0.6601313 0.16690667 -0.39685324 -0.17983465
000080 f4 20 27 3d b1 ce 8c bc 6f 30 97 be 09 2f cb 3c
       0.04080291 -0.017188402 -0.2952914 0.024802702
000090 b6 83 ec 3d b6 f8 87 3e 8b a3 31 be e3 88 18 be
       0.11548559 0.2655694 -0.17347543 -0.14895968
0000a0 1b a9 56 3e 67 d8 a3 3e 30 0e c1 be 5b 03 9f 3d
       0.20962946 0.3200104 -0.37706137 0.07764312
0000b0 3e 6d e6 bd df c9 0e be 7c 1a 5a be d9 d5 16 be
       -0.11251305 -0.13944195 -0.21299165 -0.14730014
0000c0 a6 38 b1 3b 1f 1e 03 be 3e 89 c8 3d 65 47 44 3e
       0.0054083643 -0.12804459 0.09791802 0.1916786
0000d0 6d d1 eb be 95 a0 18 be b4 88 68 3e 17 bb 3e 3e
       -0.46058217 -0.14905007 0.22708398 0.18626057
0000e0 89 54 82 3e 81 57 18 be 73 3d 2b 3d cf 93 81 3d
       0.2545512 -0.1487713 0.04180665 0.063270204
0000f0 50 34 83 bd 6f f9 be 3d 5c 54 57 3c 5d 77 22 be
       -0.06406462 0.093249194 0.013142671 -0.15865846
000100 54 13 11 be e7 1d 24 3e 4c 64 2d bd 0e 8a 01 3e
       -0.1416753 0.16027032 -0.04233198 0.1265032
000110 a5 39 d7 bd 7f a7 89 be 1c c1 63 be 9f 5a 2d be
       -0.10509042 -0.26885602 -0.22241634 -0.169291
000120 33 17 0a 3e a7 50 06 be 87 27 da bc 22 71 24 be
       0.13485412 -0.13116704 -0.026630176 -0.16058782
000130 d4 80 f2 bb fd 0d 00 be 5b ef 8c 3e 6b 2f c0 bd
       -0.0074006114 -0.12505336 0.27526364 -0.09384044

encoder.linear4.weight f4 [40, 80]
000000 f8 e7 52 3e ac f8 33 3e e8 38 00 3e 26 c7 6a bf
       0.20596302 0.1757533 0.12521708 -0.91710126
000010 d2 f4 07 3d d7 32 8d bc 74 85 e1 bd 12 6d 1c 3e
       0.033192463 -0.017236156 -0.11011782 0.15275982
000020 76 b3 e8 bb f4 3e 25 3e 57 b7 0e be 8c 61 d7 3d
       -0.0071014715 0.16137296 -0.13937126 0.105166525
000030 58 aa a6 3d b4 af 20 3d 78 4d 36 bf 07 7e 2e 3e
       0.08137959 0.039230064 -0.7121196 0.17040263
000040 d9 7a ef 3b 73 17 9c bc 1b 5d d6 3d f6 b1 10 3e
       0.0073083458 -0.01905415 0.10466977 0.14130387
000050 fa 85 8d 3d 1e d7 85 3e b6 0f 24 bf 7a 75 c6 bd
       0.069103196 0.26140684 -0.64086473 -0.096903756
000060 81 79 01 bd 1a 7e 20 3d b3 dd 1d bd a5 c7 41 be
       -0.031610016 0.03918276 -0.038541507 -0.18923815
000070 5c 56 8e 3b 83 91 a7 bc 5d eb fb 3d cd 0e 9f bd
       0.004343791 -0.020455128 0.12300751 -0.07766495
000080 19 6b ff 3d fa ac 8c 3d 00 a2 c5 3d 58 02 90 3d
       0.12471599 0.0686893 0.0965004 0.07031697
000090 ca 3a 80 3d 4c 9f ee bc c5 81 aa bc ba 7a f0 3c
       0.06261213 -0.029128693 -0.020813832 0.029355396
0000a0 8e ed dd be a0 ac 45 3c 11 ec 4c 3d cb 05 31 bf
       -0.43345302 0.012065083 0.050029818 -0.69149464
0000b0 11 a3 08 3e 01 1f a0 3d d2 38 1c be d8 ae ba bd
       0.13343455 0.078184135 -0.1525605 -0.0911538
0000c0 ea a9 0a bc ab f0 39 3e 1e 96 96 3e f0 b2 a2 3d
       -0.008463362 0.18158214 0.29411405 0.07944286
0000d0 2d 2b 77 3d c4 b7 5a 3d e8 9d 6e 3e 2b f9 b4 3d
       0.06034391 0.05339791 0.23302424 0.088365875
0000e0 92 f9 d2 bc fa 27 08 3e ce a9 b9 bd 73 b6 1e 3c
       -0.02575377 0.132965 -0.09065591 0.009687054
0000f0 20 3a 6c 3e 8a 03 14 3e 9d 39 44 3d 4e 00 9d bd
       0.23069048 0.14454475 0.047906507 -0.07666074
000100 20 3e b6 bd f2 18 ec be 52 32 43 bd 13 d7 68 be
       -0.08898568 -0.46112782 -0.04765541 -0.22738294
000110 4d a9 51 bf fa de 02 3e 4d 17 5f 3c 70 f1 c7 3a
       -0.8189896 0.12780371 0.013616395 0.0015254449
000120 5e d1 e3 be 97 c1 81 3d d1 84 e5 3d 6e 69 cd 3d
       -0.44495672 0.063357525 0.11206973 0.10029875
000130 a7 7b 49 3e 0d 28 87 3c fa 98 85 bc 0d 1f ac bd
       0.19676076 0.01649859 -0.016308296 -0.0840436
000140 04 4b c1 3c 8b ba 82 bb 57 59 df bd a7 e1 ec bc
       0.02359534 -0.003989523 -0.10905712 -0.028916193
000150 2b 68 73 3d d8 52 b0 3d 9d 9d 6f 3d b0 4a 84 3b
       0.059425514 0.08609551 0.05849992 0.0040372238
000160 d4 e2 d9 bc 2e b2 7f bd 10 00 38 bd dc bf 31 3d
       -0.026597418 -0.062425785 -0.044921935 0.043395862
000170 dc 16 43 3d 4a ef d9 bc 9e c6 bb 3d 7d e3 8e 3d
       0.047629222 -0.02660336 0.091687426 0.06976984
000180 b8 37 b0 3d 8d 41 49 3d f4 3c 7b 3b f0 a8 68 3d
       0.086043775 0.04913478 0.0038335891 0.056801736
000190 b4 91 8d bd 2f f1 83 3b be e3 44 3d 47 0d c8 bd
       -0.06912556 0.004026554 0.048068754 -0.097681575
0001a0 8f 42 64 3d af 1d 8b 3d 14 bd f9 bc 98 b1 dd bd
       0.055727538 0.06792771 -0.030485667 -0.10824889
0001b0 50 c9 2f 3d b3 1d ac bb b8 0d 9c 3d 7c 50 81 bd
       0.042916596 -0.005252564 0.07619804 -0.06314179
0001c0 23 3f 22 3d e1 b6 c3 3d ec fb 41 bd 5a fe 34 bd
       0.039610993 0.09556366 -0.047359392 -0.04418788
0001d0 bc a2 b7 bb 9a 5e f9 3c 77 a8 2b 3d 1a b2 d3 bc
       -0.0056041162 0.030440617 0.041908707 -0.025841761
0001e0 eb f0 07 be 0c 4b 53 bd b9 12 a9 3c 8e b8 89 3d
       -0.13275497 -0.051585242 0.02063881 0.06724654
0001f0 1a 04 dd bd 7c e8 92 3d 8e 32 b1 bd 09 7b 45 bd
       -0.10791798 0.07173249 -0.08652221 -0.04821304
000200 7d 50 66 bd 91 f0 ed bd 80 e0 82 3a b8 1c 1b 3d
       -0.056229103 -0.1161815 0.0009985119 0.037869185
000210 a5 db e3 3c 2d c8 52 bd f6 df cd 3d 20 5c e5 bd
       0.027814696 -0.051460434 0.10052483 -0.11199212
000220 6e 59 09 be 75 a3 17 be 6b 3b f7 bd de bc 5b bd
       -0.13413021 -0.14808448 -0.1207188 -0.053646915
000230 93 c9 31 bd 20 f4 88 3c 59 d6 91 bd 00 2c d6 bd
       -0.043405127 0.01671797 -0.07120962 -0.10457611
000240 9b 7d 80 bd 0d 5c 96 bd 27 4e c1 3c 5a a8 ad bd
       -0.06273957 -0.07341776 0.023596836 -0.08479376
000250 d3 1b f5 bd 68 1f 95 bc c6 31 0d be c7 ad 65 bd
       -0.11968198 -0.018203452 -0.13788518 -0.05607393
000260 32 b9 ed bd 9d 51 c0 3c 79 5e 86 bc a9 a9 b6 3c
       -0.11607589 0.023476416 -0.01640247 0.022297697
000270 12 82 8f bd 7e 68 f9 bd f8 c7 bf 3d 6a 21 0d 3d
       -0.07007231 -0.121781334 0.09364313 0.034455694
000280 9a 0f 0a bf 60 0d 35 bd 44 22 c7 3d c0 1a 29 3e
       -0.53930056 -0.04420221 0.097233325 0.1651411
000290 12 7b b2 3d e7 77 c0 3d fe 53 0c be 26 fe 5f bd
       0.0871488 0.093978696 -0.13703915 -0.054685734
0002a0 d0 11 99 3c 47 1a 99 3d a3 c8 32 3e da 63 ab 3c
       0.018685251 0.07475715 0.1745935 0.020921636
0002b0 65 20 50 3e 19 59 98 bd fa 69 88 3e f9 35 12 be
       0.20324858 -0.07438869 0.26643354 -0.14278401
0002c0 d9 ea b5 bd 3d b2 95 bc 89 b2 0d 3e 71 79 0d be
       -0.08882684 -0.018273467 0.13837637 -0.13815857
0002d0 fe a7 15 3d 6b a3 94 bd 0a f4 c5 bd 56 fe bb 3d
       0.036537163 -0.07257732 -0.096656874 0.0917937
0002e0 58 43 26 be 92 10 d9 bd 74 d0 ba bd 9f 28 05 3d
       -0.16236627 -0.10598864 -0.091217905 0.032509442
0002f0 1e 76 1a bf 84 d1 0b be a0 11 cf bd 54 80 a4 bd
       -0.6033648 -0.13654143 -0.101107836 -0.08032289
000300 2c 4f 4b bd 3b cb 70 bd 80 8c 9f bd bc b1 72 bd
       -0.04963605 -0.058787566 -0.0779047 -0.059251532
000310 24 ac 57 bd 27 44 55 be dc c7 18 3e 74 2b 4f 3b
       -0.0526544 -0.2082678 0.1491999 0.0031611593
000320 97 10 d7 bd aa 07 8a 3d 1a 3d d3 3c cc 21 0b 3e
       -0.10501211 0.06739743 0.025785971 0.13587111
000330 6c e5 96 bd 18 ef 37 3e 9f 84 2f bd 0f b5 25 be
       -0.073679775 0.17962301 -0.042851087 -0.1618235
000340 3b da 77 be 56 7d 20 bd 52 7f 9b bc a8 2b 0e 3d
       -0.24204342 -0.03918203 -0.01898161 0.034709603
000350 7a e1 14 3d 7b 37 d8 bb 47 ad e4 bc f4 93 a5 be
       0.036347844 -0.0065984107 -0.027914656 -0.32339442
000360 40 65 5e be f0 00 30 3d 64 cc e3 bc 34 23 63 bd
       -0.21718311 0.042969644 -0.027807422 -0.055453494
000370 3d 20 8e bd 3a e2 84 be 5f 91 cf bc ed cd a6 bd
       -0.06939743 -0.25953847 -0.025337873 -0.08144746
000380 b1 4c 5d 3d 4f ec 60 3c a4 9c dd bd 70 74 0d be
       0.054028217 0.013728215 -0.108208925 -0.13813949
000390 3c 38 a3 3e 70 e8 e9 3b c6 71 83 bd 27 09 18 3d
       0.3187884 0.0071383044 -0.06418185 0.037118103
0003a0 c9 f7 c1 3d 9c cc 0a 3b f0 74 f7 bd 5c 5b 1a bd
       0.094710894 0.0021179086 -0.12082851 -0.037684783
0003b0 aa 15 2b 3b 2c 9a 41 be ec 7d 9c 3c ac 32 a0 3b
       0.0026105442 -0.18906468 0.019103013 0.004888853
0003c0 e8 13 f9 ba 01 56 6a bd a9 4c 28 bf 11 41 da 3d
       -0.0019003125 -0.057210926 -0.65741974 0.10656942
0003d0 ec bf f4 bc e7 37 55 be a3 88 91 3d 20 3a 5e be
       -0.029876672 -0.20822106 0.071061395 -0.2170186
0003e0 bf 82 b9 3d e9 9c d2 bd 50 b4 96 be d2 c6 b1 be
       0.09058141 -0.102838345 -0.29434443 -0.34722
0003f0 df 01 b4 3c 45 1e bf 3e a6 4e 9d 3d 78 12 fe bd
       0.021973548 0.3732778 0.076810166 -0.124058664

encoder.linear4.bias f4 [40]
000000 e6 47 3c bd d4 f8 c0 bd 18 16 8f 3a 4b 7f c8 3d
       -0.045967005 -0.0942246 0.0010916619 0.09789904
000010 cc f7 03 be 1b 62 49 be 43 17 00 3e e3 be 84 be
       -0.12887496 -0.1966633 0.12508874 -0.25926885
000020 17 8d 3f 3d 6e ed 12 be 56 4e 88 3d 98 2c 8b 3d
       0.046765413 -0.14348385 0.066555664 0.06795615
000030 ef 1d fc bd 7e 8e 24 3e 88 c8 cf 3d 41 8e ab 3d
       -0.12310397 0.16069981 0.1014567 0.08376742
000040 f4 c2 40 3e 4e aa 4b be 3f 7e d2 3c a6 45 2c bc
       0.18824369 -0.19889185 0.025694964 -0.010514652
000050 84 82 b4 bc 93 44 3f be 6f 27 65 3e e5 5c 36 be
       -0.022034891 -0.18678503 0.22378324 -0.17808874
000060 7a 16 6c be 24 67 fd bc b7 66 a4 3d a5 ff 53 3d
       -0.23055449 -0.03093297 0.08027404 0.051757473
000070 87 e2 9d bd 29 55 c9 3d f4 b1 0c be ea 86 d7 be
       -0.07709222 0.09830696 -0.13739759 -0.4209512
000080 01 20 4b bd b4 35 bc bc dc 44 cf bd 2e 14 9a bd
       -0.04959107 -0.022974826 -0.10120556 -0.0752338
000090 01 9e 0b be 40 e4 32 be 9e ee c8 bd e9 93 4a be
       -0.13634492 -0.17469883 -0.098111376 -0.19782986

encoder.linear5.weight f4 [20, 40]
000000 1a a3 7a bd 43 fd 89 bd 8b ed 08 be 28 a9 0e bf
       -0.061190702 -0.06737759 -0.13371865 -0.5572686
000010 d8 1e 93 3d 42 c4 06 be 38 bc d9 3d 53 58 21 bd
       0.07183617 -0.13160804 0.10631603 -0.039390873
000020 19 81 9b 3d 52 ef 9f 3d 40 8b 32 be 64 4e 14 bd
       0.07592983 0.078093186 -0.17435932 -0.03620757
000030 24 49 19 3d f4 f1 b3 bc ed cf 30 be 55 61 98 3d
       0.037423268 -0.021965958 -0.17266817 0.074404396
000040 92 5c 4d 3e 86 57 2f be 14 36 15 3c 0b c0 fb 3d
       0.20054844 -0.17123231 0.0091071315 0.12292489
000050 50 14 86 3e 26 b8 81 bd 05 4d 0b be f3 25 ba bc
       0.26187372 -0.06333952 -0.136036 -0.022723174
000060 56 fc 04 be 0e 25 3f bc f8 ba f9 bd 65 04 7e 3d
       -0.12986884 -0.011666549 -0.121938646 0.06201591
000070 5e f6 b5 bc 08 bd 5d 3e 41 ef c1 3d 27 e2 03 be
       -0.022212204 0.21654141 0.09469462 -0.12879239
000080 ce 4b fc 3c 59 5d 2d 3c 1f 6f d4 3d 9a 2f 3b be
       0.030797865 0.010581338 0.10372757 -0.18279877
000090 29 c6 a9 bc 59 2c f3 3d 9d 5a f6 bd e9 c3 5a be
       -0.020724373 0.11873693 -0.12029002 -0.21363796
0000a0 30 13 d8 bd 38 88 6f bd 15 34 10 be 48 6a e9 3d
       -0.10550535 -0.058479518 -0.14082368 0.11397225
0000b0 37 cb b3 bd 3e 8e ea bd 8f 55 87 be 3e b9 98 bc
       -0.087789945 -0.11452912 -0.26432464 -0.018643018
0000c0 bc 86 e7 bd 5e 43 c5 bd 38 72 8a bd 4d 73 0e be
       -0.113049954 -0.0963199 -0.06760067 -0.13911171
0000d0 5c 31 91 3d 31 83 d3 bd fd 42 83 bd 90 cb 15 bd
       0.07089493 -0.10327757 -0.064092614 -0.036571085
0000e0 bd 73 c5 bd d0 ae 03 bd 4c cb 63 bc 02 a6 04 be
       -0.09641216 -0.032149136 -0.01390345 -0.12953952
0000f0 a5 53 8d 3d 75 cf 3c 3d 36 65 ac bd 6a 38 96 bd
       0.069007196 0.046096284 -0.08417742 -0.07334979
000100 51 e9 f9 bb 86 29 ac bd b0 f2 02 3c 3b fa 8b bd
       -0.0076266904 -0.084063575 0.0079924315 -0.06834837
000110 55 64 09 3e 24 8f 82 be dd 12 75 bd ff be de bd
       0.1341718 -0.25499833 -0.059832443 -0.10876273
000120 16 aa 59 bd 10 6d 7e be 2b 24 55 3d 69 d4 b5 3d
       -0.053140722 -0.24846292 0.052036446 0.08878405
000130 3b 7f ba 3d 1b 6b e8 3a 73 0a 70 3d 75 69 ec 3c
       0.091062985 0.0017732115 0.058603715 0.02885888
000140 d2 3a 0b 3e aa c5 d0 bc e6 38 e2 be 17 cf 2d be
       0.13596657 -0.025484879 -0.44184035 -0.1697353
000150 bd 5a ae 3d 88 3a c1 3d 09 6e bd be 3c 1e 03 3e
       0.08513401 0.09434992 -0.36998013 0.12804502
000160 79 74 a5 3e 03 c9 1f 3e c5 68 a6 be 2c 09 14 be
       0.32315424 0.15604024 -0.32501808 -0.14456624
000170 cb 3f 23 3e d6 ab da 3e e8 d2 14 bd 35 f0 f8 bd
       0.15942304 0.42709225 -0.03633395 -0.12155191
000180 dc 23 99 be c6 f3 fc 3d ec 3e 8a 3d 49 78 ef 3d
       -0.2991017 0.123511836 0.06750283 0.116928644
000190 80 6d 54 be 00 56 d4 3c ec a8 89 3d f4 5e b5 3d
       -0.20744896 0.025919914 0.067216724 0.088560015
0001a0 d4 fa 2c bb 16 22 d0 bb d8 a8 59 3e a3 10 bc 3b
       -0.0026394622 -0.0063517196 0.21255815 0.005739288
0001b0 7f 37 c9 3d df 24 d0 be 38 a1 53 3c c0 2a 4b 3d
       0.09825038 -0.4065313 0.0129168555 0.049601316
0001c0 c3 90 33 3e b2 18 34 be f3 e6 65 3c 39 2f d1 3e
       0.17535691 -0.17587546 0.014032113 0.4085634
0001d0 d8 fe 76 3d 34 4b 6f be 0a 73 78 3c 8a 77 8a bd
       0.06030163 -0.23368531 0.015164146 -0.067610815
0001e0 fa c4 93 3c 61 ba a8 3d 24 d1 14 bd 5a 8d 49 be
       0.018038262 0.08238674 -0.036332265 -0.19682828
0001f0 7d 5f 05 be 2e 5f a6 3d f9 5e 45 be 53 88 ec bd
       -0.13024707 0.08123623 -0.1927451 -0.11549439
000200 20 13 82 be a1 84 2e be ff 4c 3d be 88 25 61 bc
       -0.25405216 -0.17042781 -0.18486403 -0.013741858
000210 47 f4 8f bd ca 96 16 3c c3 8d bc bd f6 b9 8f bd
       -0.07029014 0.009191224 -0.092067264 -0.07017891
000220 3d a2 0c be 1a 77 92 3d 73 0c 7c 3e 45 f9 20 3c
       -0.13733764 0.07151623 0.24614124 0.0098250555
000230 42 b9 41 3c 88 e7 d4 3d 1e 5d 37 3e 49 16 09 3d
       0.011823954 0.103957236 0.17906615 0.03346852
000240 42 98 5b 3c f9 7d 20 3e be 1e e4 bc 71 68 50 3e
       0.013403 0.15673055 -0.02784669 0.20352341
000250 f0 1b e7 bd 0c dd a3 be d6 ad 9e 3d 26 61 b2 bd
       -0.112846255 -0.32004583 0.07748 -0.08709936
000260 49 06 78 bd 06 78 09 3e 73 66 53 bd 68 f9 d1 bd
       -0.06055287 0.13424692 -0.051611375 -0.102526486
000270 d9 56 b6 3d b2 c4 9d 3d c3 2a 13 be fc b5 2d 3e
       0.089032836 0.07703532 -0.14371781 0.16963953
000280 38 5d af bd b8 33 9d 3a 61 f0 51 be ac 70 20 3e
       -0.08562702 0.0011993563 -0.20501854 0.15667981
000290 5b 18 0d 3e ae d7 25 be aa 84 8e bb cc 81 c8 3d
       0.13778822 -0.16195557 -0.004349311 0.09790382
0002a0 b0 c2 22 3b f3 54 22 be 0b 66 6c 3d c8 a4 a9 bc
       0.002483528 -0.15852718 0.057714503 -0.020708457
0002b0 98 49 fc bc 75 39 0c 3e 5c c8 79 be 18 30 7d 3d
       -0.030796811 0.13693793 -0.24392837 0.061813444
0002c0 8f 81 a5 be 54 86 65 3d 25 e7 3f 3d 11 bb b9 bd
       -0.32325408 0.05603631 0.046851296 -0.09068883
0002d0 06 4c 7c 3d b4 79 d3 bc 0c 6b 6a 3e df 68 c3 bd
       0.06159594 -0.025814869 0.22892398 -0.09541487
0002e0 f5 70 13 3c 20 91 d7 3b 38 60 e1 bd de 71 84 bc
       0.008999099 0.0065785795 -0.110046804 -0.016167577
0002f0 10 f3 29 3c 58 8e aa be 88 a7 ac bd 78 fe 69 bd
       0.010372892 -0.33311725 -0.084303916 -0.057127446
000300 0d f0 14 3e 4c 8a e8 bc 54 51 aa 3d 16 d8 3d 3d
       0.14544697 -0.028386258 0.08316293 0.046348654
000310 38 57 08 be f8 31 3d bd 00 03 06 be c0 16 e0 bd
       -0.13314521 -0.046190232 -0.13087082 -0.10941839
000320 43 57 a5 bf ec c3 07 3c e3 f7 60 be 39 b2 a5 3e
       -1.2917255 0.0082864575 -0.21969561 0.32362536
000330 69 64 f6 3c d8 59 82 3b ed 46 cc 3d 0a 66 f3 bd
       0.030077176 0.0039779954 0.099744655 -0.11884697
000340 d2 3d 9c 3e 25 d5 94 3c a3 83 14 3e 57 a0 ad bd
       0.30515915 0.018168041 0.1450334 -0.08477848
000350 75 ea 0f bf 46 78 47 be 19 ac 9f be 16 c4 12 3d
       -0.5621713 -0.19479474 -0.31185988 0.035831533
000360 30 e8 55 bc a1 ce d6 bd b9 7b 8f 3b 41 35 4e 3e
       -0.013055846 -0.1048863 0.0043787626 0.20137502
000370 d5 06 2f bd 90 27 37 3d b4 0e 0c 3f 56 42 76 bd
       -0.042731125 0.044715464 0.54709935 -0.060121857
000380 6f fd 4b 3c 63 7e 1f 3d 45 d8 57 bf 2b 7e 91 3a
       0.01245056 0.03893889 -0.84314376 0.0011100223
000390 d4 0c a9 3c 85 49 8b bd e0 4f d3 bb df 99 a9 bd
       0.020636 -0.06801132 -0.006448731 -0.08281302
0003a0 a7 12 fa bd 85 e7 24 be 3c b9 64 bd 18 4d ba 3c
       -0.12210589 -0.16103943 -0.055840716 0.02274184
0003b0 3c 79 55 3d cf f5 8f bd de aa 1d bd e8 94 ba bd
       0.05211757 -0.07029306 -0.03849303 -0.09110433
0003c0 b0 20 32 bd c8 75 11 3d 50 41 86 3d 39 74 61 bd
       -0.043488204 0.035512716 0.06555426 -0.05504248
0003d0 00 db f7 bb 4f 76 ec bd 7a c3 2c be 20 fc 98 3c
       -0.0075639486 -0.11546003 -0.16871443 0.01867491
0003e0 b5 a0 e1 bd 13 92 00 be 85 d4 ee 3c a2 bc cd 3d
       -0.110169806 -0.12555723 0.029154072 0.100457445
0003f0 f5 72 cd bc b7 ec fc 3d 50 88 a8 3d f5 41 b8 3d
       -0.02507923 0.12349837 0.082291245 0.08996955

encoder.linear5.bias f4 [20]
000000 19 42 39 be 6a 2a 72 3e e8 a9 44 3e 02 49 ef bd
       -0.1809162 0.23648992 0.19205439 -0.11683847
000010 77 87 46 3e c5 d8 5a 3e 5f 51 79 bd fc 81 27 be
       0.19387613 0.21371754 -0.060868617 -0.16358179
000020 53 6f 02 3e 3f d3 cf 3c 47 db dc 3d 07 06 3a 3e
       0.1273778 0.025369285 0.10784011 0.18166362
000030 8c 56 89 3e 8a e2 35 3c 9d af b3 3e b2 4e 57 3e
       0.26823843 0.011101374 0.3509492 0.21026114
000040 59 24 37 be a0 f7 59 bd 4a 62 17 3d 48 eb 85 bd
       -0.1788496 -0.05321467 0.03695897 -0.06539017

encoder.linear6.weight f4 [5, 20]
000000 aa 5e 55 3e 35 28 69 be 01 ad 1d be 90 d1 d0 bc
       0.20836893 -0.22769244 -0.15398027 -0.025490552
000010 85 48 ff 3d 66 fc 2d be 49 61 04 3e c2 ae 2c 3e
       0.12465004 -0.16990814 0.12927736 0.1686354
000020 f0 f3 0f bd 2b 78 68 3d f4 22 dc 3d d0 61 2d 3e
       -0.035144746 0.056755226 0.10748854 0.16931844
000030 8a 80 fd bc 32 01 b1 3c bf f5 cd 3d 0f 68 63 3e
       -0.030945081 0.021607015 0.10056638 0.22207664
000040 bd 74 01 3e 86 af 0b be f0 15 2b 3e 58 3d da bd
       0.12642188 -0.13641176 0.16707587 -0.10656232
000050 14 71 27 be 57 10 9d 3d 1e f5 16 3e d6 55 87 bc
       -0.1635173 0.07669132 0.14741942 -0.016520422
000060 31 bc 01 be f2 c2 74 3e 1b cf 07 3d 6d 5e a1 bd
       -0.12669446 0.2390249 0.033156496 -0.078793384
000070 23 fb 3c 3c ce 00 41 be 79 53 f9 bd 92 af 58 bd
       0.011534485 -0.18847963 -0.12174124 -0.052901812
000080 60 c0 c9 bd 84 f1 e4 3d 62 bd 9d 3e e3 67 08 3c
       -0.09851146 0.11178878 0.3080855 0.00832555
000090 c3 d5 3c be 62 fc 68 3e 29 14 8b bd 6a 60 3d 3e
       -0.18440919 0.22752526 -0.067909546 0.1849381
0000a0 bb c3 54 3d 96 c3 df 3d f4 15 20 be 08 d2 1d bc
       0.051944476 0.10925977 -0.15633374 -0.009632595
0000b0 e3 2b 21 3e aa 86 48 be 2a ef 53 be d0 48 bb ba
       0.15739398 -0.1958262 -0.20696703 -0.0014288668
0000c0 1a 2a a1 be 90 aa bb 3d 26 00 88 be e4 25 88 bd
       -0.31477433 0.091633916 -0.26562613 -0.06647852
0000d0 5d f3 77 bd 8a e5 da 3b 63 c6 68 bd e0 c8 80 3d
       -0.060534824 0.006680195 -0.05682982 0.06288314
0000e0 db 10 ef 3d 00 0b c6 bd 04 d0 7d be b1 52 66 3c
       0.11673137 -0.09670067 -0.24786383 0.014057801
0000f0 e2 82 5c 3c d4 64 17 3e 7b e5 32 3e d9 6f 38 be
       0.013458939 0.14784557 0.17470352 -0.18011416
000100 68 e9 54 3d f1 5d 24 be ec cf 39 bd 53 55 f5 3d
       0.051980406 -0.16051461 -0.045364305 0.11979165
000110 22 7d 82 bd 47 e8 47 3e 29 01 4d be d8 63 1f be
       -0.063715234 0.195222 -0.20019974 -0.15565431
000120 80 83 26 3d 68 96 88 3d 34 c7 4b 3e 14 e9 11 be
       0.040652752 0.06669313 0.19900209 -0.14249068
000130 b0 c8 3b be 24 62 0c 3e 9d 3a 5d be e4 4e 04 bd
       -0.18338275 0.13709313 -0.2160439 -0.0323018
000140 91 96 1a 3e f9 60 81 bd d7 0c 24 bc d1 98 64 bc
       0.15096499 -0.06317324 -0.010012827 -0.01395245
000150 1a 8d 75 be 4f 04 c0 3e a0 db 6c bc dd 9a 2e 3e
       -0.23979607 0.37503287 -0.01445666 0.17051263
000160 7d db f1 3e 93 41 22 bd 04 07 69 be 8b 1b 6f 3e
       0.4723777 -0.039613318 -0.22756582 0.2335035
000170 ff 74 08 be 98 52 ef 3c e6 c5 16 be 2a 6a 99 3d
       -0.1332588 0.029214188 -0.1472393 0.07490952
000180 d9 75 1f be 46 5d 76 3d ee bf 1c 3b f9 01 1a 3e
       -0.15572299 0.060147546 0.002391811 0.15039815

encoder.linear6.bias f4 [5]
000000 fd 90 a2 3d 81 b0 d6 3d f7 6a 43 3d e5 1a 06 3d
       0.079378106 0.10482884 0.04770943 0.032740492
000010 95 39 b7 3e
       0.3578612

encoder.linear7.weight f4 [2, 5]
000000 6a 4e 76 3e 53 2f 05 3e e4 e7 d5 3d bb 54 69 3e
       0.2405335 0.13006334 0.1044462 0.22786228
000010 18 05 a6 be b5 b4 ab 3e c4 21 a2 be 6e 9d 83 3d
       -0.3242576 0.33536306 -0.31666386 0.06426512
000020 24 d7 50 be c4 9f 0e 3c
       -0.2039457 0.008705083

encoder.linear7.bias f4 [2]
000000 ae 70 bb 3e e8 3a c7 be
       0.36609405 -0.3891213

encoder.linear8.weight f4 [2, 5]
000000 ae 62 c9 bd d4 d7 9b 3e 03 52 c3 3d 1f be db 3e
       -0.09833275 0.304381 0.09537127 0.42918488
000010 a4 1c 28 3d d7 28 f6 3d de dc 8a 3e 6d 4b 0b 3f
       0.04104294 0.12019508 0.27121633 0.54411966
000020 af b2 46 be 96 1c 0c bd
       -0.194041 -0.03420695

encoder.linear8.bias f4 [2]
000000 4f 6d 69 c0 f8 1a 6f c0
       -3.6472967 -3.736021

decoder.linear1.weight f4 [5, 3]
000000 dd 4a 40 bf 07 81 ab bd 6c ee 8f be b2 c0 02 bf
       -0.7511423 -0.083742194 -0.2811159 -0.5107528
000010 9a 24 62 3f d7 bd d2 3e 83 cb 46 3e f3 c5 3e 3f
       0.883371 0.4116046 0.19413571 0.74520797
000020 89 4d f1 be a8 6c 5d 3f 89 a4 04 3f b0 24 cc 3e
       -0.47129467 0.8649392 0.5181356 0.3987174
000030 6d 31 19 bb 80 9b 92 be 9c 52 88 3d
       -0.0023375407 -0.28634262 0.066563815

decoder.linear1.bias f4 [5]
000000 b8 f7 69 bd 2c 8c 87 3e af 52 55 3f 9c 6b 08 3e
       -0.05712101 0.2647413 0.8332929 0.133223
000010 2f 5f 05 be
       -0.13024591

decoder.linear2.weight f4 [20, 5]
000000 be 3b ae be cc dc e0 3d ea 4a 97 3e 4a 78 41 3e
       -0.34029955 0.10979614 0.29549342 0.18893543
000010 24 70 c1 3e 50 61 24 bf 5a 32 91 3c 24 32 03 3e
       0.3778087 -0.6421099 0.017724205 0.12812096
000020 22 db f2 3e 6b a2 da 3d fa a3 a1 3d 38 27 d7 bc
       0.4743281 0.1067551 0.07892604 -0.026263818
000030 da a3 01 3f c4 8f cb 3e 0f 54 02 bf fe 24 23 be
       0.5064064 0.39758122 -0.50909513 -0.1593208
000040 9a 7c 9c 3e 94 f8 11 3f fa 68 0c 3f d0 07 2c be
       0.30563813 0.57019925 0.5484768 -0.16799855
000050 b3 38 f3 be 82 bf de 3e b0 c2 cc be d3 89 21 3f
       -0.47504196 0.43505484 -0.39992285 0.6310093
000060 5b 3c de 3e da df 80 be ac 88 b8 be 5e 4c 59 bd
       0.43405423 -0.25170785 -0.36041772 -0.053051345
000070 95 96 2e 3f 71 50 9a bd 25 4c 03 bf 6b 7b 4e be
       0.6819852 -0.07534874 -0.5128806 -0.20164268
000080 b8 89 ec be fd 7a f4 3e b2 47 c7 be 20 0f 80 3f
       -0.4619882 0.47750083 -0.38921887 1.0004616
000090 f3 6d ca 3e 0e 51 49 3e f6 29 a6 be b9 a2 00 be
       0.3953701 0.19659826 -0.3245389 -0.12562074
0000a0 91 39 f1 3e 48 a7 3b 3e 83 99 6e bd 54 74 76 be
       0.47114232 0.18325531 -0.05825187 -0.24067813
0000b0 58 4f 3c 3e 8e 83 d8 be f0 0e eb bc e8 88 fa bd
       0.18389642 -0.42287868 -0.028693646 -0.12233144
0000c0 90 01 67 3e cc 29 3b 3e 72 e4 e1 bd 85 b1 06 3f
       0.2255919 0.18277663 -0.110299006 0.52614623
0000d0 5c 1f 32 be 72 39 eb bd 6f 33 0a be 75 99 0c 3f
       -0.17394775 -0.11485566 -0.13496183 0.54921657
0000e0 0f ec 0e 3f e6 80 c2 3d d4 d3 b5 be 6c e3 e7 3e
       0.55828947 0.09497242 -0.35513175 0.45290697
0000f0 c7 bd 32 3d 94 99 a3 3e 21 51 32 3f 24 4e 24 3f
       0.043638017 0.31953108 0.6965504 0.64181733
000100 c1 2b 7b be 71 ea ed bd 6b 2c a8 3e ca 15 f2 be
       -0.2452841 -0.11616982 0.32846388 -0.4728225
000110 21 cf 0e 3f 13 35 f8 3e 46 83 0b 3f bd d2 85 be
       0.55784804 0.48477992 0.5449718 -0.26137343
000120 b7 98 aa be a3 93 24 3e a2 6a f4 3d 7f 3a 67 3f
       -0.33319637 0.16071944 0.11934401 0.9032363
000130 28 39 c4 3e 37 8f 05 3c ec d6 a5 be dc c3 85 3e
       0.38324857 0.008151821 -0.32390535 0.2612599
000140 27 30 04 bf 90 96 fe 3e 0e 14 cd bd f9 bc f1 3d
       -0.51635975 0.49724245 -0.10013591 0.11803622
000150 23 c5 0b bf 84 c8 c9 be 60 bf 92 be b4 20 ce be
       -0.5459768 -0.39410794 -0.28661633 -0.40259326
000160 06 70 d3 be c2 70 3b be d5 1e ba 3d 3c e3 42 3f
       -0.41296405 -0.18304732 0.09087912 0.7612798
000170 3e 09 90 3c ad 0e 11 be 90 c9 97 bd ec 03 10 bf
       0.017582532 -0.14165755 -0.07411492 -0.56255984
000180 68 80 02 3f 67 dc 9d 3e 19 de a2 be 95 e2 84 3e
       0.5097718 0.30832216 -0.31810072 0.25954118

decoder.linear2.bias f4 [20]
000000 f1 60 92 be bb 6e fc 3e 0b 2b 32 3d b1 0e 3f 3d
       -0.28589585 0.4930323 0.04349808 0.04664487
000010 3e e3 1f 3e 4e f1 90 3e 7d a1 e1 3d 67 b8 3b 3e
       0.1561403 0.283091 0.110171296 0.18332063
000020 35 07 ab 3e cc 61 e4 be fa c2 e2 3e 52 0f 92 3e
       0.33403936 -0.44605863 0.4428938 0.28527313
000030 e9 45 4f be 46 ba 81 3e dc 0e e0 3e 0b 55 e5 3e
       -0.20241512 0.25337428 0.43761337 0.44791445
000040 77 03 ea bd bd a5 b2 be 59 1c 3f 3e 60 72 7c bd
       -0.11426442 -0.34892073 0.18663158 -0.061632514
