state_dict_VAE_Beta=1.pt (torch, 77723 bytes, 30 tensors)

encoder.linear1.weight f4 [20, 10]
000000 c4 d0 96 3d 50 f6 00 3e 66 1e 79 bd ec ae 22 3e
       0.07364038 0.12593961 -0.060820006 0.1588704
000010 5e 00 0e 3e 68 7b d3 be b4 c5 10 3e 65 e2 8f 3e
       0.13867328 -0.4130509 0.14137918 0.28102413
000020 36 ca 63 3d 0c 6a 63 bd d6 d1 1b 3e 52 6e f7 bd
       0.055612765 -0.055521056 0.15216765 -0.12081589
000030 46 e6 53 3e d6 26 ad be 49 49 ca 3e 68 90 d6 ba
       0.20693311 -0.33818692 0.39509037 -0.0016369941
000040 90 6f 1d 3e 45 69 f1 3d a0 32 15 be b4 89 bf 3d
       0.15374589 0.11787657 -0.14570093 0.09352437
000050 ae 86 b2 3e 78 90 2b 3e 3d 23 5e 3e 30 98 4b be
       0.34868377 0.16754329 0.2169313 -0.19882274
000060 dc 18 51 be ae 02 06 be 8c ba 03 3e 5a c8 2b 3e
       -0.2041964 -0.1308696 0.1286413 0.16775647
000070 30 47 8d 3e ec 1b d6 3d ff 74 93 3c 4b de eb bd
       0.27593374 0.104545444 0.018000124 -0.115170084
000080 d9 77 3f 3e 0a 61 8a 3c 3a 3d 73 3e 3d 11 8e be
       0.18698062 0.016891975 0.23753825 -0.27747527
000090 10 c3 e0 3c 99 2c 55 be 16 d0 5f be b6 7d 0d bf
       0.027436763 -0.20817794 -0.21856722 -0.55269945
0000a0 77 46 9d 3e 82 ab 19 bc 11 ed d5 3d 38 d2 e9 be
       0.30717823 -0.00937927 0.104456075 -0.45668197
0000b0 d0 09 d4 3e cb 71 02 3e f8 e2 b4 3d 4f 0d 12 bd
       0.41413736 0.12738721 0.08832353 -0.035657223
0000c0 8e 51 15 bd c6 38 0e bd f0 b3 b9 3d e8 8f 8d be
       -0.03645473 -0.034722112 0.090675235 -0.27648854
0000d0 e3 59 6b be 00 c8 77 bb 58 69 0e 3d 08 7a c3 3d
       -0.22983508 -0.0037808418 0.034768432 0.0954476
0000e0 58 6e 42 bd 20 32 65 3d a4 f8 86 be 80 6b 37 3b
       -0.047468513 0.055956006 -0.26361573 0.002798766
0000f0 7e 7d 39 bd d9 b2 35 3c 03 0f c2 bd e1 cc bd 3e
       -0.045285694 0.011090004 -0.094755195 0.37070373
000100 97 9f ed 3d f4 52 ba be c0 98 eb 3d 0c 68 62 3e
       0.11602705 -0.36391413 0.11503744 0.22110003
000110 1e e3 53 be 18 fc b5 be bc 5f ae 3e e4 e7 4b 3e
       -0.20692107 -0.35543895 0.34057415 0.19912678
000120 63 0b b3 bd b8 6e 80 be 16 79 66 3e 28 87 8a bd
       -0.08742406 -0.25084472 0.22507128 -0.0676406
000130 43 3c 96 3e b8 91 48 3d e7 f2 36 bd 4d 66 9e 3d
       0.2934285 0.048967093 -0.044665243 0.07734356
000140 4f 0c 1f 3e 84 32 2a 3e 1d 87 0c 3d 86 a2 85 3d
       0.15532039 0.16620833 0.03430854 0.065251395
000150 1b 81 fc 3d ec 53 b9 3e 80 d9 63 bd 5b 16 ba 3d
       0.123293124 0.3619684 -0.055627346 0.09086295
000160 e5 ad 93 bd ef 8e 4d 3e 4b 39 8b 3e 95 1f 49 bd
       -0.07210902 0.20074056 0.2719215 -0.049102385
000170 ff bb 85 be 64 0d db be 50 02 ce bb f5 24 18 3e
       -0.26119992 -0.42783654 -0.0062868968 0.14857848
000180 50 ae 08 3e 63 f6 65 be 7d fd e4 be 51 2b 0a be
       0.13347745 -0.2245727 -0.44724646 -0.13493086
000190 04 d0 39 3c 0d c6 1d bd 08 14 6c 3b 88 72 bd 3d
       0.011341099 -0.038518954 0.0036022682 0.09250361
0001a0 74 e1 04 3d cb 5b 7d be cc 26 d1 3d 1c a8 3d 3e
       0.03244157 -0.24742047 0.10212478 0.1852116
0001b0 2c 98 90 bc 50 ce cb be e0 29 36 bd f1 9a 62 be
       -0.017650686 -0.3980584 -0.04447353 -0.22129418
0001c0 05 53 f8 3d c1 3b 40 be 28 2d df 3c 8e 50 58 3e
       0.1212521 -0.18772794 0.027243212 0.21124479
0001d0 31 f3 9e be 08 49 ab be de ec c5 3e 8f 2e f2 bd
       -0.31044915 -0.33454156 0.38657278 -0.118252866
0001e0 96 10 31 be 9a 91 f6 3d 1c 7d 08 be 2d d8 2c be
       -0.17291483 0.1203949 -0.13328975 -0.1687934
0001f0 ad 19 d8 bd 0a 88 09 3f d6 91 96 be fb 06 d8 3e
       -0.10551772 0.53723204 -0.2940814 0.42192826
000200 bb 57 65 3b c1 fe af bd 42 20 b8 bd 79 69 84 be
       0.0034994918 -0.08593512 -0.08990528 -0.2586172
000210 f2 29 25 3e be bf db bc 87 d1 0b be 4c 5e 5a 3e
       0.16129282 -0.026824828 -0.13654147 0.21325034
000220 a0 47 0f 3e 9d d9 e4 be 9f aa f2 3c af 5d 87 be
       0.13992167 -0.44697276 0.029622374 -0.26438662
000230 89 52 0a bd 8d e3 81 3e 4e 9a b7 3c a5 5b eb 3c
       -0.033770118 0.2536892 0.022412445 0.028730223
000240 5d 92 84 be 2e 1f c4 3b d8 2f 25 be 80 2d a6 3d
       -0.25892916 0.005985162 -0.16131532 0.08114147
000250 6b c7 9d be c0 d7 62 3e 9a 00 89 be b0 53 88 3d
       -0.30816206 0.22152615 -0.2675827 0.06656587
000260 d3 d9 60 be 48 09 4a 3e 1d 1e 8f be a8 c6 ea 3e
       -0.21958093 0.19730103 -0.27952662 0.45854688
000270 b6 93 d0 bd da 62 2a be 92 9e 7f be e7 2d b4 3e
       -0.101844236 -0.16639271 -0.24962834 0.3519127
000280 90 ea cd 3e c9 04 c0 bd 5b 30 5d bc ff 0f 48 be
       0.4021802 -0.09375913 -0.013500298 -0.19537352
000290 36 62 5f 3e ed 41 aa 3e ae 0e 96 be 7d 9d 51 3e
       0.21814808 0.33253422 -0.29308075 0.20470233
0002a0 f8 3d 41 3e 65 d4 69 be be c2 4a bd 0e 51 af 3e
       0.18871295 -0.22834928 -0.049502127 0.34241527
0002b0 0e 1e 69 bd 97 49 bc bc 87 2d 09 3e a2 8f 4e bd
       -0.056913428 -0.02298431 0.13396274 -0.050429948
0002c0 00 50 ca b9 6f 43 18 3e 3b 21 62 3e 5b e5 6b be
       -0.00038588047 0.14869474 0.22082989 -0.23036711
0002d0 c0 40 8e 3d d9 1d 3d bd fc 44 2f be 62 82 16 3e
       0.06945944 -0.046171043 -0.17116159 0.14698175
0002e0 16 68 7e be 64 7b 1d 3f ef 96 25 be 80 1d a3 3c
       -0.24844393 0.61516404 -0.16170858 0.019911528
0002f0 c9 91 ad bd 68 a5 f4 3e 2b 0a 51 3c 63 bf d5 3d
       -0.08475072 0.47782445 0.012758772 0.10436895
000300 72 3a 2b be 77 83 c0 bd f5 84 fb 3b 2a bd e7 3d
       -0.16721514 -0.09400075 0.007675762 0.11315377
000310 09 13 8a 3e 03 7e d3 3b 56 9e 80 3e e9 0e a7 be
       0.26967648 0.0064542308 0.251208 -0.32628563

encoder.linear1.bias f4 [20]
000000 22 d8 01 3f 84 ca e7 3d 15 27 65 bf 0f eb 3b 3e
       0.5072042 0.11317924 -0.8951276 0.18351386
000010 4c 90 1f 3f 0b 36 1a be cf f6 4d bf 7d fa 36 3c
       0.62329555 -0.15059678 -0.80454725 0.0111681195
000020 d1 7b 05 bf 8c 06 2e 3e a2 52 1a be 79 12 a4 3e
       -0.52142054 0.16994685 -0.15070584 0.32045344
000030 93 10 34 bd 6a 1c 91 be 93 6a 28 bf 66 d7 1f 3f
       -0.04396112 -0.2834199 -0.6578762 0.62438047
000040 94 b8 85 be b7 80 24 bf 58 0f 40 be c7 72 14 bf
       -0.26117384 -0.64258903 -0.18755853 -0.57987636

encoder.linear2.weight f4 [40, 20]
000000 a1 15 97 be b3 e4 26 be 3c 48 eb 3c 6d a6 48 3d
       -0.2950869 -0.1629818 0.028720967 0.04898684
000010 ba c6 f2 3d fe b9 62 3e 85 82 a1 bd 01 1f 9a 3c
       0.1185431 0.22141263 -0.07886223 0.018813612
000020 da 06 02 be 0e e7 20 bd 1e 52 15 be 00 c0 c5 b8
       -0.12697926 -0.03928285 -0.14582106 -9.429455e-05
000030 31 e4 bd bd f8 e3 65 bd 70 23 cc bd a3 c4 fd bd
       -0.0927204 -0.05612561 -0.09967697 -0.12391021
000040 5f 11 95 be b8 28 28 be 60 cd 27 bd db 06 29 3d
       -0.29114816 -0.16421783 -0.040967345 0.041266304
000050 38 49 50 3e a7 f7 62 3d 27 5f 10 bf 6f 59 17 3e
       0.2034043 0.05541196 -0.5639519 0.1478021
000060 56 79 d0 bd 30 23 fb 3d 69 64 0e be 77 96 af bd
       -0.10179393 0.12262571 -0.13905491 -0.08573621
000070 6a 59 bd 3c 65 c1 0c be d6 1a 8f be 77 03 19 be
       0.023113925 -0.13745649 -0.27950162 -0.14942728
000080 0e e2 88 be 8e 06 6f 3d 31 fd 36 be 81 fb 1a 3e
       -0.26734966 0.05835586 -0.17870022 0.15135004
000090 a2 22 d5 bd cb e8 40 be cc bb 33 be ba bf e9 bd
       -0.10406996 -0.18838803 -0.17552108 -0.11413522
0000a0 d5 4b 09 be 52 c3 e8 3d 50 57 5f bd 78 77 4b 3c
       -0.13407834 0.113653794 -0.054526627 0.01241862
0000b0 2a 44 3a be 10 7c 24 3e 93 6b d1 3c 22 fa f2 3b
       -0.18190065 0.16062951 0.02556399 0.007415072
0000c0 4c 7a 28 3d 74 93 68 be 2a 33 8c be d8 e5 0d be
       0.041132256 -0.22712499 -0.27382785 -0.1385721
0000d0 25 7c 0d bd cb cf 2b bd eb 95 72 3e 28 00 d1 3c
       -0.03454222 -0.041946214 0.23690002 0.02551277
0000e0 00 c5 34 3d 8a 7d 8b 3d 3d 4d 0e 3e db 18 8b be
       0.044133186 0.06811054 0.13896652 -0.271674
0000f0 07 4f 7a bc 2f 66 84 bd d8 44 12 3e 40 82 30 be
       -0.015277631 -0.064648025 0.14284074 -0.17237186
000100 c8 4f 30 be 9c 84 bb bd 36 52 38 3e 62 2d 05 be
       -0.17217934 -0.091561526 0.18000111 -0.13005593
000110 43 0a b7 bb 41 c3 04 3e 3b 63 8a 3d eb 7c a1 be
       -0.00558594 0.12965108 0.06757208 -0.31540617
000120 58 95 74 3b 20 97 f9 bd 4c b0 bf 3d 76 fc f6 be
       0.003732046 -0.12187028 0.09359798 -0.48239487
000130 27 f2 8c bd 0d cf 2a be e4 a0 8c be 9e 8b a2 bd
       -0.068821244 -0.16680546 -0.274665 -0.07936786
000140 5a 33 11 be c7 6c 57 be f3 fd 5d be 47 9c 3e 3e
       -0.14179745 -0.21037589 -0.21678905 0.18614303
000150 04 96 d2 bd dc 75 da 3d 26 c2 23 be 8d 43 a7 be
       -0.102825195 0.10667011 -0.1599203 -0.32668725
000160 c2 bb 8e 3d 54 06 94 be db 0d 8f bc 7c f3 75 be
       0.06969406 -0.28911078 -0.017462661 -0.24018663
000170 88 a2 7f bd 41 ef 73 bc e5 56 64 be 89 75 33 3e
       -0.06241086 -0.014888586 -0.22298773 0.17525305
000180 8f 8f 94 be a7 9b 43 be 4d ac c8 3d 83 86 3f 3d
       -0.29015777 -0.19102345 0.09798489 0.04675914
000190 95 13 79 3e 24 b4 5f be 47 ae 0d 3d 4f 25 b3 be
       0.24323876 -0.21846062 0.034590032 -0.34989402
0001a0 dc 96 9c bd ec 6b bd 3d 06 3b 6f 3d 10 8b 58 bd
       -0.07645962 0.092491 0.0584059 -0.052866995
0001b0 cf fd fb bc 48 1c 39 3e 62 ab b3 3d 22 97 93 be
       -0.030760674 0.18077195 0.08772923 -0.28826243
0001c0 ce 59 83 3d 9a ce 29 bd 95 4f 56 3e eb 7e 22 be
       0.06413613 -0.041456796 0.20928796 -0.15868728
0001d0 56 b1 f2 3d fa ce 77 3e 8a c8 87 be a4 9f db bd
       0.118502304 0.24200049 -0.26520187 -0.107238084
0001e0 6f cb e2 bd 62 18 15 3c 95 d2 97 3e 35 da 65 be
       -0.11073958 0.009100052 0.2965285 -0.2244652
0001f0 f6 bd b0 3d 28 29 7b 3d 0b 4b ef 3c eb 87 39 3e
       0.08629982 0.061318547 0.029210588 0.18118255
000200 de 23 26 be c4 ae a3 bc 28 d5 7c be 07 29 7a bb
       -0.1622462 -0.019980796 -0.24690688 -0.0038171427
000210 f3 1f a7 3e 9b a3 87 bd 02 bf 1c 3e ee 26 16 be
       0.32641563 -0.06623002 0.15307239 -0.14663288
000220 e7 ea 03 3e da 09 ad bd ec 56 fa 3d 19 38 33 be
       0.12882577 -0.08449145 0.1222361 -0.17501868
000230 f2 7f 25 3d a8 f0 2b 3d f7 87 a0 3e 1b 44 66 be
       0.04040522 0.041977555 0.31353733 -0.22486918
000240 8e 45 64 bc 0e e5 02 be c7 56 e2 3d 60 7f fb 3d
       -0.013932599 -0.1278269 0.11051708 0.12280154
000250 4e 99 bb 37 b7 97 82 3d 37 d2 b2 3c 63 30 08 be
       2.2363525e-05 0.063765936 0.021828754 -0.13299708
000260 2c 9c c8 bc a3 c6 8e bd 65 bf 67 3e e5 ef 51 be
       -0.024488531 -0.06971481 0.22631605 -0.20501669
000270 10 99 3c bd ca bf 12 3e f4 e5 10 3d 68 b4 85 3d
       -0.04604441 0.14330974 0.03537555 0.065285504
000280 cf 09 5d be f0 b2 8d 3e 50 8a a7 be f5 ad af be
       -0.21585773 0.2767558 -0.32722712 -0.34312406
000290 cc 38 3f 3e 20 79 9b bb 9d 7f 93 be 50 f9 30 3e
       0.1867401 -0.004744664 -0.288083 0.17282605
0002a0 00 97 f2 bd e1 ba c6 3d ed 69 36 3d e5 64 61 3e
       -0.11845207 0.09703613 0.044534612 0.22011144
0002b0 da bf 63 bd da 98 63 be 91 c7 0d be b6 8e d1 bd
       -0.055602886 -0.22226277 -0.1384566 -0.10232298
0002c0 3e b5 08 bd 56 a6 04 be 96 4d 60 bd f8 cb e0 3b
       -0.03337597 -0.12954077 -0.05476149 0.0068602525
0002d0 0b dd cc 3d 44 06 83 3e d6 10 83 3c ef d2 bd be
       0.10003098 0.25590718 0.015999239 -0.37074992
0002e0 25 80 6d bc 84 f7 02 3e e8 e9 40 3e 82 ea 63 bd
       -0.014495884 0.12789732 0.18839228 -0.055643566
0002f0 cb 35 91 bc 2c 8a 76 bd 79 95 43 be 9b cc cd be
       -0.017725846 -0.060190365 -0.19099988 -0.40195164
000300 3b 85 50 3e 35 50 2d bd 48 b1 63 bd 67 6a 8b bd
       0.20363323 -0.04231282 -0.05558899 -0.06807404
000310 55 28 48 3e fc ae 29 3e 59 09 84 bc 91 49 85 bd
       0.19546635 0.16570657 -0.016117739 -0.06508172
000320 18 4b 2d bd c6 b2 7c be ba 83 05 3c 94 15 02 3e
       -0.042307943 -0.24677572 0.008149082 0.12703544
000330 3e 02 b0 3b c8 26 e4 3d 71 a1 b0 3d fc f7 da 3d
       0.005371361 0.111402094 0.086245425 0.106918305
000340 ec 0a ec 3c e0 17 a3 3e 04 d4 ed 3d 9b 8e 95 3d
       0.028813802 0.31854153 0.116127044 0.073025905
000350 9d 9d f9 be c3 d2 a8 3d e5 64 9a be 19 44 f5 bd
       -0.48753062 0.082433246 -0.301551 -0.11975879
000360 4f eb c0 3d 0e 43 ec be 75 28 0d bd 6e df 0e 3d
       0.094198816 -0.4614491 -0.03446241 0.034881048
000370 62 94 60 bd b4 ab 88 be 21 f9 36 3d ba c2 f3 bd
       -0.05482901 -0.266935 0.04467118 -0.119023755
000380 04 65 8f bd 80 c9 ff 3b 73 63 f6 3d f0 63 1c be
       -0.07001689 0.007806003 0.12030687 -0.15272498
000390 e3 8d 85 be 87 ab bd 3d 1a 9b 18 3d 6e f0 d0 3d
       -0.26084813 0.09261232 0.03725729 0.10202108
0003a0 0e e8 a2 3d 86 0c 4d 3e 91 09 3a be a5 76 d5 be
       0.07954417 0.20024309 -0.18167712 -0.4169208
0003b0 65 78 36 be fc d6 2a 3e 32 b0 50 be 7f 4c a8 3e
       -0.17819364 0.16683573 -0.20379713 0.32870862
0003c0 19 e1 64 3e ef 89 6a 3e 18 96 39 3e 2c 94 b8 bc
       0.22351493 0.2290418 0.18123662 -0.022531591
0003d0 cd d8 25 be 6a 7a 0e be 06 6e b3 3e c0 49 71 be
       -0.16195984 -0.13913885 0.3504488 -0.2356329
0003e0 8b 0f 3f 3e 5b 65 82 3e b1 d0 b1 3d b3 d8 9f be
       0.18658273 0.25467953 0.08682383 -0.31220016
0003f0 e4 2b 81 3d 64 9d 38 bd 26 d4 f0 3c 79 9f 28 be
       0.063071996 -0.045071974 0.029398035 -0.16467084

encoder.linear2.bias f4 [40]
000000 9e 2b 21 be 4b a6 22 3e f4 96 40 3d 19 46 4c bf
       -0.15739295 0.15883748 0.04701896 -0.7979446
000010 e0 23 16 bf c5 61 0b bf d8 07 f9 be 70 03 bb be
       -0.5864849 -0.5444606 -0.48638797 -0.3652606
000020 6e 70 0c 3d 37 77 51 3d 87 4c 39 bf 2b 7d 36 bf
       0.03428691 0.051139083 -0.72382396 -0.7128474
000030 a6 ba f9 bd 07 ec c9 3e fa f9 c8 be 4d 4a 55 3f
       -0.121938035 0.39437887 -0.39253217 0.833165
000040 53 b5 d9 bc d2 5d 2a 3e 4e 5e df bd ab f1 b1 3e
       -0.02657572 0.16637352 -0.10906659 0.3475469
000050 8b cb 18 3f db ee 18 3e 1d f2 24 3f a2 07 3f bf
       0.5968558 0.14934866 0.64431936 -0.7462102
000060 3f 09 cc 3e 2b 06 2f be fa b5 4e bf b3 5a 23 bf
       0.39850804 -0.17092197 -0.80746424 -0.6381027
000070 be e5 27 be 3a 23 b3 3e 74 30 1a bf 02 d0 e2 be
       -0.16396233 0.34987813 -0.60230184 -0.44299322
000080 ed 5d 34 bf 64 b7 00 3e 76 53 18 3d 45 4d 57 3e
       -0.7045582 0.12569958 0.03718897 0.2102557
000090 ca 78 d5 3d f7 e3 0e 3e 5d 6b 4d bf a9 92 a7 be
       0.10423429 0.13954149 -0.8024195 -0.3272908

encoder.linear3.weight f4 [80, 40]
000000 8c 63 f1 3c 34 cf 47 3e f8 39 16 be 84 67 41 be
       0.029466413 0.19512635 -0.14670551 -0.18887144
000010 67 f2 c6 3d ec fd d0 3d 3e 52 65 3c fe e4 96 bd
       0.09714203 0.10204682 0.013996659 -0.073678955
000020 1e 50 5c be 18 df 93 bd e0 13 fc 3b 0a e0 0c be
       -0.21514937 -0.07220286 0.007692799 -0.13757339
000030 8c 95 99 3d 36 5f f1 bd 74 5a 2a 3d 50 42 99 bc
       0.07499227 -0.11785738 0.04159017 -0.018708378
000040 88 52 e9 3d 35 b7 0a be 89 d4 b8 bd f1 18 bc bd
       0.11392695 -0.1354645 -0.09024913 -0.09184445
000050 04 bb 0f 3d 52 ae c7 3c 63 19 0f bd a3 a8 1c bd
       0.03509046 0.024375115 -0.03493632 -0.038246762
000060 59 3b b6 bd e9 cc c7 bd 06 53 8f bd 40 61 e6 3d
       -0.088980384 -0.097558804 -0.06998257 0.11249018
000070 a0 ee 0f 3d d6 05 fa bd 46 65 04 bd f3 c8 1c be
       0.03513968 -0.12208144 -0.032323144 -0.15311031
000080 c1 32 35 3d c0 f1 12 3d 9e 8b 95 bb 87 b7 f6 bd
       0.044237856 0.035875082 -0.004563763 -0.12046724
000090 fa 91 bf 3d 03 98 b3 bd 40 b1 5d bd 40 b5 ae bd
       0.09354015 -0.08769228 -0.054124117 -0.085306644
0000a0 fc a0 dc 3d f8 32 1c bc 0d dd 89 3c 75 b6 9a bd
       0.10772893 -0.009533636 0.016829038 -0.07554332
0000b0 e1 2f c9 bd df c5 90 be 4e c0 36 be de 0a eb bc
       -0.09823585 -0.28275964 -0.17846796 -0.028691705
0000c0 54 1f 16 be 43 f9 5e 3c 81 2d 0d be 1f d2 b7 3c
       -0.14660388 0.013609233 -0.1378689 0.02243906
0000d0 aa a8 72 be 80 57 31 3d fb 56 0e 3c 76 b0 45 3d
       -0.23697153 0.043296337 0.00868773 0.04826399
0000e0 40 3b ee bd 4c e6 a2 3d 14 f7 39 3d ef e1 a4 be
       -0.11632395 0.07954082 0.045401648 -0.32203624
0000f0 60 67 03 bd 10 de f3 3d be c7 4d 3c 92 11 3e 3d
       -0.032081008 0.119075894 0.012559829 0.046403475
000100 89 12 c8 bd 43 b5 64 be 05 fc 2b bd 07 d2 7d be
       -0.0976916 -0.22334771 -0.04198839 -0.2478715
000110 e5 83 16 be 8b 79 03 be 53 7a 1c bd d4 f6 a6 bd
       -0.14698751 -0.12839334 -0.038202595 -0.081525475
000120 7c db bd bd 61 c4 85 be c2 44 99 bd f7 f6 4b be
       -0.09270379 -0.26126388 -0.07483818 -0.19918428
000130 8e 06 9c 3d b9 71 63 bc 39 70 87 be 78 2d 72 be
       0.07618438 -0.013882094 -0.26452807 -0.23650157
000140 ca b6 c3 bd 2d 6b c2 bc 50 4f fd 3d cf d4 9d be
       -0.095563486 -0.023732746 0.12368643 -0.30826423
000150 d3 d1 1d be b5 ff 89 bd 39 de d1 bd e2 45 47 be
       -0.15412073 -0.06738225 -0.10247464 -0.19460252
000160 a7 f8 d3 bd 25 0f 20 3e 4e d6 51 be 98 12 09 bd
       -0.10350161 0.15630777 -0.20491907 -0.033464998
000170 bc d5 82 be 32 25 2d be 18 f5 00 be e4 ce 1f 3d
       -0.2555369 -0.1690872 -0.12593496 0.039015666
000180 48 ec f4 3c 5a 0b 8b bd 50 a3 0b 3e bc 19 34 3d
       0.029897824 -0.067892745 0.13636518 0.043969855
000190 74 10 0d 3e e7 28 09 be 2c 49 f9 bc f1 bf 54 bc
       0.13775808 -0.1339451 -0.030430399 -0.0129852155
0001a0 9f 1a 6a bc 2d 04 4e bd 6e da b7 bc 1e 8c a9 be
       -0.0142885735 -0.05029695 -0.022443023 -0.33114713
0001b0 20 48 77 3c 5e c4 ce bb 01 eb 52 bd b2 f4 b7 3d
       0.0150928795 -0.00631003 -0.05149365 0.08982219
0001c0 13 cc 48 be 08 28 2b be 34 3d f0 bd 0b 09 77 be
       -0.19609098 -0.1671449 -0.117304236 -0.24124543
0001d0 34 17 03 be 11 ee 8d 3d cb 67 c2 bd 00 70 c6 bd
       -0.1280182 0.06930173 -0.09492453 -0.09689331
0001e0 e6 8c 11 bd 50 5b 9c 3d 08 72 16 bd ee b1 01 be
       -0.03553476 0.07634604 -0.036729842 -0.12665531
0001f0 c0 24 13 3d 3c 59 2f be 01 e4 4d 3d 2d 97 ca bd
       0.03592372 -0.17123884 0.05026627 -0.09892116
000200 97 d5 8a 3d ba 08 1c be be bb eb 3d 26 56 0b 3d
       0.0677902 -0.15237704 0.11510418 0.034017704
000210 00 ad 91 ba b5 5f 53 be 51 c9 0c 3e ec 2d 2a be
       -0.001111418 -0.20641978 0.13748671 -0.1661908
000220 5f d7 11 be f6 24 13 be 44 a3 00 bd 84 e5 9c bd
       -0.14242314 -0.14369568 -0.031405702 -0.07660964
000230 87 36 a0 bd 4e 2f c5 bd 7d 83 04 bc b4 b1 ab bd
       -0.078229 -0.09628163 -0.00808799 -0.083835036
000240 de 62 26 3d 3e 44 84 bd 09 07 0e be 8e de 05 3e
       0.04062163 -0.06458329 -0.13869871 0.13073179
000250 c1 96 54 3d a9 71 8c 3d 31 2d e2 3c f6 dd 79 bd
       0.051901583 0.068576165 0.02760944 -0.061002694
000260 b2 bb c3 bd b9 d2 df 3d fb 7b c6 bd 85 98 8b bd
       -0.095572844 0.10928864 -0.09691616 -0.068162
000270 4e f6 d5 bd bf 22 99 bd bb 90 00 be 02 41 bd bd
       -0.104473695 -0.074773304 -0.1255521 -0.09240915
000280 73 d1 a0 bb 9a 32 77 be 90 10 07 bd 27 2c 3d 3d
       -0.004907781 -0.24140397 -0.03297478 0.046184685
000290 16 b7 99 be 12 f7 63 bd 87 9f 2c be 5b ae d8 be
       -0.30022496 -0.055655546 -0.1685773 -0.42320523
0002a0 ec 7f 25 3e 80 50 1b 3e 15 9f 35 3d f7 51 f1 bd
       0.1616208 0.15167427 0.044341166 -0.11783212
0002b0 26 fa be bd 3c f0 8b bd 3b 93 14 3d a6 9d bb 3d
       -0.09325056 -0.068329304 0.036273222 0.091609284
0002c0 c8 66 57 3e 3f b0 4a bd 35 8d 05 3e bf 50 d6 bd
       0.21035302 -0.049484488 0.13042147 -0.1046462
0002d0 12 98 ff bc df 27 b9 bc 74 54 1f be fc e0 2d 3d
       -0.031200442 -0.02260202 -0.1555956 0.04245089
0002e0 b2 cb 13 be 47 ee 32 3e 59 6c 17 bf 69 37 2c bc
       -0.14433172 0.17473708 -0.591497 -0.010511258
0002f0 ee 17 63 be 34 8b 2c be 49 f7 a6 3d e4 c0 03 bf
       -0.22177097 -0.16849977 0.08152635 -0.514662
000300 60 f0 0a be 3d 2c 3b 3d 90 e8 a7 bc 28 9e ae bc
       -0.13568258 0.045696486 -0.020496637 -0.02131565
000310 e0 db 64 3d be 3c 89 3d 90 07 aa 3d f0 74 3e 3e
       0.05587375 0.06701039 0.08302224 0.18599296
000320 50 fc 65 3d 80 89 24 bb ac 7f f4 3b 83 10 c9 3c
       0.056148827 -0.002510637 0.0074615087 0.024544006
000330 a6 2f 15 be cb 73 14 be 04 c6 22 3c 2f 3f 47 bd
       -0.14568958 -0.14497297 0.009934906 -0.04864424
000340 18 2d 8d bd 1e 0f 4b 3d 94 69 7e bd e9 37 03 3d
       -0.068933666 0.049574964 -0.062112406 0.032035742
000350 2a 88 18 be 5c 24 95 bd e0 5c 1e bd e2 4b d0 bd
       -0.14895692 -0.072823256 -0.03866279 -0.101707235
000360 f7 a3 ca 3c 00 b9 fc 3a 3c 72 ee bd 70 53 25 be
       0.024736388 0.0019281209 -0.11642882 -0.1614511
000370 0b e5 1d 3e e3 f7 42 bc 94 e2 51 bd a5 eb c0 bd
       0.15419404 -0.011899921 -0.051241472 -0.094199456
000380 bc 67 0a 3e d9 9e 24 bc 6a 83 6b bc 72 b8 9f bd
       0.13516134 -0.010047638 -0.014374593 -0.07798852
000390 8a 52 91 3d d1 cc 1b bd 24 3e 27 3d 6c 5c 8a bc
       0.07095821 -0.038037125 0.040830746 -0.016889773
0003a0 28 d1 fa bd 09 bf b6 bd 4a 18 3a bd 94 be 5e 3b
       -0.12246925 -0.08923156 -0.04543332 0.0033988105
0003b0 82 c3 e1 3d 94 f3 aa 3d 32 34 eb bd 21 0d 84 bd
       0.11023618 0.0834724 -0.11484565 -0.06447817
0003c0 10 91 5f 3d 4c e2 80 bd 24 ab ab be fc f4 f5 bd
       0.0545817 -0.06293163 -0.33529007 -0.12009618
0003d0 24 26 98 bd 55 e7 82 be 88 98 0f 3e 27 40 c3 be
       -0.0742915 -0.25567117 0.1402303 -0.38134882
0003e0 8a 87 db 3d 63 67 36 be dc 0c fa 3d 54 9a 3d 3e
       0.107192114 -0.17812876 0.12209484 0.18515903
0003f0 46 88 f9 bd 52 1a bf 3c 17 3e 61 3d e3 63 33 3e
       -0.12184195 0.02332798 0.054990854 0.17518573

encoder.linear3.bias f4 [80]
000000 be a9 16 bf 70 5f 0b 3e 96 02 bf bc c5 fa 05 3e
       -0.58852756 0.13610625 -0.023316663 0.13083942
000010 71 2f 02 be 08 c0 34 be ec ed 28 bf 78 6c 21 bf
       -0.1271341 -0.17651379 -0.6598804 -0.63056135
000020 c7 51 c5 be f4 11 c6 be 2d 82 14 3f 90 ac 41 bf
       -0.38538954 -0.38685572 0.5801113 -0.75653934
000030 46 b0 35 3e 96 45 b1 be 48 e9 23 be d2 a4 f3 3e
       0.17743024 -0.34623402 -0.16006958 0.47586685
000040 18 47 55 bf 4f d5 83 bc e4 bc 76 bf 04 29 c5 be
       -0.83311605 -0.016092924 -0.96381974 -0.38507855
000050 c6 80 55 3d 74 4b 76 bd 3d 9b 8e 3e 70 a6 cb be
       0.05212476 -0.06013055 0.27852812 -0.3977542
000060 14 60 8b bf c2 b7 d7 bd a3 99 a2 3e 8b 35 33 bd
       -1.0888696 -0.10533096 0.3175784 -0.043752234
000070 28 42 6f bf 20 b1 3a 3f 50 84 b2 3d c9 d1 ba 3e
       -0.9346032 0.7292652 0.08716643 0.36488178
000080 00 a3 12 be c6 0e ec bd eb e1 3a 3e 0e 6b ad 3e
       -0.14319992 -0.11526255 0.18250243 0.3387074
000090 b8 98 0e 3f d2 ab 2b bf 7e 49 ba 3e 91 74 1c be
       0.5570178 -0.6705905 0.36384195 -0.15278842
0000a0 3f ac 10 3e f3 2b 5e bf 1a 4f 20 be 4b 4e f7 3e
       0.14128207 -0.8678581 -0.15655175 0.4830192
0000b0 1b 89 fb be 2e d8 2f bf 99 6c 1a 3d 8d 45 24 3f
       -0.4912804 -0.6868924 0.037701223 0.64168626
0000c0 41 aa 61 bd 87 08 03 3e 8e ed f6 bd be a9 d1 be
       -0.055094007 0.12796222 -0.12057029 -0.40949816
0000d0 93 4c b1 bd c9 0e 23 bf 33 7d 23 bf 2a 82 8b 3d
       -0.086571835 -0.63694435 -0.63862914 0.06811936
0000e0 71 0e cc be 2d 5a 32 3e 92 7f 94 bf b5 53 b6 be
       -0.39854768 0.17417212 -1.1601431 -0.35610738
0000f0 be 8a 32 3e 14 be 17 3f c2 72 99 3e df ea c5 be
       0.17435738 0.5927441 0.29970366 -0.38655755
000100 fe 66 9c be f6 7a 33 bf 24 89 2a be 30 dd e0 bd
       -0.30547327 -0.701095 -0.16653877 -0.10979688
000110 4a 46 f0 bd 8b 10 1c be 16 ec a6 3d 3d ce 66 be
       -0.117321566 -0.15240686 0.081504986 -0.22539611
000120 26 c2 98 3e 14 ea 05 be 9d bf f7 3d 84 80 d9 bc
       0.29835624 -0.13077575 0.12097094 -0.026550539
000130 47 26 0a be 7b 4b d6 be cc 70 20 3f 48 59 93 be
       -0.13491164 -0.41854462 0.62672114 -0.28779054

encoder.linear4.weight f4 [40, 80]
000000 73 d0 5f bd 0a 61 18 bd da 6f 96 3c d3 98 03 bd
       -0.054642152 -0.03720192 0.018363882 -0.032128166
000010 c8 b4 76 3d e7 61 20 bd e5 2f ad bd a5 fb 93 bd
       0.060231 -0.039155867 -0.08456401 -0.07225732
000020 db a3 df bd 53 de 39 be d5 d3 13 be 90 70 b1 bd
       -0.10919925 -0.18151216 -0.14436276 -0.08664048
000030 6d 57 22 be be 78 b2 bc d2 fe a8 3c dc 2d 80 bd
       -0.15853663 -0.02178609 0.02062932 -0.06258747
000040 25 7c ab bd 6e 60 ef bd 9a e8 e0 bd c0 6f 3d bb
       -0.08373288 -0.116883144 -0.10981865 -0.002890572
000050 53 1c f8 bd 5a 5b 2d 3e f2 c3 2b 3d ce b9 ea bd
       -0.121147774 0.16929379 0.041934915 -0.11461221
000060 5d 8a 8e bd b0 37 94 bd e6 9d ff bd c7 43 21 3d
       -0.069599845 -0.07237184 -0.124812886 0.039371278
000070 50 14 73 bd 20 36 4a bd 04 2a b9 3d a3 14 fb bb
       -0.059345543 -0.049368024 0.09041217 -0.007662372
000080 4e ad 80 3d 8f ff 84 3d b1 9c b0 3d ea 08 e4 bd
       0.06283055 0.064940564 0.086236365 -0.11134513
000090 13 44 a2 bd 8f 8d 04 3d 70 d6 3e 3b 81 40 cd bd
       -0.079231404 0.032361563 0.0029119514 -0.10022069
0000a0 d9 70 ba 3d 4d a8 bc 3c 30 3e 47 3d 44 86 3b 3d
       0.09103555 0.02302947 0.04864329 0.045782343
0000b0 f1 f9 bd bd ac f2 e1 bc 05 61 13 3d 20 5f 3d 3c
       -0.09276188 -0.027581535 0.035981197 0.011558324
0000c0 fb 39 47 3c 9a 09 59 3e 06 f5 ad 3d 78 dc 86 bc
       0.01215982 0.21195069 0.08494 -0.01646255
0000d0 82 69 3e bd b4 4f da 3d 8f 4a 56 3d 54 89 a1 bd
       -0.04648734 0.106597334 0.0523172 -0.078875214
0000e0 c0 b4 f2 3c b0 44 17 3b 21 ed 6f 3d ee 91 89 bd
       0.029627204 0.0023081712 0.058575753 -0.06717287
0000f0 ab 8d 0d 3d a0 d6 87 bc af e8 0b 3c 24 c7 9e bd
       0.034558933 -0.016581833 0.008539363 -0.07752827
000100 e4 2c c6 bd 61 43 0e be 24 b6 b8 bd 7e b5 79 be
       -0.09676531 -0.1389289 -0.090191156 -0.2438564
000110 56 9a 3b 3d cf e0 0d be 80 7a db bd 74 88 a6 bc
       0.045801483 -0.13855289 -0.107167244 -0.020328738
000120 3e 23 58 bb 59 0a 0e be 00 22 84 bd 43 4a 32 be
       -0.003297999 -0.13871135 -0.064517975 -0.17411141
000130 f3 cf 54 bd c0 66 3a bd 28 a3 f8 bd ba 5d 2f 3d
       -0.05195613 -0.045508146 -0.121404946 0.042813994
000140 3c c6 ca bd ac 0f 5c 3d 09 60 2f 3e 02 14 ba 3d
       -0.099010915 0.053725883 0.17126478 0.090858474
000150 40 97 fd bc 4d 77 6f bc cb e7 bd 3c ec 81 5f 3d
       -0.03095591 -0.014615846 0.023181817 0.054567263
000160 d0 ab dd 3d 0e e2 d3 bd 00 bd e6 bd 57 e9 d2 bd
       0.10823786 -0.10345851 -0.11266518 -0.10298412
000170 e9 78 05 3d 7c 57 e1 3b 34 d6 00 bc f8 20 24 3b
       0.032586012 0.006876884 -0.00786357 0.0025044065
000180 06 ea ac bd 86 fe 08 be e5 59 a2 bd 8e 33 30 be
       -0.08443074 -0.13378343 -0.07927302 -0.17207167
000190 49 68 fa bd 52 cc 21 3d 17 ad 56 be b3 36 d4 bd
       -0.12226922 0.039501496 -0.20964466 -0.103619955
0001a0 c3 80 c2 ba 7c 40 ea 3d e8 fe 0a be d0 80 e0 3d
       -0.0014839399 0.11438081 -0.13573802 0.10962069
0001b0 89 9f 81 bd b5 14 10 be 78 56 d6 3d 6c 45 79 bd
       -0.06329257 -0.14070399 0.10465711 -0.06085722
0001c0 ae df 7f 3d ac dd d2 bd fb 74 d2 3d 18 be c9 3c
       0.062469177 -0.10296187 0.102762185 0.024626777
0001d0 fd e1 1a bd 45 2e 4e 3d 74 d2 07 3c eb c2 e4 bd
       -0.037813175 0.050337095 0.008289922 -0.1116999
0001e0 93 9b 74 bd 1d b7 91 3d db d1 2a 3c ee 80 57 3d
       -0.05971868 0.07115004 0.01042601 0.05261319
0001f0 68 33 88 bd 37 22 b5 bd d6 17 ae bd b7 c7 48 be
       -0.0665043 -0.088444166 -0.0850064 -0.19607435
000200 25 1b c6 bd 84 da 9f 3d aa 4e 4c 3d 55 70 d7 3d
       -0.09673146 0.078053504 0.049879707 0.105194725
000210 93 b5 31 be 14 f1 40 bd 8c 2a e9 bc a7 b6 91 3c
       -0.17354421 -0.04710491 -0.02846267 0.01778729
000220 a9 3c 8f bd e8 92 20 3c a7 f7 74 be 55 52 71 3d
       -0.06993992 0.00980065 -0.23922597 0.05891641
000230 e8 d1 1b 3a e2 f1 45 be 91 ce fe 3b d5 0e 37 bd
       0.0005944059 -0.19330552 0.0077760895 -0.04469188
000240 40 9b d1 bd c7 4a 32 be ce b3 e0 3c 1f 6b 08 be
       -0.1023469 -0.17411338 0.027429488 -0.13322113
000250 28 77 30 3d 2a 07 96 bc b5 47 80 3d 2b e2 9c 3d
       0.043082386 -0.018313963 0.06263677 0.076603256
000260 d6 61 66 3d 4a 86 27 bd 00 64 ae 3d 04 4b 92 3c
       0.056245647 -0.040899552 0.08515167 0.017858036
000270 9c 7e 95 bd f6 25 fb bd 05 c8 1c 3d f1 c1 8d bc
       -0.072995394 -0.122631 0.03827669 -0.017304393
000280 59 4e 26 bd 78 e1 e7 bb 29 93 cd bb ec c9 89 3d
       -0.040602062 -0.0070764385 -0.0062736464 0.06727967
000290 82 73 02 bf 94 9c c4 3c 71 a6 ab bd 3d d6 89 3d
       -0.509575 0.024000444 -0.083813556 0.06730316
0002a0 fe d0 7d 3c c9 2f 14 3e 6a 8d 40 be ac 9d 1d be
       0.015491722 0.14471354 -0.18803945 -0.15392178
0002b0 dd 10 eb bd f3 3d 28 be 41 da 64 bc 17 36 3d be
       -0.11477826 -0.16429882 -0.013968051 -0.18477665
0002c0 ec ae d5 3c 09 48 28 3c 65 d9 37 3d 41 6d d5 bd
       0.026084386 0.010271081 0.044885058 -0.10421229
0002d0 e8 d1 fc 3d 1b 2c eb 3c 91 7e 0f bd 70 14 bf 3d
       0.12344724 0.028707555 -0.035032813 0.0933007
0002e0 6f 30 ed 3d af 18 88 bd c8 d2 43 bd 38 c5 02 be
       0.115815036 -0.06645333 -0.04780844 -0.12770545
0002f0 76 0c d9 bb 83 f6 89 bc 30 44 06 bd b2 88 e0 be
       -0.0066238 -0.016841179 -0.032779872 -0.4385429
000300 ef 53 05 3e 20 a2 ed bd 3b ac d7 3d 11 e8 5d bd
       0.130203 -0.116031885 0.10530897 -0.054176394
000310 98 c5 92 bd 1e c0 8b 3b ce e0 71 bc 6a 0a f6 bd
       -0.07166594 0.0042648455 -0.01476307 -0.12013705
000320 90 6a c5 bd ad 32 cc 3d 6d 1b f0 3d e0 a4 e9 be
       -0.09639466 0.09970603 0.11723981 -0.45633602
000330 21 f4 e6 3c 43 10 df 3d 5c 07 e2 3d 82 53 d1 3d
       0.028192582 0.108917736 0.1103656 0.10221006
000340 3a 3c ab 3d 6a 65 88 bd 97 fc 53 bd 52 65 c8 bd
       0.08361097 -0.06659968 -0.05175456 -0.0978495
000350 91 86 8c 3d 1b e6 72 bd ad bb 39 3c c0 e0 25 be
       0.06861604 -0.059301477 0.011336249 -0.16199017
000360 5c 93 2d 3e 01 17 45 bd 45 1f 3b 3d 99 e0 1a 3d
       0.16950744 -0.04811764 0.045684118 0.03781185
000370 f8 eb 8d 3c 0c 17 4d bd c0 18 43 3a 6a b3 fb bd
       0.017324433 -0.050070807 0.00074423477 -0.1229008
000380 1d 0f e6 bd 88 b3 b6 3d 67 aa 8f bd ed d8 f1 3c
       -0.112333514 0.089209616 -0.070149235 0.029522384
000390 40 0c c5 bc 6a 11 6b be e3 81 1b 3c 66 11 7f 3c
       -0.024053693 -0.22955862 0.009491417 0.015568113
0003a0 40 2d bf be b0 d1 c1 bc fe 50 2f bd 56 e7 aa 3d
       -0.3733921 -0.023659557 -0.04280185 0.08344905
0003b0 aa ce 68 bd 8c 6a 02 be c2 6c f9 be 45 87 c3 bb
       -0.056837715 -0.12735957 -0.48715788 -0.005967053
0003c0 c8 73 52 bd 3a 3a 00 bd b2 b6 b8 bd 94 e4 0c 3d
       -0.05137995 -0.03130553 -0.09019221 0.034397677
0003d0 4e c5 28 3c 91 61 10 3d 48 63 b6 ba 3b 3f 8b 3c
       0.010300947 0.035249297 -0.0013915086 0.016997924
0003e0 b8 c3 15 bd fa c8 9a 3b 29 72 35 3d d4 a4 33 be
       -0.036563605 0.0047236653 0.044298325 -0.17543346
0003f0 5f 19 1e 3e 6e 42 82 bd 90 3f ba bc d0 e7 5d bd
       0.15439366 -0.06360327 -0.022735387 -0.05417615

encoder.linear4.bias f4 [40]
000000 e4 56 9f be 7d 14 52 be c8 a4 a5 be 20 b9 00 be
       -0.3112098 -0.20515628 -0.3235228 -0.1257062
000010 a9 f8 7c be fd 06 c9 bd ec 75 30 bf 2f 9f a8 bd
       -0.24704231 -0.09815786 -0.68929935 -0.08233487
000020 b2 cb e1 3e a3 68 1c bd fb 81 4a bd 08 11 3a 3d
       0.4410072 -0.038185727 -0.049440365 0.0454264
000030 f2 c5 3b bf e4 77 00 3d 85 3a e8 3d 22 d6 4b 3f
       -0.73348916 0.031364337 0.11339287 0.79623616
000040 91 29 03 be fb a3 11 be 2c 7d c6 3e 36 08 ff 3e
       -0.12808825 -0.1422271 0.38767374 0.49810952
000050 02 cd 76 bd e8 52 92 3d 80 67 e6 bd 97 67 fe 3e
       -0.060254104 0.07144719 -0.1125021 0.49688408
000060 45 12 01 be 51 54 ed 3e af e1 49 bf 7d 32 14 be
       -0.12604626 0.4635339 -0.7885999 -0.14472385
000070 98 f8 6c bc 47 bd 84 bd 86 56 3d 3f 41 0a f8 be
       -0.014463566 -0.06481414 0.7396015 -0.48445323
000080 61 88 9b be 90 07 68 be 1b 82 8b bd a8 14 84 3d
       -0.30377486 -0.22659135 -0.06811925 0.06449252
000090 84 a8 1d 3e be 68 06 be 2b 6d c6 3e bc f1 03 be
       0.15396315 -0.13125893 0.38755164 -0.12885183

encoder.linear5.weight f4 [20, 40]
000000 8d 16 55 bd ae c5 bd bd 3c 6c 81 3e 50 0d 13 bd
       -0.05202346 -0.0926622 0.2527789 -0.035901368
000010 84 57 e9 3d 97 3e 02 3e 23 f5 10 3e 63 32 f4 bd
       0.113936454 0.12719189 0.14156012 -0.11923673
000020 35 53 5f be bb b6 c6 bd f4 3f 07 be ae f5 d9 be
       -0.21809085 -0.09702822 -0.1320799 -0.4257025
000030 c5 93 68 bb 01 79 62 3e a6 82 bb be 10 87 09 be
       -0.0035488468 0.22116472 -0.36623114 -0.13430429
000040 64 24 86 bd 4f f6 16 3e 15 a6 78 be e8 6d 04 bf
       -0.0654991 0.14742397 -0.24282105 -0.51730204
000050 58 e2 af bd dc 6a ad 3d e0 1b 39 bd 1b 77 17 be
       -0.085880935 0.084676474 -0.0451926 -0.14791529
000060 59 5d 86 be c2 a9 fd bc 49 4f 13 3e cc b2 78 bd
       -0.26243094 -0.030964736 0.14385714 -0.06071739
000070 fa d7 f3 bd bb b0 07 be a7 c3 0b 3e 8a 7f 15 3d
       -0.11906429 -0.13251011 0.13648854 0.036498584
000080 6a 89 93 3e b0 bf 09 3e 2c 20 e7 3d 12 14 9a 3e
       0.28815776 0.13452029 0.11285433 0.30093437
000090 56 e6 89 3e 9b 0e 91 bd cb 7b 23 be 8a 43 fc bd
       0.26933545 -0.07082864 -0.15965192 -0.123175696
0000a0 cf e9 8c bd 6e d8 50 be c4 00 4a 3e 41 cb e5 3d
       -0.06880533 -0.20395061 0.19726855 0.11220408
0000b0 7d 6e c8 3d 9c c1 85 bd 4f 83 a4 3d ed 80 e9 bd
       0.09786699 -0.06531069 0.080328576 -0.11401544
0000c0 be 92 03 bd 98 86 db bc e0 8b 53 3c 57 11 ee 3d
       -0.032122366 -0.026797578 0.012911767 0.11624401
0000d0 18 fc 27 3e 1b 48 8d 3c 3a 50 4c bd 68 d4 d3 bd
       0.1640476 0.017246297 -0.049881198 -0.10343248
0000e0 c7 25 3d bd a1 99 d5 bd 23 61 27 be 7e 9b a4 bd
       -0.046178605 -0.10429693 -0.16345648 -0.0803747
0000f0 23 7a 1f bd 98 5c 90 3e 3a 3c 47 3d e4 ad 0f bc
       -0.038934838 0.28195643 0.04864142 -0.008769486
000100 cd 1d 69 3e 00 34 4d 3d c9 e9 b7 bd 36 a7 53 3c
       0.22765274 0.05009842 -0.08980138 0.012918284
000110 1f e5 e7 3d 54 61 10 be 98 b6 8f 3e a6 f2 19 3e
       0.11322998 -0.14099628 0.28068995 0.1503397
000120 2d 70 e9 3e 41 70 d9 3d 53 ee 2c be 72 f8 b6 3c
       0.45593396 0.10617114 -0.16887788 0.022335265
000130 4d a9 a1 3e cc 9b f1 bd 20 f8 28 3e e3 b7 a5 3d
       0.3157448 -0.11797294 0.16500902 0.08091714
000140 1f 3c 14 3d 75 70 58 bd 4c e0 d9 bc ad bb 02 3e
       0.03619015 -0.052841622 -0.02659621 0.12766905
000150 d3 11 52 3d 56 7f 70 3d 01 9a 72 3d 1c 81 6d 3d
       0.05128653 0.058715187 0.0592289 0.057984456
000160 8b 9b 36 bd 67 cd 08 bd 22 5a 00 be 41 3d 92 3c
       -0.04458193 -0.033399012 -0.12534383 0.017851474
000170 26 10 0e 3b 62 bb 89 3d 9a 91 bd 3c 02 e7 9e be
       0.0021677106 0.067251936 0.023140717 -0.3103562
000180 1b 4b 97 3d e7 a9 1d 3e 95 04 e6 bd 73 d7 1d be
       0.07387372 0.15396844 -0.11231343 -0.15414219
000190 13 82 28 3d 23 89 c4 3d 89 4d 79 be 1f 55 d5 be
       0.041139673 0.09596469 -0.24345984 -0.41666505
0001a0 d6 1c b0 bc e4 dc 67 be b6 bc 51 be 4c bc e6 bd
       -0.021498125 -0.22642857 -0.20482144 -0.112663835
0001b0 06 fd 20 3d 06 c7 c5 3d f0 52 f5 bd ce d9 17 be
       0.039303802 0.09657101 -0.1197871 -0.1482918
0001c0 70 e4 46 3d ca 4c cc bc ad 47 a9 3d 1e c6 fe 3d
       0.0485577 -0.02493896 0.08265624 0.124401316
0001d0 a2 0b 7d bd 0a 2e 0f be 86 53 ce bd 26 d0 c2 bc
       -0.061778672 -0.13982406 -0.100745246 -0.023780894
0001e0 ae bc cd bb e2 33 b5 3d a7 db 76 bd 00 c3 ad bd
       -0.006278596 0.088477865 -0.06026807 -0.08484459
0001f0 30 a5 25 be 36 1f c7 3d 25 41 f2 bd 75 2d ae bd
       -0.16176295 0.0972275 -0.118288316 -0.08504764
000200 b9 95 c1 bc 52 51 06 3c 12 5d 9d bd b4 1b 42 be
       -0.023630964 0.008198099 -0.076837674 -0.1895588
000210 70 47 af 3d 1d 71 d1 3d 2a aa a5 3c 6e c9 7d be
       0.085585475 0.10226653 0.020222742 -0.2478387
000220 da 01 9b bd 72 73 dd 3d 6d 80 ce bd b9 85 ba bc
       -0.075687125 0.10813035 -0.10083089 -0.022768842
000230 3d 60 1c be df 3a 3a be 3f e6 8c be 09 f4 d4 bb
       -0.15271087 -0.1818652 -0.27519414 -0.006498818
000240 44 61 b2 be 57 8b 25 be e3 7f 99 bd 66 b8 cb 3d
       -0.34839833 -0.16166435 -0.074950956 0.099472806
000250 5c c5 be 3b 84 92 e9 bd e5 25 43 3e d9 f5 f6 be
       0.005821867 -0.11404899 0.19057424 -0.48234442
000260 b5 19 ed bc e4 d2 79 3c d6 55 a6 be 77 84 60 3b
       -0.028942922 0.015248034 -0.32487363 0.0034258643
000270 43 e4 16 3d 2d 8d cc 3d d5 38 8f 3e 69 32 dc 3d
       0.03683878 0.09987865 0.27973047 0.107518025
000280 00 3e 9c 3a 20 e0 2a 3e 12 22 09 be 3b 24 88 3b
       0.0011920333 0.1668706 -0.13391903 0.0041547096
000290 a4 bd 6b 3d e8 5c 0a 3e a9 7f 04 be 11 ad a5 bd
       0.057553902 0.13512003 -0.12939323 -0.080896504
0002a0 ac e2 38 3e c0 9c 76 bd b6 e0 ca bd 4e 99 89 3e
       0.18055218 -0.060208082 -0.099061415 0.26874775
0002b0 eb 67 28 bc 2e c9 8d 3c a9 05 32 3e e4 13 de be
       -0.010278682 0.017307844 0.17384972 -0.4337455
0002c0 df 48 10 3e c4 88 a4 bb 1e 7a 0e bf a2 ce 03 3e
       0.14090298 -0.0050211865 -0.55655086 0.12871793
0002d0 fe f3 84 3d ab 3e b4 3d e7 71 a5 be f4 27 79 bd
       0.0649185 0.088010155 -0.32313463 -0.060829118
0002e0 ec 46 e3 3e bf c6 9a be 24 d6 f7 3d 29 91 87 3d
       0.44390047 -0.30229756 0.12101391 0.06619484
0002f0 14 cb 10 be e4 3c a4 3d 03 db 96 3e 9d f1 b2 3e
       -0.14139968 0.080194265 0.29463968 0.3494996
000300 fe ed 9e 3d f1 a3 d1 bd ba 20 55 3e 77 18 1c bd
       0.07760237 -0.102363475 0.20813265 -0.03810927
000310 df 85 6a be 7e 57 42 bd e9 5c 9f 3e 6e 89 7a bd
       -0.2290263 -0.04744672 0.31125572 -0.06116622
000320 bc 73 f3 bd 92 16 f6 3d 9c b6 27 3e cc 1c b7 bd
       -0.11887309 0.12016024 0.16378254 -0.089410394
000330 54 ae 2c bd 7b 8c b4 bc 58 8c c3 3c fc c2 8c bc
       -0.04215844 -0.022039643 0.023870632 -0.01718282
000340 5c 51 91 be ee 6b 97 3d 50 6a 77 bd af 2f f8 bd
       -0.28382385 0.07393633 -0.060404122 -0.1211847
000350 8a 10 87 bc 68 9f 83 3e 70 2b a4 bd 3f 43 0c 3e
       -0.016487379 0.25707555 -0.080160975 0.13697527
000360 ab db cf 3d 03 3b c4 bd 94 fd 94 3d 96 b0 37 3e
       0.1014932 -0.09581568 0.07274929 0.17938456
000370 38 be 99 3c d3 0b 56 3d 69 de f2 3c a5 b8 c9 3d
       0.018767461 0.05225737 0.029647069 0.09849671
000380 05 57 7c be dd 0f a2 3d dd 06 d7 bd 4d 02 25 3d
       -0.2464257 0.07913182 -0.10499356 0.040285397
000390 fc c0 0a be a6 ce c5 bd bc 3c 30 3e 80 bf db bd
       -0.1355018 -0.09658556 0.17210668 -0.10729885
0003a0 e7 55 19 3d e1 fa 75 bd b5 c6 48 be 00 cd b8 bd
       0.03743544 -0.06005371 -0.1960705 -0.09023476
0003b0 3a cc a5 3b 9d ee c8 bd e0 75 98 3d ff f1 0d 3d
       0.005059746 -0.09811137 0.07444358 0.034654614
0003c0 37 98 de 3d d4 ef 6f 3c e3 f3 b3 3d f6 6b 2c 3d
       0.108688764 0.014644582 0.08786752 0.042095147
0003d0 e6 1b 6a 3d ca 65 cd 3d f1 67 04 bc ec cd 8a bd
       0.057155512 0.1002918 -0.008081422 -0.06777558
0003e0 c4 13 d4 be b0 02 b4 bd 69 b0 b6 3c da 4e 97 be
       -0.4142133 -0.08789575 0.022300916 -0.29552346
0003f0 3e 8f ad bd 11 c9 65 3d ff ce 1b bf f2 3b ac 3e
       -0.08474587 0.056099955 -0.60862726 0.33639485

encoder.linear5.bias f4 [20]
000000 58 bc a5 be 16 73 44 be c8 01 fd 3c 31 33 07 3e
       -0.32370257 -0.19184527 0.030884638 0.13203122
000010 48 3a 18 3f ca 11 8a 3e cb c6 b9 3e 5d 26 14 bd
       0.5946393 0.26966697 0.3628448 -0.0361694
000020 84 44 83 bf a3 3a b8 3e d6 18 1d be 83 93 29 bf
       -1.0255284 0.35982236 -0.15341505 -0.6624071
000030 b2 c8 0e 3e c0 3b 14 bf 99 c4 fe bc 55 18 40 3f
       0.13943747 -0.5790367 -0.031099604 0.7503713
000040 00 43 96 3e 1f 5b 52 bf 78 28 84 be 1e 48 70 bd
       0.29347992 -0.8217029 -0.25812125 -0.058662526

encoder.linear6.weight f4 [5, 20]
000000 5b 7d 13 3e 69 2e d8 bc d0 11 65 b9 64 24 d5 3d
       0.14403288 -0.026389318 -0.00021845778 0.104073316
000010 68 a7 9f be 5e 96 a5 3e 34 88 9a 3e a3 81 0c 3e
       -0.31182408 0.32341284 0.3018204 0.13721327
000020 76 7d c0 3b dc 2d 3a be ee 41 c6 bc 76 a8 0f bd
       0.005874331 -0.18181556 -0.02420136 -0.035072766
000030 c7 3c 72 3e ca 4c 09 3e 80 83 24 3d 68 72 c9 3d
       0.23655997 0.13408199 0.04016447 0.098362744
000040 fa 97 de 3d f2 a3 f0 3d cf 7c 15 be a5 9e d3 3d
       0.10868831 0.1175002 -0.14598392 0.103329934
000050 70 4f 04 3e e6 c6 ee bd 95 5d 42 3d cc 90 79 bd
       0.12920928 -0.116590306 0.047452528 -0.060929105
000060 a9 70 17 bd 18 c6 d8 bd bd 01 49 be f8 0a 25 3e
       -0.036972675 -0.105846584 -0.1962957 0.16117465
000070 fa 62 29 be a3 34 d4 3d 3c 98 13 bd 92 27 8f be
       -0.16541663 0.10361602 -0.036033854 -0.27959877
000080 73 3d 3e be 5c 34 a1 3d 77 4f 4a 3e e9 9b f3 3d
       -0.18578129 0.07871315 0.19756876 0.11894972
000090 a5 ab 09 be 3b 36 dd bd 4d bb a3 bd 50 6b 7e 3c
       -0.13444383 -0.10801359 -0.07994709 0.015528515
0000a0 1b c8 dd 3d f8 70 11 be af e6 1d 3e de ba b3 3e
       0.10829183 -0.1420325 0.1542003 0.35103506
0000b0 2e 2f 35 be 76 c6 38 3e e2 70 a0 3e ed 84 03 be
       -0.17693779 0.18044457 0.31336123 -0.12843676
0000c0 30 05 9e 3e c5 7b e3 3d a3 40 d5 bd 79 4a 5e be
       0.30863333 0.111075915 -0.10412719 -0.21708097
0000d0 65 2e 1e 3c c1 bf b0 bd 19 77 c2 bb 3c d9 c5 3e
       0.009654616 -0.08630324 -0.0059346077 0.386423
0000e0 d9 4c 56 3e 08 a9 91 be 7d e2 6a 3d 06 89 d5 3b
       0.20927753 -0.28449273 0.057344902 0.0065165786
0000f0 c3 c0 cd 3e e7 b1 96 3e 6b b0 e3 3d 16 f7 50 3e
       0.40186128 0.29432604 0.111176334 0.20406756
000100 b2 b5 35 bf 13 5e 19 3e f5 b9 d4 3d 4c f9 b1 be
       -0.7098037 0.14977293 0.10387031 -0.3476051
000110 e0 39 f6 3a 19 2b 31 3e ce 1f 19 3e b1 6c 66 bd
       0.0018785559 0.17301597 0.14953539 -0.056256
000120 9c e4 b8 3e ae 03 4c 3e 8e 8a dd bd 7b 63 2f be
       0.36111915 0.19923279 -0.10817443 -0.17127793
000130 b1 e7 62 bf b6 0a 21 bd 1e 6b 05 be dd 6d 04 3d
       -0.88634783 -0.039316855 -0.13029143 0.032331336
000140 f0 9f 0b bf ee 21 12 3e bc 7f b1 3d a7 80 f2 be
       -0.5454092 0.14270756 0.086669415 -0.4736378
000150 d0 af aa 3e a9 c5 fa 3c 94 ad 04 bf e1 3f bf bd
       0.3333726 0.03061183 -0.5182736 -0.09338356
000160 d7 50 f7 be c5 56 b5 3e 0f 7d 12 be 7b 69 0d 3e
       -0.48303863 0.35417762 -0.14305519 0.13809769
000170 cd 9d 48 bf 48 da 14 be 20 44 1e bd 89 96 e5 3d
       -0.78365785 -0.14536393 -0.038639188 0.11210353
000180 b2 a5 37 3e d8 76 73 bb df bf a9 bc 8c 86 89 3d
       0.17934301 -0.0037149694 -0.020721374 0.06715116

encoder.linear6.bias f4 [5]
000000 56 d6 b7 be 9c 25 94 be 61 47 0e 3f 18 c6 ab 3e
       -0.35905713 -0.28934944 0.55577666 0.3354957
000010 b1 ec be 3e
       0.37289956

encoder.linear7.weight f4 [2, 5]
000000 fe 15 06 3d 40 ba ee 3d 5e 75 1f bd 77 e3 cf bc
       0.032735817 0.11656618 -0.03893029 -0.025377018
000010 49 4d 88 bc f9 b9 be be af 8c 9e 3e ef 2d ef 3e
       -0.016638415 -0.3725126 0.30966708 0.46714732
000020 65 bc 0b 3f 1f 0c e2 be
       0.5458434 -0.44149873

encoder.linear7.bias f4 [2]
000000 c2 9e 83 3d d0 37 c6 be
       0.06426765 -0.38714457

encoder.linear8.weight f4 [2, 5]
000000 61 37 15 bb f4 57 1c 3c 8f 7b 0f bb d6 ce 4a 39
       -0.0022768604 0.009542454 -0.0021893715 0.00019341274
000010 50 cc 4f b9 1b dc 16 be c9 31 39 3e d5 72 93 bf
       -0.0001981717 -0.14732401 0.18085398 -1.1519419
000020 04 4c 8c 3e 48 d2 17 be
       0.27401745 -0.1482631

encoder.linear8.bias f4 [2]
000000 a7 d6 b1 be aa 26 c9 bf
       -0.3473408 -1.5714924

decoder.linear1.weight f4 [5, 2]
000000 79 d8 19 bb 38 31 7d bf 22 2c d4 bb f2 53 08 3f
       -0.0023474975 -0.98903227 -0.0064749876 0.5325309
000010 17 f3 1d bc 2c dc 53 3f 03 cb 72 3c 3a 53 f3 3e
       -0.009640477 0.8275783 0.01481891 0.47524434
000020 68 d5 45 ba a2 eb 90 3f
       -0.00075467536 1.132191

decoder.linear1.bias f4 [5]
000000 06 13 04 3f 68 ac 35 3f b6 1d 3d bd fc 14 10 3f
       0.5159153 0.70966196 -0.046170913 0.5628202
000010 bb 48 b3 3d
       0.087541066

decoder.linear2.weight f4 [20, 5]
000000 03 2d a3 bd f2 d3 11 bc 4e 74 0a be 59 ce b3 be
       -0.0796757 -0.008900629 -0.13520929 -0.35118368
000010 1d e3 08 3e 2c 7e 0a be 3f 3d c2 be 42 4f 02 be
       0.13367887 -0.13524693 -0.37937352 -0.12725547
000020 9e 0b 58 be 88 fc 95 be 26 3b 0e 3f e7 c1 32 be
       -0.21098182 -0.2929423 0.55559003 -0.1745678
000030 57 fa 7c be 44 73 9a 3e a8 8e 6c bf bd 23 29 bf
       -0.24704872 0.30166066 -0.92405176 -0.6607016
000040 b7 18 91 bd d7 45 c5 3e cc 0e 6c 3e 77 cd 62 3f
       -0.07084792 0.38529846 0.2305252 0.88594764
000050 fc 7b b1 be 05 ce 19 3e bd 90 6d 3f eb 32 00 3f
       -0.34664905 0.15019996 0.9279898 0.50077695
000060 ec 78 2d 3d 6c 91 90 bc a5 9c c0 3e a5 25 24 be
       0.04235165 -0.017647468 0.3761951 -0.16029985
000070 06 51 4a 3e ae 3d a3 3d 3a e9 6a be 95 ba d8 3e
       0.1975747 0.07970749 -0.22940531 0.4232985
000080 ee 2a 24 be e6 a0 85 be 74 51 28 b9 76 6a 9e bd
       -0.16032001 -0.26099318 -0.00016052072 -0.077351496
000090 24 76 e2 3d 93 2f ed be cd de 76 3e 67 bc b1 be
       0.1105769 -0.4632536 0.24108429 -0.34714052
0000a0 2a 3e 1c 3f 76 a0 54 3c 16 0b 62 be 3a 2e 89 be
       0.61032355 0.01297771 -0.22074541 -0.2679308
0000b0 bb 00 12 bf a3 ff 6c be 5c 33 cc be 30 87 d1 bd
       -0.57032365 -0.23144393 -0.39882934 -0.10230863
0000c0 9c 8a a8 3e d1 a1 ac bd d2 84 83 be 37 e7 af be
       0.3291825 -0.084293015 -0.2568727 -0.3435609
0000d0 d2 c4 7f be 58 62 76 bd 62 08 a3 be 26 23 0a 3f
       -0.24977425 -0.06015238 -0.31842333 0.5395988
0000e0 a4 f7 f2 be 2a d9 9c be 32 34 d7 3d 8c bd 75 bf
       -0.4745456 -0.30634433 0.10508002 -0.9599235
0000f0 9e b8 da 3e 87 83 11 3e 6e 0f 4c be 26 44 49 3e
       0.42718977 0.1421033 -0.19927761 0.19654903
000100 a6 9f 93 be 9a c6 d6 3c 37 55 ed be 14 23 d6 bd
       -0.2883274 0.026217747 -0.46354076 -0.10455909
000110 75 c8 75 3e 13 c3 a4 bd 8f b1 87 be d2 1a c7 bb
       0.2400225 -0.0804502 -0.26502654 -0.0060761953
000120 dc 0e 8f 3e 9a aa ab 3e bc 81 ba b9 fa 9c 85 3e
       0.27941024 0.33528596 -0.00035573344 0.26096326
000130 71 4c 50 be a2 26 cd be 7d 44 4e 3d 55 dd 26 3e
       -0.2034166 -0.40068537 0.050358284 0.16295369
000140 da 8b ab 3e 3b 6c ec 3e ba 6e 2d be 9d 7e d3 3e
       0.33505136 0.46176323 -0.1693677 0.41307536
000150 7c 56 36 be fe be c0 3d 5b 94 5a be d3 10 9f 3e
       -0.17806429 0.09411429 -0.21345656 0.31067523
000160 01 40 aa be a1 21 fa 3d 6b f4 89 3e 08 4c fa 3e
       -0.33251956 0.122134455 0.2694429 0.48886132
000170 c1 10 56 3e 85 55 c3 3e fb 5e a2 be d1 ca 22 3f
       0.20904829 0.38151184 -0.3171309 0.63590723
000180 8e 55 90 3e 3d 1b 1e bf d5 c6 a9 3e 2c 3d 02 bf
       0.28190273 -0.6176031 0.3315951 -0.5087459

decoder.linear2.bias f4 [20]
000000 e3 2b 94 3c a4 27 89 be 62 58 cb bd 38 d1 1b 3e
       0.018087333 -0.26788056 -0.09928967 0.1521653
000010 10 cd 89 3e 45 49 a5 3c 68 fa f4 3e 52 03 86 be
       0.26914263 0.02017654 0.47847295 -0.26174408
000020 6d 41 67 bd 45 61 2f be c0 27 54 bd 6f 1c 54 3e
       -0.05645888 -0.17126949 -0.05179572 0.20713972
000030 4a f1 e9 3e 5d e9 eb 3d 9a a7 11 3f 59 16 fa 3e
       0.456919 0.1151912 0.56896365 0.48845175
000040 f7 8d 9c 3d 23 7c 8b be fc ca a9 3e 22 d8 53 3e
       0.07644265 -0.27243146 0.33162677 0.20687917
