state_dict_VAE_Beta=0.1.pt (torch, 77723 bytes, 30 tensors)

encoder.linear1.weight f4 [20, 10]
00000000: 07ed dc3d 1f09 c1be fda3 8a3d 65f8 c2be
00000010: 3a4f 2abe 7581 5e3e 1aff 98bd 7297 b13c
00000020: 2cfe 1c3e d5e6 d93d 39bb cebc 8edb 453d
00000030: fe6e 6e3e 7502 08be f69b 88be 5205 5dbc
00000040: 5032 58bd ad3f e2be 2f61 913d a79f 0dbe
00000050: c431 c7bb 72f4 533e 1863 2f3e 8770 bc3d
00000060: ad4f 8e3d 32ac 33bd 44d9 f23d fb15 423e
00000070: e38a 6d3e 566c 6d3d d4c3 c6bd 653b b7be
00000080: 4ad7 35bd 1e7e d1bd 4b7f 943e 3635 07be
00000090: 006e ccba 4c23 503e 0a50 273d b6b4 493e
000000a0: 4deb 81be 9827 6b3d 191d 803d a76d c3bd
000000b0: 7854 043e 1a4b 563e 884f 12bd f00a d73d
000000c0: 2c72 8d3e c33c ce3d b092 89be ba9c 0bbd
000000d0: 0305 05be f927 703c fa47 6abe 595c 64bd
000000e0: 9a68 fabd 7241 3d3e c66c 94bd 17ec 2d3e
000000f0: afb1 543d a61c 853e 7043 4ebe 4f66 e93d
00000100: 7e41 893e 905e 48be 94b1 79be 2058 94be
00000110: 71e2 46be 7002 41be cfbd 743e d8cd 953d
00000120: fb45 683e 9051 5bbe c552 16bd 22b4 0fbe
00000130: b689 463e aea0 9cbd f7b0 903b 4fd4 d6be
00000140: 0e7c 14be 4798 2f3e b4b5 86bd c173 6ebe
00000150: 9c20 9cbd 8b8e 003f c8dc 933d ee0c c2be
00000160: 481e dc3b f8fe 103d 1862 4f3e 3166 01be
00000170: 2a79 3ebe 0ef9 e7bd dc53 733e 87b0 a8bc
00000180: f0dc d3bc e4dc 4cbe bcff 18be d463 0abe
00000190: 4771 823d 6016 7cbe 953d 533d e8a9 7dbe
000001a0: 7e21 10bd ed0d c5bc 6104 23be 956a b73d
000001b0: 8fb1 54be 4ad2 7ebc 9802 94bd abdb 813e
000001c0: a9c6 37bd 431f 943e 9cac a3bd 63c9 f13e
000001d0: 609e fa3c 16d6 663e a6c4 e3bd 75f6 a33e
000001e0: 4c91 9dbd a064 3fbd 45db a1be 3c24 7bbe
000001f0: c1ed d33e 5294 9f3e 0e67 a2bd 8718 8dbd
00000200: c0e8 da3c 10de febd bd9c aabc 45c1 6dbe
00000210: a7d7 3e3e 1bbe c73c f1b2 c53d a260 e7bc
00000220: eaf3 163e 95b9 a6be 3a8a 01be 8ec5 db3d
00000230: 5ca8 173e 7d8f 1e3d 01d7 aa3d 81b5 9e3e
00000240: aecf e53d f907 d73d 92b4 dcbd f0a1 c33e
00000250: 8954 4cbd c104 33be 7dfa 6dbc a292 393e
00000260: bcc3 aa3d 5235 21be 1113 47be 74a2 1ebe
00000270: b201 3a3e 367a ab3e 9dfa 12bd 5968 e83d
00000280: 711f 303d e3e3 7c3d 8def 8c3e 86f6 9c3e
00000290: 2507 743d ebe4 abbd 0526 06be e084 113f
000002a0: 8a7a a93d c584 62be a965 5abd 93d0 153d
000002b0: fcd9 c43d c156 6f3e c8ce 953d 9b21 9fbc
000002c0: 52f7 643e 7654 9b3e cb40 1f3d 946a 5fbe
000002d0: 85dd d0bc 58d7 bcbe 4423 60bd 92a7 c1be
000002e0: 662e 7a3e f664 5dbd 0eee 5dbe 151a a63d
000002f0: 101b 1cbe d745 d3bd 5ac4 543e 9404 eb3c
00000300: 37d3 9a3d ced4 a83d 2fe7 523c 5491 113e
00000310: 053c 9c3e 0fe5 c9be 296f 113c b519 c03e
0.10787397 -0.3770227 0.067695595 -0.38080135 -0.16631785 0.21729071 -0.07470532 0.02167866
0.15331334 0.10639731 -0.02523576 0.048305087 0.23284528 -0.13282187 -0.2668149 -0.013490038
-0.052782357 -0.44189206 0.070986144 -0.13830434 -0.0060789306 0.20698717 0.17127645 0.092011504
0.06948791 -0.04386539 0.118578464 0.18953697 0.23197512 0.057964645 -0.0970532 -0.35787502
-0.04439477 -0.10229133 0.29003367 -0.13203892 -0.0015596747 0.20325965 0.040847816 0.19697842
-0.25374833 0.057410806 0.0625555 -0.09542399 0.12922847 0.20927086 -0.03572038 0.10500133
0.2762617 0.10070183 -0.26869726 -0.034085013 -0.12990193 0.014657968 -0.2287902 -0.055752132
-0.122269824 0.18481997 -0.072473094 0.16984592 0.051927265 0.2599842 -0.20142913 0.11396467
0.2680778 -0.19567323 -0.24384147 -0.28973484 -0.19422318 -0.18848586 0.23900531 0.07314652
0.22682945 -0.21417832 -0.03670003 -0.14033559 0.1938847 -0.07647835 0.004415627 -0.41958854
-0.14500448 0.17147933 -0.06577626 -0.23286344 -0.07623407 0.50217503 0.07219845 -0.3790049
0.006717477 0.035399407 0.20252264 -0.12636639 -0.18600908 -0.113268 0.23762459 -0.020591987
-0.025862187 -0.20006138 -0.14941305 -0.13514644 0.06369262 -0.2461791 0.0515724 -0.24771845
-0.03518819 -0.024054492 -0.15919639 0.08955876 -0.20770858 -0.0155530665 -0.07227057 0.25362906
-0.04486719 0.289301 -0.07991907 0.47223958 0.030593097 0.22542605 -0.11121492 0.3202397
-0.07693729 -0.046726823 -0.31612602 -0.24525541 0.4139233 0.31167847 -0.07929812 -0.06889444
0.026722312 -0.12444699 -0.020826692 -0.23218258 0.18636952 0.024382642 0.09653271 -0.02824432
0.14741483 -0.32563463 -0.12650385 0.1073104 0.14810318 0.03871106 0.0834179 0.30997851
0.112212524 0.104995675 -0.107766286 0.38209486 -0.049885307 -0.17482282 -0.014525053 0.18122342
0.083381146 -0.15742996 -0.19440867 -0.15491658 0.18164709 0.33491677 -0.035883535 0.11348028
0.042998735 0.061740767 0.27526513 0.30656832 0.059577126 -0.08393272 -0.13100441 0.56843376
0.082753256 -0.2212096 -0.053319607 0.036575865 0.0961189 0.23372938 0.07314831 -0.019425204
0.2235997 0.30337876 0.03888015 -0.21818 -0.025496254 -0.36883044 -0.054721132 -0.37823159
0.24431762 -0.054051362 -0.21672842 0.081104435 -0.15244699 -0.10316055 0.20778027 0.028688706
0.07559817 0.08243714 0.012872501 0.14215595 0.3051454 -0.3943257 0.0088766 0.37519613

encoder.linear1.bias f4 [20]
00000000: fbeb 833e ad62 3fbe e438 24bf dc06 90be
00000010: 4413 35bf a49c 56bf 9f60 883e 9b20 e3bd
00000020: f4f5 45be 0219 1d3c 7992 debe 39b4 17be
00000030: 8b2c 993e d027 b93e d429 213f 6638 70bf
00000040: 1634 2dbd 9357 dbbe 34fc cebc 7f7e 9f3e
0.25765976 -0.18689986 -0.6414931 -0.28130233 -0.7073252 -0.83832765 0.26636216 -0.110902034
-0.19332105 0.009588482 -0.43471125 -0.14814843 0.29916796 0.36163187 0.6295445 -0.9383606
-0.042286 -0.4284025 -0.025266744 0.31151196

encoder.linear2.weight f4 [40, 20]
00000000: 734a 083e c6df 6abd 41b9 13be 975d 58be
00000010: e258 7cbe aadb 7f3d d006 543c e500 253e
00000020: 185e f4bd 47d1 453e 96d1 01be 0350 1f3e
00000030: 3de1 0f3e 5a8e 0f3e 6f71 ae3e b58e 33bd
00000040: ce92 47be 3251 073e faa1 23bc 0b6d 383e
00000050: 359c 603d 6a40 02be f07d 34bd daef cebc
00000060: 2869 fe3d ac20 1e3e df3c 08be aaf8 23be
00000070: 2159 79be 83cf 95bd 32b5 41be 63e6 543c
00000080: fa83 46be 638a 4f3c 1454 0f3e fa5a cc3d
00000090: 05cd 183e e286 bbbd 50f8 e63d 4343 dbbd
000000a0: 1d2f 31be 30bf 07be 27b8 c33d 6d25 f03d
000000b0: 0212 a73d 381b 093e 1dcc d7bd 4239 103d
000000c0: 91c9 9bbd 08a5 c13c 5db0 f63d ae61 83bd
000000d0: 992f d4bd c85c 66be c842 b8bc 03cb 103e
000000e0: 057c d23e a705 dc3d 1f58 15be 3bd4 14bd
000000f0: ac7e 5abd 5812 38be 785d 84be aa59 023d
00000100: fda2 6cbd e6e3 ffbd 1f7b 1cbe 3c34 80bd
00000110: 5fda 093e 5c7e 41be 6478 b5bd d3ce 01be
00000120: 431d 5c3e 8f3b 34bc 1dcc f03d d934 d5bc
00000130: 117c 18bd 3246 ff3d 9e32 b0bd 3e6e 973d
00000140: d213 493e caaa 08be 5d89 38be bd5b 99bd
00000150: 8723 fcbc 7523 8abe 1ce0 bf3d 72d8 9bbd
00000160: e455 e4bd eba7 2c3d f05d 88be a513 873d
00000170: 299a 4abd a54c 2b3e 748f febd b57a 4cbe
00000180: 4a3b 0fbc 9d1e 60be ee0d 94bd 51c1 9cbd
00000190: 83e9 63be 7be3 f7bd 83e5 3fbe c02c 3c3c
000001a0: 5fb0 0cbe 6404 72bc 2d90 46be e1a6 39be
000001b0: 6093 d3bc 98cf d73c 4ec4 243e b86b a7bd
000001c0: 40d2 593e 1066 2bbe bd84 8c3d a418 50be
000001d0: 36fb 473e daa8 b5bd fc5b fe3d cdb7 0dbc
000001e0: 650f 0cbd 796d 1bbe 51ea 0abe f334 bc3d
000001f0: 14ae fb3d 4ae5 2f3e 9a6f ccbd 071b 26be
00000200: 0be9 e2bd 3ad1 0dbd 1c92 323c c3a0 ccbb
00000210: 5c18 7dbe 0f07 57bd e78d 35bd 883d 51be
00000220: c996 d1bd 9fc2 fbbd d7fd 7bbe 93ab 623c
00000230: 8731 303d 5505 dfbd 3257 e9bd 2f98 18bd
00000240: 6e65 94bc d1f6 2bbe 9064 b23b 3aef 8d3d
00000250: b86a fcbd a73e e7bc 9039 53be 6a50 58be
00000260: 8806 b7bd 4e86 15be 6da7 193e b07e cbbd
00000270: 93d6 91be 4543 c63d 308a dfbd 7aca 193e
00000280: 4f38 2abd b170 c9bc a19d 91be 938e ba3d
00000290: 6509 83bd 8c14 3abe 5fe4 7abe f5d5 a5bc
000002a0: d04e 5fbe 1cdb 083e ce2f b53c 5a20 bc3d
000002b0: cb55 533e 19ca 53be f391 2abe d00f 733d
000002c0: 81de 883d fada 163e b52d 43be 79b8 3d3c
000002d0: 91ea a7bd 7d8a a93d 216d f7bd 31cf 873e
000002e0: 9c76 30be de9c a9bd a637 cd3e c110 bbbd
000002f0: cb0b 5abe d0b1 373d 652a 3b3e 6631 a53d
00000300: 48b9 38bb e2ce a3bd 4e60 d8bd abb6 0c3e
00000310: f70b a83d f5ef ecbd d208 423e d660 6fbe
00000320: 4e0f 44bd ddd7 54bd b9e9 4fbd 60a1 473e
00000330: e4d5 653d 0fc7 3dbd f05d 4bbd 9c96 51bb
00000340: 3b36 60be d5ad b43d 9198 8e3d 7d77 65bd
00000350: d809 e23d 1810 48bd c7ec 6cbe f084 87be
00000360: 5e08 143e b51a 10be 6b18 f9bd 8587 433e
00000370: 88d7 90bb 6132 6c3e 3192 423e d8ff fb3c
00000380: 6733 e43d 8ab9 c23d eae6 80be 2a61 49bc
00000390: 29d7 f73b c26a d5bc 4c98 fbbd 6d06 58bd
000003a0: 027e 2f3e 204a a73c 0d84 42be d31a 23be
000003b0: 6b70 3fbe abf2 7abd 738c 403e d6b3 473e
000003c0: acf4 c63e 7996 893e 0dd7 58bd 0fea aa3e
000003d0: 36ab 8abe 33f8 003d 4ffe dd3d d1c9 123e
000003e0: 2f66 a53c 2cf2 62bd c752 ebbd 8a41 3bbe
000003f0: ce82 c43d 03da 8ebd fbfd bebd 3391 92be
0.1330965 -0.057342313 -0.14426138 -0.21129452 -0.24643281 0.062465347 0.012941077 0.16113622
-0.119320095 0.19318114 -0.12677607 0.15557866 0.14050765 0.14019147 0.34070918 -0.043837268
-0.19489595 0.13214567 -0.009987349 0.18010347 0.05483647 -0.12719885 -0.044065416 -0.025260855
0.12422401 0.15442151 -0.1330447 -0.16012827 -0.24350406 -0.0731497 -0.18916777 0.012994382
-0.19386283 0.012667271 0.13996917 0.0997829 0.14921959 -0.09156586 0.112778306 -0.107061885
-0.17303129 -0.13256526 0.09556609 0.117258884 0.081577316 0.1338929 -0.105369784 0.035210855
-0.07606805 0.023638263 0.120453574 -0.06415115 -0.10360641 -0.2249633 -0.022492781 0.14139943
0.41110244 0.107432656 -0.14584397 -0.03633521 -0.05334346 -0.17975748 -0.2585256 0.03182379
-0.057772625 -0.1249464 -0.15281342 -0.06259963 0.13462208 -0.18895859 -0.08860853 -0.12676553
0.21495537 -0.011000528 0.117576815 -0.026026176 -0.037227694 0.124645606 -0.086034045 0.07394074
0.19636467 -0.13346401 -0.1802115 -0.07488201 -0.03077866 -0.26980177 0.09368917 -0.07609643
-0.11149195 0.042152327 -0.2663417 0.06595544 -0.049463425 0.16728456 -0.12429705 -0.19968684
-0.008742163 -0.21886678 -0.072292194 -0.0765406 -0.22257046 -0.12103935 -0.18739896 0.011485279
-0.13739155 -0.014771555 -0.19390936 -0.18130066 -0.02582711 0.026344106 0.1609051 -0.081748426
0.2127161 -0.16738153 0.06861255 -0.203219 0.19529423 -0.088700965 0.124198884 -0.008649779
-0.03419437 -0.15178479 -0.13565947 0.09189787 0.12289062 0.1717731 -0.09982224 -0.16221248
-0.11079606 -0.034623362 0.010899093 -0.00624475 -0.24716324 -0.052496966 -0.04432478 -0.20433629
-0.10233838 -0.122929804 -0.24608551 0.013834852 0.043015983 -0.10889689 -0.11393584 -0.03725451
-0.018114772 -0.16793372 0.005444117 0.069303945 -0.123250425 -0.028228117 -0.20627427 -0.21124426
-0.089367926 -0.14602014 0.15005274 -0.09936273 -0.2848402 0.096807994 -0.10915029 0.15018645
-0.041557606 -0.024589868 -0.28440574 0.09109225 -0.06398276 -0.181719 -0.24501179 -0.020243624
-0.21807408 0.13364834 0.022117522 0.09185858 0.20638196 -0.20682563 -0.16657238 0.05934125
0.06683064 0.1473197 -0.19060405 0.011579626 -0.08199037 0.08278368 -0.120813616 0.26525262
-0.17232746 -0.08281873 0.4008152 -0.09134055 -0.21293561 0.04484731 0.18277891 0.08066063
-0.0028186608 -0.07998444 -0.10565244 0.13741557 0.08205407 -0.11569206 0.18948677 -0.23376784
-0.04786616 -0.051963676 -0.050760005 0.19495153 0.056112185 -0.046332415 -0.049650133 -0.003198064
-0.21895687 0.08822218 0.069626935 -0.056022156 0.11037034 -0.048843473 -0.23137198 -0.2646861
0.14456317 -0.14072688 -0.121628605 0.19094665 -0.0044202246 0.23066093 0.1900108 0.030761644
0.11142617 0.09508045 -0.25176173 -0.012291232 0.007563491 -0.026051883 -0.12284908 -0.052740503
0.17137912 0.020421088 -0.18995686 -0.15928201 -0.18695228 -0.061266582 0.18803577 0.19502196
0.38858545 0.26872614 -0.052939463 0.33381698 -0.2708375 0.0314867 0.10839521 0.143348
0.020190326 -0.055406734 -0.11490398 -0.1828672 0.095952615 -0.06975176 -0.09325787 -0.28626403

encoder.linear2.bias f4 [40]
00000000: 37c4 bd3e 86df 893e 67f4 d83d d4ab 87be
00000010: 28f1 c0be 0885 67bb 60ed 7bbe 205e 0fbd
00000020: 058d 11be 298c 1f3e a84d a8be 09b2 43bf
00000030: ffd7 bdbe b51a dd3d 0a39 35bd 5ed3 863b
00000040: 8cb5 d93d 5a96 06bf 38a0 4abe 8be4 96bc
00000050: d6f5 0f3c 571e 65be 8209 e3be 88d8 debd
00000060: 88b7 0a3d a0c3 7d3e ff97 1abd 3492 9fbd
00000070: fed0 b13d 86dd d6be c293 cf3d 1d19 c13e
00000080: 18a9 573e 0c1a 1c3e fb21 163e 913e 3bbf
00000090: 68a1 b93e dfe8 cc3c f201 b8be b53a a53e
0.37063763 0.26928347 0.10593491 -0.26498282 -0.37683988 -0.0035327096 -0.2460227 -0.035001874
-0.14213951 0.1558081 -0.32871747 -0.76443535 -0.37078854 0.107961096 -0.04424385 0.0041145524
0.106303304 -0.5257317 -0.19787681 -0.018419525 0.008786639 -0.22374855 -0.4434319 -0.10881144
0.033866435 0.24781656 -0.03774261 -0.07791558 0.0868244 -0.41965884 0.101356044 0.37714472
0.21060598 0.15244311 0.146614 -0.73142344 0.36255956 0.025013385 -0.35938984 0.32271352

encoder.linear3.weight f4 [80, 40]
00000000: a098 903d e004 023e 563a bc3c 61c8 293d
00000010: c926 dc3d c77a af3d c12b 29be e4f3 df3d
00000020: 094a 80bd d9e9 41bd e862 943d a91a 63bc
00000030: 758a bdbd e04d 343c 1c53 5b3d 1abd 80be
00000040: e46b 853c be71 b9bd 19ca bb3d ac36 c53d
00000050: 3c49 26be ea20 03be 74bf 97bd d372 aebd
00000060: ba80 80bd 843c 033e 6cca 493c 24d3 e13d
00000070: 1ea1 9dbd fc33 45bd 343b 1ebe 5266 053e
00000080: 38a2 a33c 4a09 25bd e5ab bb3c a061 873b
00000090: 169c ba3c 24f0 4e3d 9cba 0a3d 7654 db3d
000000a0: 41bd 02be 961e f2bc e2f9 bbbe e139 c7bd
000000b0: c499 d1bd 8055 a63c 0e1a 17be 848a 7abd
000000c0: d087 b73d 145c 02be 7370 053e 469f 5e3e
000000d0: f8fc 0b3d fb1e 5a3d 1766 c4bd 4c1b 2d3e
000000e0: 071a c93d 1aba 8ebc eba1 b23d f45b 04be
000000f0: 1c38 b9bd 7789 0e3e 8191 45be 8a78 c6bd
00000100: c212 99bd 1fad 01be e411 933d a424 803c
00000110: d03e ff3c cccf b0bd 4ca4 203d aff2 e6bd
00000120: ccf2 9abe c561 2d3e 5d82 5a3e 99c6 f8bd
00000130: 358b 50bd 6ca6 c33b e682 173d 2441 df3c
00000140: 97cc bb3c 003c 52be 2f8a 77bd 44ae 7d3b
00000150: f7b7 e83c a858 5dbd b7a3 06bb 6a80 b23d
00000160: 5036 743d b42b 5ebd 80d1 1d3d 3a93 82bd
00000170: 7c73 da3d da77 133e a6f1 333d 3b56 3d3e
00000180: f11b 52bd 692c 37be 131b 443d 9815 e1bb
00000190: 7457 f1bc 2d3c 91bd 1d46 e9bc 1a51 9ebd
000001a0: b6ca e83d a580 d23c 3b81 1f3d 020d 6e3d
000001b0: 7aef 5e3b 5c63 4e3e abcd 1dbe bbc3 cebd
000001c0: 5bfa d6bd 3a27 23be 5de0 fa3d e97e dfbc
000001d0: 0e58 74b9 5a03 71bc 698c 33bc 7036 3e3d
000001e0: e425 45be 478b e4bd bca6 3dbc 60f5 a43a
000001f0: fa09 d63c 6cce 9dbb 96a9 d2bb 0adf 703d
00000200: f8f1 923d 8a06 2dbd 673f 953d cdd0 2cbd
00000210: 4ea0 783d d433 05bd c9da 223d 2fd1 293d
00000220: 29ee 07be e58e 87bd a639 d2bd 0732 3a3d
00000230: fb02 ec3d 834d 92bd ee05 163d 4fd9 c7bd
00000240: 85bf 613d fac9 82be 45bc ccbe 8ae5 c3bc
00000250: 3ea9 75bc 449c 693e 747b 49bc 22aa 703d
00000260: 28ee ca3d 747a bbbe 59ee 823b a53b 58be
00000270: 82fb d53c 5aeb edbb 4441 bfbd ea36 cc3d
00000280: 6c49 41bd 546a 05be 54a6 0cbe bf47 003e
00000290: 6260 00be 30e3 0fbe 1d0a b7bc fd99 4d3d
000002a0: 40e3 a2bb ca4c ab3c 832b 2abd fc65 083d
000002b0: 5f0b 953d 432e f2bd 4cd2 4ebb 59f4 73be
000002c0: 0857 c2bd 22d6 9cbe c41f 063d aab7 65bc
000002d0: a9ad f53c 007e 333c dad2 7d3c 5eb4 e3bd
000002e0: c450 87bd 9c2c d0bd b8d0 27be 24bd bdbc
000002f0: 1ace b73d 3146 36be fc6a 75bd 604a 87bc
00000300: fc81 4cbe 92a0 093d 0036 3d3d 75f5 eebc
00000310: 062f 58be 2133 adbd f0a5 0cbd 6beb 803e
00000320: e05f 8e3d 8cb7 63bc e49e fbbe b7da 293d
00000330: a840 34bc be0e 94bd 37b4 283e 7472 8b3d
00000340: 5a8d b33d de21 c8bd b184 40be c6da 243e
00000350: 10ac e13d 3cde 04be 5840 d43d 378d 84be
00000360: a40e 07be a070 11be 2272 87bb bd14 5bbd
00000370: 9eb9 8bbd 4673 e7bd 2676 9aba d13a 2bbe
00000380: 80de 303d 281f ec3d 05f1 e7bd 89d0 7fbe
00000390: b2fd 0fbd 1571 30bd b8c3 d8bc 9319 b23d
000003a0: d4c4 e3be 0362 5a3e b753 113e 951b 9d3d
000003b0: 1ba5 3fbe 9420 663b 3c6b 84bd fe27 473d
000003c0: 5a30 e4bd 35f0 61bd 2d82 083d 1fd0 e6bd
000003d0: d617 153c 41d5 88bc 2463 c7bd 2c68 823c
000003e0: 9584 55bd cfbc a43d f8e5 ec3d e8ec 063e
000003f0: 9811 6dbc 0c0e 8a3b 6748 10bd 2f88 82be
0.07060361 0.12697172 0.022977035 0.04145086 0.10749585 0.0856834 -0.16520597 0.1093519
-0.06264121 -0.047342155 0.07245427 -0.013861337 -0.09254924 0.011004895 0.053546056 -0.25144273
0.016286798 -0.09054898 0.091694064 0.096295685 -0.16238874 -0.12805524 -0.07409564 -0.08517995
-0.06274553 0.12816054 0.012316328 0.110266 -0.07696746 -0.04814528 -0.15452272 0.13027313
0.019974813 -0.040292062 0.022909114 0.004131511 0.022779506 0.050521985 0.03386937 0.10709469
-0.12767507 -0.0295556 -0.36714083 -0.097278364 -0.102344066 0.020304441 -0.14756033 -0.061167255
0.08961451 -0.12730438 0.13031177 0.21740445 0.034176797 0.0532522 -0.095897846 0.16904944
0.098194174 -0.017422725 0.0872229 -0.12925702 -0.09043905 0.13919626 -0.19293787 -0.0969096
-0.07474281 -0.12663697 0.07181147 0.015642472 0.031157881 -0.08633384 0.039219186 -0.11276757
-0.30263364 0.16931827 0.21338792 -0.121472545 -0.05091401 0.005970767 0.03699007 0.027252741
0.022924704 -0.205307 -0.060434517 0.0038708607 0.028408034 -0.054039627 -0.002054436 0.08715899
0.05962211 -0.054240897 0.038529873 -0.063757375 0.10666558 0.14401188 0.043931626 0.18489926
-0.05129618 -0.17888035 0.047877382 -0.0068690293 -0.029460646 -0.07091556 -0.028475815 -0.07730313
0.11366789 0.025696108 0.038941603 0.058117874 0.003401725 0.2015509 -0.15410487 -0.100959264
-0.1049697 -0.15932932 0.12249825 -0.027282195 -0.00023302456 -0.014710272 -0.010958769 0.046438634
-0.19252735 -0.111593775 -0.011575397 0.0012585334 0.026127804 -0.004815867 -0.0064289076 0.058806457
0.07175058 -0.042242564 0.07287484 -0.042191315 0.060699753 -0.03252013 0.03975943 0.04145926
-0.13274445 -0.06619052 -0.10264902 0.045457866 0.11524006 -0.071436904 0.03662675 -0.09758245
0.055114288 -0.2554472 -0.39987388 -0.023913164 -0.014993964 0.22813517 -0.0122975 0.058756
0.09908706 -0.36616862 0.0039956984 -0.21116503 0.026120905 -0.007260722 -0.0933862 0.099714115
-0.04718916 -0.13028842 -0.13735324 0.12527369 -0.12536767 -0.14051509 -0.02234369 0.050195683
-0.004970938 0.02091064 -0.041545402 0.033300385 0.072775595 -0.1182523 -0.0031558452 -0.2382368
-0.09489256 -0.3063212 0.032745138 -0.01402084 0.029990034 0.010955334 0.015492165 -0.11118387
-0.06607202 -0.101647586 -0.16388214 -0.023161478 0.08974858 -0.17800213 -0.05991648 -0.016514957
-0.1997146 0.033600397 0.046194077 -0.029169777 -0.21111688 -0.08457018 -0.034337938 0.2517961
0.069518805 -0.013898741 -0.4914466 0.04146835 -0.011001743 -0.07229374 0.16474997 0.068089396
0.08767195 -0.09772085 -0.18800618 0.1609908 0.110191464 -0.129754 0.10363835 -0.25888988
-0.13189179 -0.1420312 -0.0041334787 -0.053486574 -0.06822513 -0.113012835 -0.0011784479 -0.16721655
0.043180943 0.1152938 -0.11325268 -0.24981894 -0.035154052 -0.043076593 -0.026460513 0.08696284
-0.44486105 0.21326451 0.14192091 0.076712765 -0.18715326 0.0035114633 -0.06465766 0.048622124
-0.11142035 -0.05516072 0.03332727 -0.11270165 0.009099921 -0.01670325 -0.097357064 0.015918814
-0.052128393 0.08043825 0.115673006 0.1317631 -0.014469527 0.0042131003 -0.0352253 -0.25494525

encoder.linear3.bias f4 [80]
00000000: 6360 9b3f 8261 82be cf41 bfbe f4a9 0dbf
00000010: f94f 55be 0cd3 99be 8d5b 55be b68c e3be
00000020: f9cb 4ebe 0972 36be 726e 31be 5d60 90bd
00000030: 4bf8 673e 067b 413d 6088 c1be dac4 5f3e
00000040: 7ec4 afbe 3d15 41be c7a5 9cbd f47e 60bd
00000050: 9a6a edbe 375a e63d 3ef2 0d3e 75d0 e6be
00000060: 892e c1bd 9b04 d7be 3976 d8bc d8ec 7cbd
00000070: d461 a13e fd1b f2be 989c 1b3b e1ed bcbe
00000080: 6923 76be bcd2 4e3e bb37 4dbf 3b7f 1cbf
00000090: 3478 873d 6ef0 3cbe 0104 72bd b0e7 a1bd
000000a0: 987f 063e a3ea c5bd 9deb 823d 4e60 0e3e
000000b0: df74 0abe 004d 9abd 4d1b a9be 0bbf 34be
000000c0: 43ff 93be abd9 f43e b4f8 dfbc 48bc d3be
000000d0: 556b 063f 501f 11be 3afc 323d 3e56 bebd
000000e0: e600 933e e2c4 df3d 3ccb 0dbf 16a9 ffbc
000000f0: 6461 09bf 2032 ef3e 69fd 16be 31b0 94bd
00000100: ef77 2fbd cdb4 5d3d 3aaa 29be 991c e83e
00000110: d48e 25be d622 2abe 5c15 933e 0987 86bd
00000120: e007 1c3d e1fe 8c3e 3963 71be 4546 6dbe
00000130: 29c7 f6be 8ecd c13e efce 07bf feba 17bf
1.213879 -0.25465018 -0.37354895 -0.5533745 -0.20831288 -0.30043828 -0.20835705 -0.4444329
-0.20194997 -0.17816938 -0.17327288 -0.0704963 0.2265331 0.047236465 -0.37799358 0.21852437
-0.343296 -0.18855758 -0.07648807 -0.054808572 -0.46370393 0.11247676 0.1386194 -0.45080915
-0.09432704 -0.419957 -0.02642356 -0.06174931 0.3151995 -0.47286978 0.002374446 -0.36900237
-0.24036945 0.20197576 -0.8016316 -0.6113164 0.06614724 -0.18451092 -0.05908585 -0.07905519
0.1313461 -0.09663894 0.06392596 0.13903925 -0.13521145 -0.07534218 -0.3302864 -0.17651002
-0.28905687 0.47822317 -0.02734027 -0.41354585 0.52507526 -0.14172101 0.043697573 -0.09293793
0.28711623 0.10926224 -0.55388236 -0.031208556 -0.5366423 0.4671793 -0.14745106 -0.07260168
-0.042838987 0.054127503 -0.16568843 0.45334318 -0.16167766 -0.16614851 0.28727233 -0.06568725
0.038093448 0.27538207 -0.23573007 -0.23171337 -0.48198822 0.37852138 -0.5305013 -0.592697

encoder.linear4.weight f4 [40, 80]
00000000: 498f 67be 1a7e c1bd 8216 e7bc ea32 a7bc
00000010: 29db eebd 862e 7dbb 1935 a1bb d2f2 ab3d
00000020: b266 bbbd eebb f8bd 991b c3bc 3edb 2c3d
00000030: 3951 ab3c 1536 c8bd c64c a33d a48e 24bb
00000040: 987e 96bd 4e9c eabc 74ef 93bd ff48 bebd
00000050: c9ce 35be 56ad 8d3d 4905 8e3c 1949 d4bd
00000060: 210d f0bd e093 473a 3dac d4bd f8be e73c
00000070: db7d 833c 1557 913d bd39 ec3c 2f20 7fbc
00000080: 83bd a63d dd6d 4abd dfbc 25bd 0d3c c6bd
00000090: ee11 bf3c 212e 603c 2ea1 4f3d b4f8 543d
000000a0: a629 5a3d bf20 15be 9a9a 42bc dc59 fbbd
000000b0: 45d8 743d 6ec3 0fbd 813f 24be fa50 2fbd
000000c0: 7402 96bd e8c2 fcbd 30fd 53bc c310 acbd
000000d0: 5e1a c73c 4464 b4bc c2a0 c2bb f038 a9bb
000000e0: 7aa6 ebbd 90c1 22bd c2c1 d7bc 7db2 573d
000000f0: 5dfd 11be 8e47 b4bc 044c 403d 4712 b6bd
00000100: 54b4 f6bc 733d 9cbd 83fc b5bd e8d9 fdbd
00000110: f24c eb3d 08ba cdbd bfe2 87bd 7b5c 49be
00000120: 72af 73bd a4f6 b8bd 2974 c9bd 6cb2 e7bd
00000130: 301a 4bbe 654c b2bd be2d ffbd 4413 563c
00000140: 6d21 94be f4d6 423d b5d4 43be 7a56 9fbd
00000150: 191d 0f3d 7385 a63b c3db 25bd b04f 41bd
00000160: a3a1 f3bd e271 143e 805c 903d 70ba 72bd
00000170: 4763 50be 2e4c 13bd 3684 48bd 7fe8 c6bc
00000180: eaac 86bd 147f 2fbe 7b88 11bd 271b 9f3c
00000190: e214 293e f894 e8bc 162e 223e a7f2 e73d
000001a0: 4042 afb9 7c7e b43d 2f32 5c3d e85e d83c
000001b0: 83ed e43c 25cb ac3d 5db2 f0bd 21cd ff3d
000001c0: f040 80bc 6ea8 803d 4f82 903d 2d39 6dbd
000001d0: 49fc 233d bfa3 dabd 509c b83d ff7d 23be
000001e0: d180 97ba 2a6e a7bc 11e6 8f3d 3ca9 a43d
000001f0: 9384 a53d 9b8a 373c c3f4 70bd 2e1e 433e
00000200: 92e8 9d3d b96a 33be 963e a6bd 0bf2 4e3d
00000210: 2a20 813d efda 263d 8039 babc 34fd 013d
00000220: 1ffd c0bd a40c ccbc 5f86 403e 7ffc 0bbe
00000230: a772 3b3e 0019 d5bd d55f 06bc 94c1 e6bd
00000240: 86c3 76bd afa2 21bd 8438 29bd a6d8 ffbd
00000250: 3cc9 67be 136d 62bd 40b5 343e f951 e03c
00000260: 5c3b 3dbd ab9d ea3d 64e5 8d3c 22ba 38bd
00000270: 2050 b23c b223 d9bd 233f 643e 3c96 aa3b
00000280: cdc1 30be 7a3a 7bbc dba8 acbd 6832 d5bd
00000290: 28ca bfbd 130f cebd a581 67bd db4d b73d
000002a0: 8d9d ed3c 9760 f1bc 0bd4 5c3c d5a8 adbd
000002b0: efe0 42bd b6cb 4a3d f629 133d d647 19bb
000002c0: edb8 01bd fe07 7fbd eba9 93bd 893b 503d
000002d0: e3a0 a1bd 7457 e2bc c3f3 1cbe 7fde a73c
000002e0: b6d9 6fbd 7674 b63c ded0 7abd 4836 6c3d
000002f0: c012 f2bd 480c e4bd fd85 42be c082 403d
00000300: 97cb 463d a074 d8bd c6ae 0cbd d7f7 4b3d
00000310: 28ef a23a 5ebe cf3d bc7f 87bc 9654 b5bd
00000320: 262b 503d 0b29 11ba 3377 d7bd 28dc 97bd
00000330: 6a40 863d b370 333d 4639 1fbd a8a1 37be
00000340: 3630 95bc 109e cbbc a436 7bbd 86b8 7e3d
00000350: 1431 003d d89d 0d3d 0a59 efbc 2b25 463c
00000360: c6fa d5bd d27e 42bd 552e b63b 8409 393d
00000370: a91a 16bd c2cd 58bd a4a3 9fbc 9ceb 3c3b
00000380: 3277 85bd 7701 893c fa58 0c3d 0e5a afbc
00000390: 66ea a9bd b114 363d c10e 83bd 2a60 fe3b
000003a0: 8028 733a 1129 0b3c 927a 64bc b578 48be
000003b0: f5b1 a13c d017 7bbd a563 0ebe cab8 313d
000003c0: d262 483d 7bc8 98bd 09d4 5abd a68c 0c3d
000003d0: afb6 70bd 72ef debd a86f b8bd 54b3 e2bc
000003e0: cc7c 413d 576f 60bd 3386 2a3d 4072 cabd
000003f0: f035 633c bfb1 9c3d 0875 42bc b26b a33d
-0.22613253 -0.0944788 -0.028208975 -0.02041002 -0.11662895 -0.0038632466 -0.00491966 0.08395924
-0.09150447 -0.1214522 -0.02381687 0.042201273 0.020912753 -0.0977594 0.07973628 -0.0025109435
-0.073483646 -0.028638985 -0.072234064 -0.09291267 -0.17754664 0.06917827 0.017336505 -0.10365505
-0.11721254 0.00076132827 -0.10384414 0.028289303 0.016051224 0.07096688 0.028836126 -0.015571638
0.08141615 -0.04942118 -0.040463325 -0.096794225 0.02332398 0.013682873 0.050690822 0.051994994
0.053262375 -0.14563273 -0.01187768 -0.12272999 0.059776563 -0.035098486 -0.1603985 -0.042801835
-0.07324687 -0.12341863 -0.012938783 -0.084016345 0.024304565 -0.022020467 -0.005939574 -0.005164258
-0.11506362 -0.039735377 -0.026337508 0.052660454 -0.14256807 -0.022006776 0.046947494 -0.08890205
-0.030115284 -0.07628908 -0.088860534 -0.12395078 0.114892855 -0.10045248 -0.06635045 -0.19664185
-0.05949349 -0.09031418 -0.09836609 -0.11313328 -0.19834208 -0.08705977 -0.124598965 0.013066117
-0.28931752 0.047568277 -0.1912411 -0.07780166 0.03493986 0.0050818264 -0.040492784 -0.047195137
-0.11896064 0.14496568 0.07048893 -0.059259832 -0.20350371 -0.035961322 -0.04895421 -0.024280785
-0.065759495 -0.1713832 -0.03553055 0.019422127 0.16511872 -0.028391346 0.15837893 0.11325579
-0.0003342796 0.088131875 0.053758796 0.026412442 0.027945286 0.08437184 -0.1175277 0.12490297
-0.015655965 0.062821254 0.070561044 -0.057915855 0.04003552 -0.10675763 0.09014189 -0.15966032
-0.0011558776 -0.020438273 0.070263036 0.080400914 0.08081927 0.01120248 -0.058827173 0.19054481
0.07710375 -0.1752118 -0.08117406 0.0505238 0.06304963 0.040736135 -0.022732496 0.031735614
-0.09423279 -0.024908371 0.18801259 -0.13670538 0.18305455 -0.10405159 -0.008201559 -0.11267391
-0.06024506 -0.039461788 -0.041313663 -0.12492494 -0.22635359 -0.055279803 0.17647266 0.027382838
-0.046199188 0.11455854 0.017321296 -0.045099385 0.021766722 -0.106025115 0.2228971 0.0052058976
-0.17261429 -0.015333766 -0.08430644 -0.10410005 -0.0936473 -0.10061469 -0.056520123 0.089503966
0.02900579 -0.029465003 0.013478289 -0.08479468 -0.047577795 0.04951068 0.03592869 -0.0023388765
-0.0316705 -0.06226348 -0.07210144 0.050838027 -0.07892015 -0.027629592 -0.15327363 0.020491837
-0.058557235 0.02227233 -0.061234348 0.057668954 -0.118199825 -0.11135155 -0.18996425 0.046999693
0.048534002 -0.105691195 -0.034346364 0.049796905 0.0012430893 0.101437315 -0.0165404 -0.08854024
0.0508224 -0.0005537427 -0.10520782 -0.07415038 0.06555255 0.04380865 -0.03887298 -0.1793276
-0.018211465 -0.024855644 -0.061331406 0.062187694 0.031296805 0.03457436 -0.029217262 0.0120938225
-0.10448222 -0.047484227 0.0055597224 0.04517509 -0.03664652 -0.0529306 -0.01948721 0.0028826958
-0.06516875 0.016724331 0.034264542 -0.021405246 -0.08296661 0.044453327 -0.063992985 0.0077629285
0.00092757493 0.008493678 -0.013945239 -0.19577296 0.019738177 -0.061302006 -0.13905199 0.04338912
0.048922367 -0.074601136 -0.05342487 0.03431382 -0.05876797 -0.10885514 -0.09005672 -0.027673401
0.047238156 -0.054793682 0.04163189 -0.09885073 0.01386784 0.0765109 -0.011868723 0.079795256

encoder.linear4.bias f4 [40]
00000000: aa2b 13bd f9dd c6be fe95 0bbe 4b16 d2bd
00000010: af78 52bd 0e04 e1be a633 0ebe 6e94 babc
00000020: e045 fc3e 8093 a4bd 7f12 703e e3ea 333e
00000030: 522f 16be 4a94 42bd 5aba 79be f2fa 82be
00000040: 4db3 b1bc bd51 1d3f f151 9d3c 009a 57be
00000050: 2434 d9bd a33c 5c3d d387 fbbc ed12 98be
00000060: 4145 f3bd bf22 ecbd 1663 863f 42cd 7b3e
00000070: 09c8 71bd 8564 163b e714 8bbd 44d0 20be
00000080: 301f 4f3f 4e65 6c3d d469 a7be f19f f1bd
00000090: bccf 343d b9cf 1cbe c2cf d4bc 7a2b 2abd
-0.035930313 -0.38841227 -0.13631436 -0.10258158 -0.051384624 -0.43948406 -0.1388689 -0.022775855
0.4927206 -0.08035946 0.23444556 0.17570071 -0.14666489 -0.0475047 -0.24387494 -0.2558208
-0.021691943 0.6145285 0.019204112 -0.2105484 -0.10605648 0.053768765 -0.030704414 -0.2970194
-0.118784435 -0.11530065 1.0498989 0.24590018 -0.05902866 0.0022948098 -0.06791096 -0.15704447
0.80906963 0.0577138 -0.32697928 -0.117980845 0.044143423 -0.15313615 -0.025977973 -0.04154537

encoder.linear5.weight f4 [20, 40]
00000000: bfe0 0abc 5113 d33d dd41 f03d 9904 eabd
00000010: a384 193e 7a38 9dbd 9e61 a7bc 9f1c 6a3e
00000020: 6c71 72bd 81f6 0dbd a734 51bd a968 59bd
00000030: a8dc a33c 30cf 8cbc 34cf 833e a13f 203e
00000040: 63e5 f9bd 0865 173d bca8 32bd 1c5e f23c
00000050: deba 083e df55 19be ab27 353e 6cc8 503e
00000060: 2766 4ebc a0bf 24bd 4e5e ad3e 5379 2a3e
00000070: ef20 f0bd 41c3 08be 5257 e7bd d8a9 b23d
00000080: c292 753c a734 403e 3380 e8bd a6fb 963b
00000090: d601 f53d 47c0 26bd 88ca a2bd e7fb ffbd
000000a0: 1d65 94bd b98f 023d e027 133d 2a3d 46bd
000000b0: 8f18 83bd 9670 23bd 4ed3 dabd 1a3d 0c3e
000000c0: 65a0 3abe 0876 3fbd 95b1 94bd 0c92 debb
000000d0: df86 8abc ee75 00be 2b5e 39be d704 2ebe
000000e0: 4918 0a3e 63a2 63bd 7185 cebd cedd e1bd
000000f0: 31f5 e8bd b3a7 9dbd 47f2 80bd 0bc1 fdbd
00000100: 3cb9 21bd b36a 013e 1e27 04be 1d09 9ebc
00000110: 3771 173e 81af 8d3d 0c89 1b3d 993f b43c
00000120: 5dbf d3bd aa57 35be 240d c7bd 95eb 24be
00000130: 1a93 ec3d 8079 af3a 29de 0dbe c100 f2bd
00000140: c56f 10bd d3f5 d03d a41a 9e3c 0f07 15bd
00000150: 3a76 74bd 08fc 55bd f808 be3d feb7 11bd
00000160: 6ee9 76bd c07b a13e 4bc0 8c3e 54a8 163e
00000170: ffd5 ad3d c267 963d e8d6 47be 10b1 b83d
00000180: a759 20be 7889 4b3e 0ff0 39bf d7bb 24be
00000190: ebd2 213d c536 92bd 2d2d f03c 2a3e 823b
000001a0: 31fd 653d cfe7 d8bd f9e9 13be 62f5 d83d
000001b0: b27a 12be bccf 2e3d f984 b53d 9597 1abf
000001c0: 33e0 423d b79f 123d ec1a 11be cb9c bbbd
000001d0: bc45 2f3e eaca e8bd 7206 4dbc a10a 013e
000001e0: fb7d a83d 3669 853d bfed c73c 66b9 95bc
000001f0: ca0a 25be 43fe a03c 289a 1dbb 316f 243c
00000200: 3225 bb3d be28 4cbf a3c7 863e 4049 9dbd
00000210: 8c1b aebc ff9d 693d f180 503d dea9 ec3d
00000220: d64c 093d 7b45 193e 3f7c 643e d8ec ec3d
00000230: 8600 babd b8eb 173e a2e9 d0bd f899 063e
00000240: 012f c3bd e868 423d 45ba 50be 0b6c babd
00000250: fe09 f9bb 3f62 d03e 2eb5 97bc 83ca 0a3e
00000260: ffe9 c8bd 56e9 823d 74cf 3fbe 49e6 733d
00000270: d5fb 23bd 8fe3 e43b bba8 d0bd a26a b23c
00000280: 15e9 073e cd76 6e3e 2ce8 25bd f368 5dbd
00000290: de75 29bd b5c8 ec3d 398c bd3d cd1a b8bd
000002a0: f5d4 8bbd c21d 69be 8c56 ed3d 89aa 6cbe
000002b0: 1c57 b3bd 9025 d1bd 37dc 57be 32e0 4d3e
000002c0: 3915 41be 958a 3a3c a8cf 04bb fee6 eabc
000002d0: 7cd7 0dbd 0842 f83d 7281 9fbd 34f9 9c3d
000002e0: 45a2 4cbe f6b1 15be 72f5 c0b9 cc48 3bbd
000002f0: f606 24bd 8d2e 8a3e a058 20be a041 003e
00000300: 5897 5d3e 27ef 06bd 86e9 b0be 8431 0dbe
00000310: 5cbd cb3d 9d18 053d 1a5d 6e3e f12e 6bbd
00000320: eeba ed3d 640b c03c fd5a 1bbe 3aa5 b63c
00000330: 4a61 913c b0dd 303d ea32 d4bd 33ba 073e
00000340: b33f 68be 70bc bcbd ff71 8f3e 81fc a5bd
00000350: 5466 1dbe c6ff 723d 4031 523b 22b0 26bc
00000360: 491c ecbc 2cca d8bd 2a89 153e dddf bebd
00000370: 46d2 273e 51ba 59be 5621 3c3e 4a7d 5dbd
00000380: 21c1 bf3d b98c 12be c0ad 713e 7a5a 013d
00000390: efc0 02be ac09 9c3e 28c3 943d 4a5e 26bd
000003a0: 91d8 273e b207 be3d ffcc cebd cb37 98bd
000003b0: e1a4 b5bd 4089 86bd 9d72 50bd 0170 f03d
000003c0: 9565 cd3d b16a 00be 80f7 1cbe dad3 c83d
000003d0: 3acd 523d 1768 ce3d 962d 1e3d 2844 f33b
000003e0: 205b 513b 4a6b 1f3d 7319 2fbd 92ab 903d
000003f0: e358 d2bd ddec f6bc be86 2e3c 9f70 cf3d
-0.008476435 0.10306419 0.117313124 -0.11426658 0.14992003 -0.07676788 -0.02043229 0.2286248
-0.0591902 -0.034658913 -0.051075604 -0.053078327 0.020002678 -0.017188638 0.2574402 0.15649273
-0.12201955 0.036961585 -0.04361795 0.02958589 0.13352534 -0.14974163 0.17690913 0.20388955
-0.012597597 -0.04022181 0.3386101 0.16647844 -0.117250316 -0.13355733 -0.11295952 0.087238014
0.014988603 0.18770085 -0.11352577 0.0046076356 0.11963241 -0.040710714 -0.07948786 -0.124992184
-0.07245848 0.031875346 0.0359267 -0.048398174 -0.064011686 -0.039902292 -0.106848344 0.13695183
-0.18225248 -0.046743423 -0.072604336 -0.0067923125 -0.016910015 -0.12544987 -0.18102328 -0.16994034
0.13485827 -0.055574786 -0.10084046 -0.11028634 -0.113748915 -0.07698002 -0.06296211 -0.12390336
-0.039483294 0.12638359 -0.12905547 -0.019291455 0.14789282 0.0691824 0.037972495 0.022002982
-0.10339234 -0.17709222 -0.09719303 -0.16105492 0.11551495 0.001338765 -0.13854279 -0.1181655
-0.03526284 0.10203137 0.019299813 -0.036383685 -0.059683062 -0.05224231 0.092790544 -0.03557586
-0.06028121 0.31539726 0.27490458 0.1471265 0.08488082 0.07344009 -0.19515574 0.09018147
-0.156592 0.19876659 -0.72631925 -0.1608728 0.039507788 -0.07139353 0.029318416 0.0039746957
0.056149665 -0.10591089 -0.14444722 0.10593678 -0.14304617 0.04267858 0.08863253 -0.60387546
0.047577094 0.035796847 -0.14170426 -0.09160765 0.17116445 -0.11366828 -0.012513744 0.12601711
0.08227154 0.06514208 0.024405358 -0.018276881 -0.16117397 0.019652491 -0.0024048183 0.010036276
0.09137954 -0.7974967 0.26324186 -0.07679987 -0.02125337 0.057035442 0.050904218 0.11555837
0.033520542 0.14967911 0.22313021 0.11568612 -0.09082131 0.14836013 -0.10200812 0.13144672
-0.0953045 0.047463328 -0.20383556 -0.09102639 -0.007600068 0.40699956 -0.01851901 0.13553815
-0.09810256 0.063921615 -0.18731481 0.05954579 -0.040035088 0.006985135 -0.10188433 0.021779362
0.13272507 0.23287506 -0.04050462 -0.054055165 -0.041372173 0.11561719 0.09255261 -0.08989487
-0.06827728 -0.22765258 0.11588773 -0.23111929 -0.08756849 -0.102122426 -0.21080099 0.20105055
-0.18855752 0.01138558 -0.0020265374 -0.028674599 -0.03462933 0.121219695 -0.077883616 0.07664719
-0.19983776 -0.14618668 -0.00036803965 -0.04572372 -0.0400457 0.2698864 -0.15658808 0.12525034
0.21639764 -0.032942917 -0.34553164 -0.1378842 0.09948227 0.032494176 0.23277703 -0.057417814
0.1160792 0.023442931 -0.15171428 0.022295583 0.017746586 0.043180168 -0.103612736 0.13254623
-0.2268055 -0.09215629 0.2801666 -0.08104802 -0.15371066 0.059325956 0.0032072812 -0.010173829
-0.028822081 -0.10585436 0.14603105 -0.09320042 0.16388807 -0.2126248 0.18372092 -0.054074563
0.09363008 -0.14311494 0.23601437 0.031580426 -0.12768911 0.3047613 0.072637856 -0.040617265
0.16391207 0.092788115 -0.10097694 -0.07432517 -0.08869339 -0.06569147 -0.050890554 0.11740113
0.10029141 -0.125407 -0.15328789 0.098060325 0.05146525 0.10078447 0.038617693 0.0074238963
0.0031945184 0.03892068 -0.04274888 0.070639744 -0.1027086 -0.030142242 0.010652242 0.10128903

encoder.linear5.bias f4 [20]
00000000: 343e 5cbe 9683 3d3d 208b 543d 0047 063e
00000010: 179b a43e 6d56 4c3e 9150 babc d735 57be
00000020: 1f8a 4c3f 5f96 81bd 2d99 673d a2b2 3d3e
00000030: fe4c 6dbe 9692 013f 9148 0f3e 1d67 36bd
00000040: 9ea1 9b3e de3f 74be 851c 743f cf1b 3f3f
-0.21508104 0.04626807 0.051890492 0.13113022 0.32149574 0.19954844 -0.022743495 -0.21016632
0.79898256 -0.06327509 0.056542564 0.18525174 -0.23173901 0.506143 0.13992526 -0.04453193
0.30396742 -0.23852488 0.9535602 0.7465181

encoder.linear6.weight f4 [5, 20]
00000000: c751 9cbe 5e21 20be 8fbf 1f3e 1742 bbbe
00000010: 0d77 9d3e e935 9a3e 96cd 99bc 1f34 85bd
00000020: dec4 00be d640 03be b423 a33d 7b34 8ebe
00000030: 936a 863e 9c20 fe3d 4018 453e 1b39 053e
00000040: 3cf9 c1bd c588 5b3d cf92 5f3d 1a7a 07be
00000050: 2d35 f1bb 13c7 623e 9773 a03e ed42 72be
00000060: f43c 0ebe c7f8 84bd 9155 16be dc38 94bd
00000070: 994d 313e 6e85 183e a397 513e 8e5e 92be
00000080: a05c 3e3d 4802 8b3e 60e8 35bc 6a88 47bd
00000090: cdae a23d bebb babd 6fbf 083f 7738 b73e
000000a0: 93e7 603e b950 083e 3386 303d 68eb 1dbe
000000b0: 3607 8fbc a356 bb3e 7b02 f3bd 2284 e03d
000000c0: 7b41 a03e 66f8 023d 43dc 863d 030e 34bd
000000d0: dab5 4d3e e540 3c3e bb06 813e 8a3a b4bd
000000e0: 0dae 45bd 93b8 543e 881b 23bd be0f 0abe
000000f0: f539 b6bd 0dc7 a03d 13a6 b8be 0f29 ce3e
00000100: 9fb8 4b3d 10c8 fd3d 021f b0bd 3e21 c03c
00000110: 2ff7 523e 9036 ddbc 9dfa f3bd d228 363e
00000120: 86d3 43be e547 0e3e 415c 163e 95fd 413d
00000130: a283 943e 2a90 11be 806d 1e3e 5b23 143e
00000140: 75bf 223e 99a4 333e fae1 f4bd 5076 11bc
00000150: f138 8bbe 2771 ffbb d062 053e 061f 68be
00000160: 68ef d2be af18 0bbe 7390 673c 5311 c3bd
00000170: 3036 6c3e 1190 b8bd c2aa 973d 1306 76bd
00000180: 67fb 043e 32c1 1c3e c8a7 e93d 9b26 3f3e
-0.3053114 -0.15637729 0.15600418 -0.3657386 0.3075489 0.30119255 -0.018774789 -0.06504082
-0.12575099 -0.12817702 0.07965794 -0.27774414 0.26253185 0.124085635 0.19247532 0.13010065
-0.09471366 0.05359723 0.054583367 -0.13230172 -0.0073610754 0.22146253 0.31338188 -0.23658343
-0.1389044 -0.06492763 -0.14681078 -0.072374076 0.17314757 0.1489465 0.20468001 -0.28587765
0.046475053 0.27150178 -0.011102766 -0.04871408 0.07943497 -0.0911784 0.53417104 0.35785267
0.21963339 0.13312043 0.043096732 -0.15421832 -0.017459493 0.36589536 -0.118657075 0.10962702
0.31299958 0.031975172 0.0658498 -0.043958675 0.20088902 0.1838413 0.25200447 -0.08800228
-0.04826169 0.20773534 -0.039821178 -0.13482568 -0.08897773 0.07850466 -0.36064205 0.402657
0.049736615 0.123916745 -0.08599664 0.023453351 0.20602106 -0.027003556 -0.11913035 0.17789009
-0.19123659 0.13894613 0.1468363 0.047360975 0.29006678 -0.1421515 0.15471458 0.14466612
0.15893348 0.17543258 -0.11957164 -0.008878306 -0.2719188 -0.007795471 0.13025975 -0.22668085
-0.41198277 -0.13583635 0.0141335605 -0.09524789 0.23067546 -0.090118535 0.07405616 -0.060064387
0.12986527 0.15308073 0.11408955 0.1866707

encoder.linear6.bias f4 [5]
00000000: 5275 cfbd 6f35 493e 5aea 6cbe ce14 4a3d
00000010: bbcb 47be
-0.10129799 0.1964929 -0.23136273 0.049336247 -0.19511311

encoder.linear7.weight f4 [2, 5]
00000000: 599f 8e3d 436e 033d f680 793e 49c3 d3be
00000010: a275 34be f7a7 a33e fdbe a93e 967a 9dbe
00000020: 31d7 26be 4071 683e
0.06963987 0.032087576 0.24365601 -0.41359928 -0.17622998 0.31964085 0.33153525 -0.30757588
-0.16293027 0.22699451

encoder.linear7.bias f4 [2]
00000000: eb28 963e 137d 29bf
0.29328093 -0.66206473

encoder.linear8.weight f4 [2, 5]
00000000: 21a9 b03e 89ab 26bf ae10 6fbe 4862 d1be
00000010: 733b c53f 336f 393e e75e 0abf d8ce 53be
00000020: 9712 f0be 5c28 8f3f
0.34504035 -0.6510549 -0.23346207 -0.40895295 1.5408767 0.18108825 -0.5405106 -0.20684373
-0.46889183 1.1184192

encoder.linear8.bias f4 [2]
00000000: cb03 cdbf 2ee8 b8bf
-1.6016783 -1.4445856

decoder.linear1.weight f4 [5, 2]
00000000: 22af d2be fdf6 893d 3d54 3cbf 9650 bb3e
00000010: 1515 06bf 5867 29bf c248 f7be 7e0e 913e
00000020: 3626 debe e039 c1be
-0.4114924 0.067365624 -0.7356604 0.3658492 -0.5237592 -0.66173315 -0.48297697 0.2833137
-0.43388528 -0.37739468

decoder.linear1.bias f4 [5]
00000000: 3087 ff3e c927 1abd cef2 7dbd a14f 2fbe
00000010: 721a ee3e
0.49907827 -0.0376356 -0.061999135 -0.1712022 0.4650455

decoder.linear2.weight f4 [20, 5]
00000000: 2098 fe3c eff7 6abe 54e0 91be 1468 a7be
00000010: a704 d8be b50c 933d 6ce9 43bd b7a3 713e
00000020: 7e3f 5bbe e0f3 803e 02eb f23e fa5b 4a3d
00000030: 19f8 593e 9b6f f73e 319e acbe 6b89 d43e
00000040: 80c3 8dbd 17e4 b3be e0be 5cbd 3054 a0bd
00000050: 7ba2 ce3e fe1c 3f3e af44 9c3b 846a 1abe
00000060: 08de a3be d9eb 423e 1e5e 4a3e 23ad fd3e
00000070: 6b75 debd 426a f33e b592 ddbe a6e8 a3be
00000080: 26f4 0fbe 9e0a a53e 70fe d4bd f5e3 a9be
00000090: 6fae a63e df65 4abe 613a 003e f11f e73d
000000a0: 07e9 3a3f b725 843e e9d6 3f3b bef9 083f
000000b0: 23a5 f4bd fe8a 173f 68c4 183f 9dd5 8c3c
000000c0: 900c 1c3c f9d6 0dbe 2644 253f e3c3 d6ba
000000d0: 3246 fc3e 82b4 943e 0bfc 593f d4c1 22bd
000000e0: 7ce1 ac3e 0b1d c03e 42ca 83bd 1464 5cbf
000000f0: f2e1 8c3e 6a71 153f df65 0d3f 4ab1 9f3e
00000100: 1e2e 493f 3f73 e93e 34a7 083e 3eab febd
00000110: d33d a93e 21f4 683e 4278 4cbf f22c 9bbe
00000120: 25bd 373e 90ed b4be a5f8 d63e d187 c83e
00000130: 1cc2 1e3e 14a7 d6be dc1c 3e3f a53f 02bf
00000140: df5e debe f8c7 d6be 8c7f c0be 877a aabe
00000150: 7497 9f3e 6d0f a13e 8045 80be dd21 3f3f
00000160: 4956 8cbe f353 c93e 4110 4dbe 5035 c83d
00000170: b380 a7be 9ad6 91bd 4004 8abe fcdf 21be
00000180: 765e 04be f03f 033e 10ef aa3d 3511 9ebe
0.031078398 -0.22946142 -0.2849146 -0.32696593 -0.4219105 0.07180158 -0.04783003 0.23597609
-0.21410939 0.25186062 0.47444922 0.049404122 0.21286048 0.48327336 -0.3371444 0.41511092
-0.06922054 -0.35134956 -0.05389297 -0.078285575 0.40358338 0.18663403 0.00476893 -0.15079695
-0.32005334 0.19035281 0.19762465 0.49546155 -0.108622395 0.47542006 -0.4327599 -0.32013434
-0.14057979 0.32234663 -0.104000926 -0.3318173 0.32554957 -0.19765423 0.1252227 0.11285389
0.7301182 0.25810024 0.0029272384 0.53506076 -0.1194556 0.5919646 0.5967469 0.017191702
0.0095244795 -0.13851537 0.6455711 -0.0016385283 0.49272305 0.29043967 0.8515021 -0.03973563
0.3376578 0.37522158 -0.06435062 -0.8609021 0.27516133 0.5837618 0.5523357 0.31189948
0.78585994 0.45595738 0.13345033 -0.124350056 0.3305498 0.22749378 -0.79871 -0.30307728
0.17943247 -0.35337496 0.41986576 0.3916612 0.15503734 -0.41924345 0.74262786 -0.50878364
-0.43431756 -0.4194944 -0.3759731 -0.33296606 0.31170237 0.3145708 -0.25053024 0.74661046
-0.2740958 0.3932186 -0.20025732 0.097757936 -0.32715377 -0.0712101 -0.26956367 -0.158081
-0.12926659 0.12817359 0.08346379 -0.30872503

decoder.linear2.bias f4 [20]
00000000: 55b3 b7be 7793 82bc 57ef 9b3e 32c2 e73e
00000010: 29c3 0b3f 7da7 45bd 9658 53be dd27 aabe
00000020: dc43 713d 2a4d 793d c1ef 00be 8e34 0b3f
00000030: 35f2 96bd da0a 8e3e efdd a33e c2ec 5b3e
00000040: a09d f0bd 39dd c5bc 87cf 113f 5fc8 77be
-0.35879007 -0.015939457 0.3045604 0.45265347 0.54594666 -0.048255432 -0.20639262 -0.33233538
0.058902606 0.060864605 -0.12591459 0.5437707 -0.07370416 0.27742654 0.3200526 0.21477035
-0.117488146 -0.024153339 0.56957287 -0.2419753

decoder.linear3.weight f4 [40, 20]
00000000: bcfe 423e 318a 08be e66f 943e 3664 453e
00000010: 3082 e9bc a6af 023b 7883 f2bc c5b5 a63d
00000020: d6ca aabd 4eb9 4a3e a06b 82be 5340 123f
00000030: 359c 04bf aa9e 08bd 3184 d03e 91f1 c93d
00000040: 6cd1 a3bd 9e54 923d f80f 833e 7e8a 103e
00000050: cc38 e6bd 9d0b 75be 3a4e 973e 173f 943e
00000060: 6623 103e 15c8 77bd 1943 f5bd 438c 553c
00000070: 8737 d63e 0126 a7bc 1f85 263e 042d 8abc
00000080: 150d 493d 0b8b 743e 79d7 d8be b685 593e
00000090: 6ce9 cc3d 9b62 94bd 6b46 443d 7686 393e
000000a0: 58c9 3a3d 8c23 24be 4c65 63be a89e e83d
000000b0: c7b2 5bbe b48a 3e3e 245e 30be 7df9 5abe
000000c0: 1c5b 413e e0c1 9fbd 4c6f 2dbe 52df 373e
000000d0: d97b 08be ec59 8c3d 985c 95bd 80d5 a2ba
000000e0: 04e3 123e 42d7 243e a81b 06be 20a9 443d
000000f0: e4c3 eb3d 901d 803d cb4d 52be c214 4b3e
00000100: 80c5 843d 52a2 1ebe cae7 093e 50a6 5cbc
00000110: e28e 41be 00c6 1e3d eeb0 3cbe 943e 0bbe
00000120: 369a 02be f87e 62bd 4048 663b 38d1 99bc
00000130: d88a 453d 94be bf3d 7870 103e 1669 bbbd
00000140: 7891 633e f381 07be 6987 43bd 7568 a83d
00000150: 5d3a 143e 46ba 0b3d 1635 5a3e c362 f93d
00000160: afd7 c23e eb5a 7a3e e740 9e3d 2610 963e
00000170: dfa1 2fbe e74d 773e 15dd 24bf 1dff c63e
00000180: 802f 843b 8086 113e 11f5 f9bd f28b a5bd
00000190: 5050 4d3e 86d0 c2be 8991 5c3e 57ee 3f3c
000001a0: c7a2 863d 63ce 10be a069 a03b a59c eabd
000001b0: 27fe e43e def6 9b3e a27a 7fbe a197 d03e
000001c0: 4238 1dbe d34f 6c3e ca57 03bf e8bd ac3e
000001d0: 78f5 38be 716d c9be 56f7 923e 3cb4 8dbd
000001e0: fe54 173e c11f 9c3d ae9a 503e d0d8 d83b
000001f0: 9d1a e43d c7f0 193e 306c f03c b54c 96bd
00000200: f583 b53e cfc7 1d3e ab0a 8dbe b25b f93e
00000210: f48b 4abe 7f55 123e 95a2 323e 1a97 e73e
00000220: 1f89 053d bcbf e1bc 87e0 653e 6e91 0bbe
00000230: ccd8 5a3e 7750 643e c972 aa3d 7c17 e83d
00000240: 3352 5b3e 1e7a 973e 80a8 32bd f844 acbd
00000250: ed8c e53e 5caf da3e 5460 023f 70b8 5fbe
00000260: 14fb 8a3e 458e 1a3e 0a57 02bf 7a4e d73e
00000270: 674e fd3d 0303 89bc 5606 183d 24eb 103e
00000280: ca29 593e 771f bf3e 783d 6e3c 1a6a f1bd
00000290: 6d0d 693c c061 853d 86a2 1a3e b0c3 eb3c
000002a0: 8a23 e5bd fc90 0a3d 6759 a63e e515 05be
000002b0: 76df 563e ab27 5e3d 9d69 5b3f 5f4f e8be
000002c0: 500d 41be feb7 233f b192 b2bb 4045 70bb
000002d0: 2c28 b23d 712e 883e 3f93 343e d529 463d
000002e0: 47a8 933e 158c b33e ae60 4b3e 499f 723d
000002f0: dc70 f83e 6085 9b3e afaa b63e bb7e bbbd
00000300: 212b bb3e faee 583e eb40 eabe 7064 573d
00000310: f4f6 16be f8d5 db3e 84bf 0f3d bcf2 3a3e
00000320: e488 bb3d 394f a1be 5838 9b3d ab9d 993d
00000330: 3cc0 623e 5ffc f4bd d090 15bd e1c9 fabd
00000340: 3b61 b83e 755b c93d e935 8abd 5503 2b3f
00000350: 1f58 95bd cd9a 063b 7923 34bf 3713 0b3f
00000360: 63ed 7fbc d3a0 56be 9dc8 38be 4042 533e
00000370: a033 46be 125f 1b3e b094 0bbe fec9 613e
00000380: aeb7 89bd 340f 13be bf5b ddbd 5838 5fbe
00000390: 7e4a e6bd cbf0 0fbe 7cc6 78bd 341c 46bd
000003a0: 0891 e53d d446 bebd ec82 a1bd e8fa 413d
000003b0: 0060 5e3d 28e6 21be ecf6 49be 407f 473e
000003c0: 844b 06bd 38ea a53d 41b0 40be 3e2e afbd
000003d0: aa17 36be 9cf5 903d 0087 d43d 0cd9 ee3d
000003e0: 5463 893d 8da7 d6bd e40b e93d 7e27 303e
000003f0: 16d7 c0bd 4cc5 2fbe 3864 90bd 822d 4a3e
0.19042486 -0.13333966 0.28991622 0.19276509 -0.028504461 0.001994112 -0.029603705 0.081401385
-0.08339469 0.1979725 -0.25472736 0.571294 -0.51800853 -0.03335444 0.40725854 0.09860528
-0.079989284 0.07145046 0.2559812 0.1411533 -0.11241302 -0.23930211 0.2955187 0.28954384
0.14076003 -0.060493547 -0.119756885 0.013033929 0.4183924 -0.020403864 0.16261719 -0.016867168
0.04908474 0.23881166 -0.42351893 0.21242413 0.10005459 -0.0724537 0.04791872 0.18117699
0.045602173 -0.16029185 -0.2220661 0.11358386 -0.21454917 0.18607599 -0.17223412 -0.21384235
0.18882412 -0.078006506 -0.16936988 0.17956284 -0.13328494 0.06853089 -0.072930515 -0.0012423247
0.14344412 0.1609774 -0.13096488 0.048012853 0.115119725 0.062556386 -0.20537488 0.19832137
0.06482983 -0.15491608 0.13467327 -0.013467386 -0.18902162 0.038763046 -0.18426868 -0.1359809
-0.1275414 -0.055296868 0.003513828 -0.018776521 0.048228115 0.09362522 0.14105403 -0.09150903
0.2222346 -0.13233165 -0.04773656 0.082230486 0.14475389 0.03411319 0.21309313 0.121770404
0.3805518 0.24448745 0.07727223 0.29309195 -0.17151593 0.24150811 -0.64399844 0.3886651
0.0040339828 0.14211464 -0.12204946 -0.08083333 0.20050168 -0.38049716 0.21539892 0.0117145395
0.06574016 -0.1414123 0.004895404 -0.11455659 0.44725153 0.30461782 -0.24949124 0.40740684
-0.15353492 0.23077326 -0.5130583 0.33738637 -0.18062389 -0.3934131 0.28704327 -0.069191426
0.14778516 0.07623244 0.20371506 0.006617643 0.111378886 0.15033256 0.029348463 -0.073388495
0.35452238 0.15408252 -0.27547202 0.4870277 -0.1977995 0.14290427 0.17444833 0.4523247
0.032601472 -0.027557246 0.22448932 -0.13629696 0.21371764 0.2229632 0.08322675 0.11332604
0.21418075 0.29585356 -0.043617725 -0.08411592 0.4483408 0.42711914 0.50928235 -0.21847701
0.27144682 0.15093334 -0.5091406 0.4205206 0.1236847 -0.016725069 0.037115417 0.14152199
0.21207348 0.37328693 0.0145410225 -0.117878154 0.014224392 0.06512785 0.1510106 0.028779835
-0.11188419 0.033829674 0.32490084 -0.12996633 0.20983681 0.05423705 0.8570803 -0.45373055
-0.18852735 0.63952625 -0.005449616 -0.003666237 0.086990684 0.26597932 0.17634295 0.048379738
0.28839323 0.35067812 0.19861099 0.059233937 0.48523605 0.30375195 0.35677096 -0.09155031
0.36556342 0.21184912 -0.45752653 0.05258602 -0.14742643 0.42936683 0.035094753 0.18256658
0.09156969 -0.31505755 0.07579106 0.07500776 0.22143644 -0.119621985 -0.036515057 -0.122455366
0.3601168 0.09831897 -0.06748564 0.6680196 -0.072921984 0.0020539046 -0.70366627 0.54326195
-0.015620562 -0.20959787 -0.18045278 0.20630741 -0.19355631 0.15172985 -0.13630939 0.2204971
-0.06724487 -0.14361268 -0.10808515 -0.21798837 -0.11244677 -0.14056699 -0.060736164 -0.04836674
0.11209303 -0.09290853 -0.078862995 0.047358423 0.05429077 -0.15810454 -0.197231 0.19482136
-0.03278686 0.08101314 -0.18817236 -0.08553742 -0.17782465 0.07078096 0.10377312 0.11662492
0.067083985 -0.104811765 0.11379221 0.17202565 -0.094160244 -0.17165107 -0.07050365 0.19743922

decoder.linear3.bias f4 [40]
00000000: 5f0d e63e 6d37 a6bc e151 5fbe af39 62be
00000010: 72aa 5f3e 4572 ff3d 3d71 973e e11b ccbd
00000020: e6e2 113e 61e4 46be 368b a63d 7f00 11be
00000030: f788 ffbd 40c9 f4bd 8c8b ae3d 4041 c2bc
00000040: 8042 643d 74c6 0b3e c736 cc3e c5d2 963d
00000050: 2a91 e53e 4aef 873d 0c08 65be 0ce9 9dbd
00000060: 21b6 583e 0fa9 6f3e fdf2 7f3e 4141 52be
00000070: 7c83 c9bd fefb 5b3d 6d3a 023f 5270 8a3b
00000080: 7a81 db3c 979d bb3e 4c89 243e 9295 bf3d
00000090: c94c 413e 1fca a33e e1d7 ad3e 03d5 a73b
0.44932076 -0.020290101 -0.21808578 -0.22092317 0.21842363 0.12472967 0.2957858 -0.09966255
0.14246711 -0.19423057 0.08132021 -0.14160345 -0.12477296 -0.11952448 0.0852271 -0.023712754
0.05572748 0.13649923 0.39885542 0.0736442 0.44837314 0.06637438 -0.22366351 -0.07710466
0.21163227 0.23404334 0.24995036 -0.20532705 -0.09839532 0.053707115 0.508704 0.0042248154
0.026795138 0.3664367 0.16068 0.093547 0.18876947 0.31990144 0.33953765 0.0051218285
