state_dict_cVAE_Beta=2.pt (torch, 77611 bytes, 30 tensors)

encoder.linear1.weight f4 [20, 11]
0	0x3e36db2d	0.17857046
1	0xbdff94fe	-0.1247959
2	0xbe193d3f	-0.1496477
3	0xbd8a124e	-0.067417726
4	0x3d690e34	0.05689831
5	0xbda228b1	-0.079179175
6	0x3e54a004	0.20764166
7	0x3df38404	0.11890414
8	0xbe22d2bc	-0.15900701
9	0x3cbd7bda	0.023130346
10	0xbeb1238c	-0.34597433
11	0xbc2ef0d2	-0.010677533
12	0xbc87529c	-0.016518883
13	0xbe55367e	-0.20821568
14	0xbdbe6682	-0.092968956
15	0x3dd86142	0.105654255
16	0x3eb58dae	0.35459656
17	0xbe541b24	-0.20713478
18	0xbe1ab2a4	-0.15107208
19	0xbd63cbee	-0.055614404
20	0xbb9184e5	-0.004440891
21	0x3ce290e8	0.027656987
22	0x3da1cd90	0.07900536
23	0x3b3179e4	0.002708071
24	0xbea0777d	-0.31341162
25	0xbe789210	-0.24274468
26	0x3bff0d24	0.007783549
27	0x3d4e6868	0.05039254
28	0xbe800325	-0.250024
29	0x3dacdae7	0.0844019
30	0xbe781535	-0.2422684
31	0x3e1b6243	0.15174203
32	0xbea3c7a7	-0.3198826
33	0xbe479d41	-0.19493581
34	0xbe054457	-0.13014351
35	0xbe3bfc2e	-0.18357918
36	0xbded1870	-0.11576927
37	0x3ddabb59	0.10680265
38	0xbe13b7a3	-0.1442552
39	0x3e955314	0.29164946
40	0x3d62645e	0.0552715
41	0xbca50be5	-0.020147273
42	0x3e9631d9	0.29334906
43	0xbe9c52c8	-0.30531907
44	0xbd912fe8	-0.070892155
45	0xbe03c36d	-0.12867518
46	0x3dabac10	0.08382428
47	0x3dfd631e	0.12372421
48	0x3cc19f84	0.023635633
49	0xbb5068b0	-0.003180068
50	0x3da0e044	0.07855275
51	0xbcb9f51a	-0.022699881
52	0x3de16e50	0.110073686
53	0xbdb026ee	-0.08601175
54	0xbfdaa771	-1.7082349
55	0x3e7f0999	0.24906005
56	0x3e8dc917	0.27692482
57	0x3e395208	0.18097699
58	0x3d4a1137	0.049332824
59	0xbd02713a	-0.031846263
60	0x3daa2073	0.083069704
61	0x3e8af040	0.2713642
62	0x3e14bcd9	0.14525165
63	0xbe09f936	-0.13473973
64	0x3ed2050d	0.41019478
65	0x3fa1bef8	1.2636404
66	0xbe45b46e	-0.1930711
67	0x3e27f7fd	0.16403194
68	0xbd8bba4f	-0.06822645
69	0x3d8f74e7	0.07004719
70	0xbe559cd5	-0.20860608
71	0xbe6fb3a3	-0.2340837
72	0x3cde6660	0.027148426
73	0xbdd09756	-0.10185115
74	0x3d0691a7	0.03285375
75	0xbe93fc93	-0.28903636
76	0xbfc339e0	-1.5252037
77	0x3cd2f240	0.02575028
78	0xbe97995c	-0.2960919
79	0xbe187f7b	-0.1489238
80	0xbe794672	-0.24343279
81	0x3e6b0130	0.22949672
82	0x3d948e3c	0.072536916
83	0xbe879ac2	-0.26485258
84	0x3e3dc552	0.18532303
85	0x3d6983a0	0.057010293
86	0x3e22c9d8	0.1589731
87	0xbc584040	-0.013198912
88	0x3dbc83bd	0.092048146
89	0x3d84905a	0.064728454
90	0xbe033f28	-0.12817061
91	0xbd6f0b87	-0.058360603
92	0xbe03eaf0	-0.1288259
93	0x3e08e1fe	0.13367459
94	0xbe3fc310	-0.18726754
95	0xbe1e581e	-0.15463302
96	0xbed358e3	-0.41278753
97	0xbd149ba6	-0.03628125
98	0x3da3e2ec	0.08002266
99	0xbde810ac	-0.11331305
100	0xbecae1f6	-0.3962552
101	0xbebcdfc8	-0.36889482
102	0xbcbbebef	-0.02293965
103	0x3d642bf0	0.055705965
104	0x3e1f3f16	0.15551409
105	0x3e3b9a62	0.18320611
106	0xbd7f6132	-0.062348552
107	0xbbe2acbd	-0.0069175647
108	0x3dcf7408	0.10129553
109	0x3c287555	0.01028188
110	0xbdcebdd1	-0.10094798
111	0xbd939d94	-0.0720779
112	0xbcaccb88	-0.021093145
113	0x3dcbdd2e	0.09954296
114	0x3e2e81f5	0.17041762
115	0xbe462160	-0.19348669
116	0x3e2ccdc6	0.16875371
117	0x3c0b49bb	0.008501465
118	0x3d50b8c3	0.050957453
119	0xbe703df2	-0.2346113
120	0xbfd604ad	-1.6720177
121	0xbd9ffb53	-0.07811608
122	0xbd721e0d	-0.05911069
123	0xbdcb8cf9	-0.09938998
124	0x3e847c64	0.25876153
125	0xbe66da45	-0.225442
126	0x3ed5bfc4	0.41747868
127	0x3e7295c8	0.2368995
128	0x3e0c8fb8	0.137267
129	0xbd9d51e7	-0.07681637
130	0x3d7e68fc	0.06211184
131	0x3fd47584	1.6598363
132	0x3e3b0d39	0.18266763
133	0x3d6f7173	0.058457803
134	0x3d9280e1	0.07153488
135	0xbde43642	-0.11143161
136	0x3df43488	0.11924082
137	0x3e7fcde9	0.24980892
138	0xbe3838fe	-0.17990491
139	0x3cff9ecb	0.031203648
140	0x3dfc3aab	0.123158775
141	0xbe788421	-0.24269153
142	0xbea991bb	-0.33118996
143	0xbe35d9e2	-0.17758897
144	0xbe3ef9bf	-0.18649958
145	0xbe7f5bdc	-0.24937385
146	0x3d47a310	0.048739493
147	0x3e2cc27a	0.16871062
148	0x3dacdef2	0.08440961
149	0xbe5b3b70	-0.21409392
150	0xbe79a523	-0.24379401
151	0x3e284240	0.16431522
152	0x3e8aa569	0.27079323
153	0x3ece916a	0.40345317
154	0xbe293ca8	-0.16527045
155	0x3e813058	0.25232196
156	0x3d80f734	0.0629715
157	0x3e06ea59	0.13175334
158	0xbe1338e2	-0.14377168
159	0x3eaf1577	0.34196064
160	0x3e0c989c	0.13730091
161	0x3dad96fb	0.08476063
162	0x3d4bbee0	0.04974258
163	0x3e82b77f	0.2553062
164	0x3f3f86c2	0.74815
165	0xbe1fe687	-0.15615283
166	0xbeaf5220	-0.34242344
167	0xbe060492	-0.13087681
168	0xbe332adc	-0.17496818
169	0x3e891211	0.26771596
170	0x3e5a9545	0.21346004
171	0xbe24809c	-0.16064686
172	0xbcb4e830	-0.022083372
173	0xbd6a1d23	-0.057156693
174	0x3bb56608	0.0055358447
175	0x3e67ac49	0.22624315
176	0x3cdbafc0	0.026817203
177	0xbe4285fa	-0.1899642
178	0x3d54d9c1	0.05196548
179	0xbe9e5c01	-0.30929568
180	0xbd0ea9d2	-0.034829922
181	0x3e7300b0	0.23730731
182	0x3df4eacc	0.119588464
183	0x3ba09d92	0.0049015963
184	0xbddd9741	-0.10819865
185	0x3def15cd	0.1167408
186	0xbc2948ce	-0.010332299
187	0x3ddeec0c	0.10884866
188	0xbe531aa4	-0.20615631
189	0xbc5b9898	-0.01340308
190	0xbde4defc	-0.111753434
191	0x3cb5452c	0.02212771
192	0xbec9707a	-0.39343625
193	0xbe8aa76c	-0.27080858
194	0xbd9cb19b	-0.07651063
195	0xbdae89ca	-0.08522375
196	0xbdb313d0	-0.08744013
197	0xbedbb157	-0.42908737
198	0xbe272036	-0.16320881
199	0x3d74efe8	0.059799105
200	0xbe7fb46d	-0.2497117
201	0xbdafc480	-0.08582401
202	0x3e36f8fd	0.17868419
203	0xbe1ca7a5	-0.15298326
204	0xbde91edc	-0.11382839
205	0x3e8f431e	0.27980894
206	0x3dec01b8	0.11523765
207	0xbdba6575	-0.09101383
208	0x3df1a357	0.11798733
209	0x3e8a9dce	0.2707352
210	0xbe19679d	-0.14980932
211	0x3e344e17	0.17607914
212	0x3d85f13d	0.06540153
213	0x3e328b6e	0.17436
214	0xbdaff3e6	-0.08591442
215	0xbdc3604a	-0.0953985
216	0xbc362994	-0.011118311
217	0xbe611e06	-0.2198411
218	0x3e3a0375	0.18165381
219	0x3ec41c5a	0.3830288

encoder.linear1.bias f4 [20]
0	0x3d7cc8d8	0.061714977
1	0xbdc4b821	-0.09605432
2	0x3e95bfcf	0.292479
3	0x3e5194f7	0.20466982
4	0xbf2d880a	-0.67785704
5	0x3edba220	0.4289713
6	0xbf689dd5	-0.9086583
7	0x3cad67e0	0.021167696
8	0xbdd5aee2	-0.10433747
9	0x3db3e459	0.08783788
10	0xbf14fd18	-0.5819869
11	0x3eb119af	0.34589908
12	0xbdc619ad	-0.09672866
13	0x3d9c30e4	0.07626513
14	0xbe30e0d6	-0.17273268
15	0xbdfde9ea	-0.12398131
16	0x3db05738	0.08610386
17	0x3dec384d	0.11534176
18	0xbda265e2	-0.07929589
19	0x3e92dae8	0.28682637

encoder.linear2.weight f4 [40, 20]
0	0x3e34a242	0.17640021
1	0xbe0d46fe	-0.13796613
2	0xbdab13f6	-0.083534166
3	0xbd3ec1c2	-0.0465715
4	0x3a4e9fa0	0.00078820623
5	0xbdcc3af0	-0.09972179
6	0xbe3f375b	-0.1867346
7	0xbe616574	-0.22011358
8	0xbe126522	-0.14296392
9	0x3e74294c	0.23843879
10	0x3d194482	0.03741885
11	0xbe489196	-0.19586787
12	0x3e0ab657	0.1354612
13	0x3c953e05	0.01821805
14	0x3d7cf416	0.061756216
15	0xbe47e34c	-0.195203
16	0x3e4a2ffa	0.19744864
17	0x3db637b5	0.08897344
18	0xbc207905	-0.009794478
19	0x3e068d78	0.13139904
20	0xbd800b3c	-0.06252143
21	0xbde2e949	-0.11079652
22	0x3e1ce1ec	0.15320557
23	0x3dfb3870	0.12266624
24	0x3c2dd762	0.010610433
25	0x3e490098	0.19629133
26	0xbd8a50c5	-0.06753687
27	0x3df38290	0.11890137
28	0xbe18a357	-0.14906059
29	0xbde34cca	-0.11098631
30	0x3d1bcc7a	0.0380368
31	0xbe23ef0d	-0.1600916
32	0xbe268bc4	-0.16264254
33	0xbccc0386	-0.024904024
34	0xbdf0d49d	-0.11759303
35	0xbe03d734	-0.12875062
36	0x3e12f192	0.14349964
37	0xbe53b0c5	-0.20672901
38	0xbd573a4c	-0.05254583
39	0xbdfbd5a4	-0.12296608
40	0x3c99bbcd	0.018766308
41	0x3c195dbb	0.009360726
42	0xbd94a43a	-0.07257886
43	0x3e14082e	0.14456245
44	0x3e025ef4	0.12731534
45	0xbf09da1a	-0.5384842
46	0x3da488f4	0.08033934
47	0xbd0b74f4	-0.034047082
48	0xbe1ce404	-0.15321356
49	0xbca9d5c3	-0.020731812
50	0x3d887dc4	0.06664613
51	0xbe1ea70a	-0.15493408
52	0x3d49c391	0.049258772
53	0xbde3b8cc	-0.111192316
54	0xbe992f08	-0.29918694
55	0xbc8114ba	-0.015756954
56	0x3e282dc2	0.16423705
57	0xbe032d78	-0.12810314
58	0x3d2104d4	0.039311245
59	0xbc1c978c	-0.009557616
60	0xbd07991c	-0.033105
61	0xbdb9a042	-0.0906377
62	0x3e5586ea	0.20852247
63	0x3e032598	0.1280731
64	0xbe99e235	-0.30055395
65	0x3dd9ae1a	0.1062891
66	0xbe84300d	-0.2581791
67	0x3e352a74	0.17691976
68	0x3e491582	0.19637111
69	0x3df5485a	0.119766906
70	0x3dfe1635	0.124065794
71	0xbd63e66a	-0.05563966
72	0x3ceee82d	0.029163444
73	0xbe92c0a9	-0.28662613
74	0xbe6ce120	-0.23132753
75	0xbe4dd3a7	-0.2010027
76	0xbe5837b4	-0.21114999
77	0x3cc83204	0.024437912
78	0x3e09f380	0.13471794
79	0x3dbc1202	0.09183122
80	0xbd92b38e	-0.071631536
81	0xbdfe1d38	-0.12407917
82	0x3e05645c	0.13026565
83	0xbe47bce5	-0.19505651
84	0x3dda5b4a	0.10661943
85	0x3d64fd68	0.05590573
86	0xbdc60be3	-0.09670236
87	0xbe39b4e7	-0.18135415
88	0xbe17df0b	-0.14831178
89	0xbde68960	-0.11256671
90	0x3d976a0d	0.073932745
91	0xbd8e623a	-0.06952329
92	0x3dc16519	0.09443111
93	0x3d608ace	0.054819874
94	0xbea7be1a	-0.32762223
95	0xbd200f7d	-0.03907727
96	0xbdcc4b3b	-0.099752866
97	0xbe9be5cc	-0.3044876
98	0xbec1abf6	-0.37826508
99	0xbde933b7	-0.11386817
100	0xbe3e231f	-0.18568085
101	0xbd50fe11	-0.051023547
102	0xbd78abcc	-0.060710713
103	0xbdca9b98	-0.098929584
104	0xbb4f2fea	-0.0031614252
105	0x3e087cac	0.13328809
106	0xbe97040c	-0.29495275
107	0x3e58b596	0.2116302
108	0x3d9afa25	0.075672425
109	0x3d342958	0.04398474
110	0xbdf34c37	-0.11879771
111	0xbd0996cb	-0.033591073
112	0x3e56639e	0.20936438
113	0x3e606050	0.2191174
114	0xbdda4838	-0.10658306
115	0xbe3adac7	-0.1824752
116	0xbcecc2d0	-0.028901488
117	0x3cdb31de	0.026757177
118	0x3dd8bbd0	0.105826974
119	0xbdf1d06d	-0.11807332
120	0xbe4419bc	-0.19150442
121	0xbe26a870	-0.16275191
122	0x3e39b643	0.18135934
123	0xbe20878d	-0.15676709
124	0x3c90aa08	0.017659202
125	0x3dbe47fd	0.092910744
126	0xbe199f56	-0.15002188
127	0xbc8b7680	-0.017024279
128	0xbe464fa7	-0.19366322
129	0x3bfb0ee5	0.0076616877
130	0x3e0ae6a7	0.1356455
131	0xbd8fc599	-0.07020111
132	0x3c802bcc	0.015645884
133	0xbe95bdbd	-0.2924632
134	0xbde7d70a	-0.11320312
135	0x3c677735	0.014127542
136	0x3e421f86	0.18957338
137	0xbe2e3768	-0.17013323
138	0xbe532eb2	-0.20623282
139	0xbe0e9834	-0.13925248
140	0x3ddae085	0.10687355
141	0xbe3b8282	-0.18311504
142	0x3e3c6ecb	0.18401639
143	0x3e5d651c	0.21620601
144	0xbe2b18dd	-0.16708703
145	0xbcc78360	-0.024354637
146	0xbe2af384	-0.16694456
147	0xbe276adb	-0.16349356
148	0x3e26cc01	0.16288759
149	0x3def41f8	0.116825044
150	0xbda8425b	-0.08215781
151	0x3cdf2ef2	0.027244065
152	0x3dbf7702	0.09348871
153	0x3d0607db	0.032722335
154	0xbdb03aab	-0.0860494
155	0x3e28226f	0.16419385
156	0xbdf76e2c	-0.120815605
157	0xbcaddfe4	-0.021224923
158	0xbe318736	-0.17336735
159	0x3e49b43e	0.19697663
160	0xbbf6af6f	-0.0075282375
161	0xbe3ea38e	-0.18617079
162	0x3d967b9c	0.07347795
163	0xbe43c9e2	-0.19119981
164	0xbdbc2fea	-0.091888264
165	0x3e6149ce	0.2200081
166	0xbdb092e5	-0.08621768
167	0xbe54356e	-0.20723507
168	0xbe2847e7	-0.16433679
169	0x3dd965d7	0.106151275
170	0xbdba8e10	-0.091091275
171	0x3e27f495	0.16401894
172	0xbe0c3185	-0.13690765
173	0x3ba8893e	0.0051433137
174	0x3e7153cf	0.23567127
175	0x3d94213f	0.07232904
176	0xbc7671b1	-0.015041755
177	0x3e0180d1	0.12646796
178	0x3c95654e	0.018236782
179	0xbe04fe94	-0.12987739
180	0xbcf8d378	-0.030374274
181	0x3d4e1049	0.0503085
182	0x3e1328e5	0.14371069
183	0xbd25aecd	-0.040449906
184	0x3cd6fb23	0.026242798
185	0xbeba20a9	-0.36353043
186	0x3e3c455c	0.18385834
187	0x3e37a902	0.17935565
188	0x3d8ad8ef	0.06779658
189	0x3e40be03	0.18822484
190	0xbce90890	-0.028446466
191	0xbe44f777	-0.19235025
192	0x3e3f90ae	0.18707535
193	0xbd2d0239	-0.042238448
194	0xbd1e1d20	-0.038601995
195	0xbd83ddcd	-0.064387895
196	0xbe36f186	-0.17865571
197	0xbe255984	-0.16147429
198	0xbd5f4128	-0.054505497
199	0xbc8c671e	-0.017139014
200	0x3d0f1ff1	0.03494257
201	0xbe2fe9ce	-0.17179033
202	0x3bb5f588	0.0055529512
203	0x3cfddeb0	0.030989975
204	0xbe9f3f1f	-0.31102845
205	0x3d8ef0e2	0.069795385
206	0xbeb88b9b	-0.3604401
207	0xbd7e5c10	-0.062099516
208	0x3e33dfd0	0.17565846
209	0xbe037d43	-0.12840752
210	0xbeca7862	-0.3954497
211	0x3d0e6f6f	0.03477424
212	0xbe50159e	-0.20320746
213	0xbf1467c3	-0.5797083
214	0x3dc51ed4	0.096250206
215	0x3e0495fa	0.12947837
216	0x3cf7da15	0.030255357
217	0xbbd86ee0	-0.006605014
218	0xbe884a54	-0.26619208
219	0x3e33f3df	0.17573498
220	0x3dd13368	0.10214883
221	0x3e4e0e62	0.20122674
222	0xbdb91c85	-0.09038643
223	0x3dc2363c	0.09483001
224	0xbe9c9c3f	-0.30587956
225	0x3e1a56fd	0.15072246
226	0xbe6461a5	-0.22302873
227	0xbb952260	-0.004551217
228	0x3dff04b1	0.12452067
229	0xbe415589	-0.18880285
230	0x3e34ae21	0.1764455
231	0x3e603508	0.2189523
232	0x3e0ced4d	0.13762398
233	0xbe219c03	-0.1578217
234	0x3c284799	0.010270976
235	0xbe02d9f7	-0.1277846
236	0x3e262b40	0.16227436
237	0x3dfceda7	0.12350016
238	0x3e582661	0.2110839
239	0x3e153b9b	0.14573519
240	0xbe58d58e	-0.21175215
241	0x3df0bc3d	0.117546536
242	0x3d2192b0	0.039446533
243	0x3adcdc80	0.0016850382
244	0xbd9d2e1d	-0.07674811
245	0xbd319bd5	-0.043361504
246	0xbe411479	-0.18855466
247	0x3def53c4	0.11685899
248	0x3e5f7cee	0.21825
249	0x3e2d9c98	0.16954267
250	0xbe23f62d	-0.16011877
251	0xbbfbaa38	-0.0076802038
252	0x3d39fee8	0.045409113
253	0x3daaeaeb	0.08345588
254	0xbe05c566	-0.13063583
255	0xbe41b1de	-0.18915507

encoder.linear2.bias f4 [40]
0	0xbf086f9b	-0.53295296
1	0xbe1656e1	-0.14681579
2	0x3de2ed70	0.11080444
3	0x3e0921d0	0.13391805
4	0xbefdff39	-0.49608782
5	0x3d9c2d7b	0.07625862
6	0x3d21cf2e	0.039504223
7	0xbce3cc7c	-0.027807467
8	0xbcf8a2e5	-0.030351112
9	0xbf817fc6	-1.0117118
10	0xbe883a88	-0.26607156
11	0xbdbd9161	-0.092562445
12	0xbda91207	-0.082553916
13	0xbda6d6e3	-0.08146455
14	0xbe8f1446	-0.27945155
15	0xbe8bd9aa	-0.27314502
16	0xbe8d3525	-0.2757961
17	0xbcaafdcc	-0.020872973
18	0x3db2cdef	0.08730685
19	0x3ec01160	0.37513256
20	0x3e04e7e2	0.12979081
21	0xbe276242	-0.16346076
22	0x3e18cc26	0.14921626
23	0x3ef9c884	0.48785794
24	0xbe8dc2d5	-0.27687708
25	0xbf4ef4d0	-0.80842304
26	0xbf103493	-0.5633022
27	0xbf83ec60	-1.0306511
28	0xbdac75c1	-0.08420897
29	0xbd921019	-0.07131977
30	0xbda7c118	-0.081911266
31	0x3eaf9512	0.3429342
32	0xbdd6e7da	-0.10493441
33	0x3e9f0b1c	0.31063163
34	0xbc6a2995	-0.0142921405
35	0xbef1af2e	-0.47203964
36	0xbed07519	-0.40714338
37	0xbf52e7d6	-0.82385004
38	0xbde3e86c	-0.11128315
39	0x3f1befb4	0.6091263

encoder.linear3.weight f4 [80, 40]
0	0xbdd506da	-0.104016975
1	0x3df8f671	0.1215638
2	0xbd2d2a72	-0.042276807
3	0x3ce275bb	0.027644029
4	0xbdbe677b	-0.09297081
5	0xbe37eaf8	-0.17960727
6	0x3d690969	0.05689374
7	0x3dde50eb	0.10855278
8	0x3d607d14	0.054806784
9	0xbcfefd2e	-0.031126585
10	0x3d4fd989	0.050744567
11	0xbf0f6479	-0.56012684
12	0x3dccd78f	0.10002052
13	0xbe20cc5d	-0.15702958
14	0xbe19eb80	-0.15031242
15	0x3d442e03	0.047895443
16	0xbddcfc34	-0.107902914
17	0xbe13f685	-0.14449508
18	0x3e03d44e	0.12873957
19	0x3d431888	0.047630817
20	0xbe602c15	-0.21891816
21	0x3d456a52	0.048197098
22	0xbebcc822	-0.3687144
23	0xbc9f7156	-0.019463222
24	0xbd35342a	-0.0442392
25	0xbe404ce0	-0.18779325
26	0x3d416b67	0.047221567
27	0xbc637252	-0.013882237
28	0xbcd768e5	-0.026295135
29	0xbdf5bbf7	-0.11998742
30	0xbe03f451	-0.12886168
31	0x3d34456b	0.044011515
32	0xbdd8a849	-0.10578973
33	0xbd97e6f0	-0.07417095
34	0xbe1dea3f	-0.15421389
35	0xbe69fd50	-0.22850537
36	0xbe3d2005	-0.18469246
37	0xbe0a0fa9	-0.13482536
38	0x3d99da62	0.07512356
39	0xbde93643	-0.11387303
40	0xbe5abdfb	-0.21361534
41	0x3d8822bc	0.0664725
42	0x3dbdd26e	0.09268652
43	0x3c7b0f12	0.015323417
44	0xbbd858ae	-0.0066023683
45	0x3e327eac	0.17431134
46	0x3cdbbe75	0.026824215
47	0xbdd0820a	-0.10181053
48	0xbe9da8e8	-0.30792928
49	0x3dbc18eb	0.0918444
50	0x3d4cc34e	0.049990945
51	0xbdb03c5e	-0.08605264
52	0x3e13e761	0.14443733
53	0xbc8e9df6	-0.017409306
54	0xbd230676	-0.039801084
55	0x3dff83ca	0.12476309
56	0xbd843630	-0.06455648
57	0xbe364751	-0.17800643
58	0xbdb7ef21	-0.08981157
59	0x3d229842	0.039695986
60	0x3db1c749	0.08680589
61	0x3cbb8f76	0.022895556
62	0xbdf44633	-0.11927452
63	0x3cdcd787	0.02695824
64	0xbd85383a	-0.06504865
65	0x3e0783a9	0.13233818
66	0x3cb2fce8	0.02184911
67	0x3c1a009a	0.0093995575
68	0xbdfce46e	-0.12348257
69	0x3dc377b8	0.09544319
70	0xbda81acb	-0.08208235
71	0x3e16375f	0.1466956
72	0xbd6d4daa	-0.057935394
73	0x3e100de3	0.14067797
74	0xbd803d62	-0.06261708
75	0xbd83bdb0	-0.064326644
76	0xbe46de99	-0.19420852
77	0x3d6577d4	0.05602248
78	0xbc9aa2ef	-0.01887652
79	0x3ac057a8	0.0014674561
80	0xbd45482d	-0.048164535
81	0xbdba25da	-0.09089251
82	0x3d33e430	0.04391879
83	0xbd770b24	-0.06031336
84	0x3ce95d12	0.028486762
85	0x3e2c67a2	0.16836408
86	0x3d68a866	0.056801222
87	0x3e48cbc7	0.19608985
88	0x3c77e753	0.015130836
89	0x3e10e650	0.14150357
90	0x3e9abc9d	0.30222026
91	0x3dea4c8b	0.11440381
92	0x3d0ec9f0	0.03486055
93	0xbd5dfc0f	-0.05419546
94	0x3da5e936	0.08101122
95	0xbcb0126a	-0.021493156
96	0x3e1aef96	0.15130457
97	0x3e757d2d	0.23973532
98	0xbc8b6a79	-0.017018544
99	0xbdd510c5	-0.10403589
100	0xbde31cd3	-0.11089482
101	0xbd346c82	-0.044048794
102	0x3d8a8802	0.06764223
103	0xbcb55a24	-0.022137709
104	0x3e395eef	0.1810262
105	0x3e5a1fad	0.21301146
106	0x3e0ba2fc	0.13636392
107	0xbc681c4f	-0.014166906
108	0x3d71090b	0.058846515
109	0xbe039eaf	-0.12853502
110	0xbe03c89a	-0.12869492
111	0x3e2bbcd4	0.16771251
112	0x3df0948e	0.117470846
113	0x3d729264	0.05922164
114	0x3e0321b0	0.1280582
115	0x3d92d4bc	0.07169482
116	0xbd6321e4	-0.055452242
117	0xbc9da573	-0.019243931
118	0x3d6a7f46	0.057250284
119	0xbcecf91a	-0.028927375
120	0xbdcea5d2	-0.100902215
121	0x3db0b5cb	0.08628424
122	0xbea38853	-0.31939945
123	0xbe87ed9b	-0.26548466
124	0xbb77ae35	-0.0037793044
125	0x3ae6f460	0.0017620437
126	0x3c3331e0	0.010937184
127	0xbe0572a1	-0.13032009
128	0xbd57438a	-0.052554645
129	0x3d45bdf5	0.04827686
130	0xbdd8b21e	-0.10580848
131	0xbdae8649	-0.085217066
132	0xbd03e6b8	-0.032202452
133	0x3d823a3a	0.06358762
134	0xbe0178dc	-0.1264376
135	0x3da5490a	0.08070572
136	0x3d0511fe	0.03248786
137	0x3c1ee050	0.009697035
138	0x3d96a130	0.07354963
139	0xbdae6319	-0.08514995
140	0xbc2a664e	-0.010400368
141	0x3d11bb28	0.035578877
142	0x3db578d1	0.088609345
143	0xbdfcbf66	-0.12341194
144	0xbe6358fa	-0.2220191
145	0x3dc1d03a	0.09463544
146	0x3ca5dfa4	0.020248242
147	0x3d4859b8	0.048913687
148	0xbe41301c	-0.18866009
149	0xbe5203e4	-0.20509297
150	0x3d801154	0.06253305
151	0xbd9f21d5	-0.07770125
152	0xbd6374fa	-0.05553148
153	0xbcd464ba	-0.025926936
154	0xbd6a47a2	-0.05719722
155	0x3a1e531b	0.00060396054
156	0x3dbe20f0	0.09283626
157	0xbdc5e607	-0.09663015
158	0x3d06a8dd	0.032875884
159	0x3d85bd4a	0.06530245
160	0x3d855c36	0.065117285
161	0x3dbae2b1	0.09125269
162	0xbd94494a	-0.07240541
163	0xbcdce8db	-0.026966503
164	0xbd9a1f0b	-0.07525452
165	0xbdcd844e	-0.10035001
166	0x3c09ccd6	0.008410653
167	0x3d557c90	0.052120745
168	0xbd042c46	-0.032268785
169	0xbe2a5492	-0.16633824
170	0xbe061b9f	-0.13096474
171	0xbdb09e1b	-0.08623906
172	0x3c7508d0	0.014955714
173	0xbc07b478	-0.008282773
174	0x3bce21c0	0.0062906444
175	0x3dcf444e	0.1012045
176	0xbdc7c607	-0.097545676
177	0x3d2c862b	0.04212014
178	0x3d2c4cc4	0.042065397
179	0xbc516be3	-0.01278207
180	0x3dafa1fc	0.08575818
181	0xbdb8b892	-0.09019579
182	0x3d9e1ef0	0.077207446
183	0xbd42cdbe	-0.047559492
184	0x3d5e0a38	0.054208964
185	0xbc28c829	-0.010301628
186	0x3d0db699	0.034597967
187	0xbce8de9a	-0.028426457
188	0x3d100318	0.0351592
189	0x3e21d685	0.15804489
190	0x3df36253	0.11883988
191	0xbd8fa7fe	-0.07014464
192	0x3d8fd552	0.070231095
193	0xbd905519	-0.07047481
194	0xbcba3c7b	-0.022733917
195	0xbdb77f33	-0.08959808
196	0x3cdff2c4	0.02733744
197	0xbdddf8e9	-0.108384915
198	0xbe4f9f35	-0.20275576
199	0xbc8c82ac	-0.017152153
200	0x3d88956f	0.06669127
201	0x39db8eb0	0.00041877246
202	0x3c93db1c	0.018048815
203	0x3dbbe348	0.0917421
204	0xbdc1cdcf	-0.09463083
205	0xbdab050a	-0.083505705
206	0x3cc186b9	0.023623811
207	0xbcd25bb2	-0.02567849
208	0xbc7dccf2	-0.015490757
209	0xbde9615d	-0.11395524
210	0xbdd3e10d	-0.103456594
211	0xbabb9f56	-0.0014314454
212	0xbccc9110	-0.024971515
213	0x3e662e4d	0.224786
214	0xbe2c37d2	-0.16818169
215	0x3c8b64b6	0.017015796
216	0xbdbe00c8	-0.09277493
217	0x3b47460f	0.0030406748
218	0x3db165a2	0.08661963
219	0x3def7a69	0.1169327
220	0xbce27079	-0.027641522
221	0x3dcc71e0	0.099826574
222	0x3ce52001	0.027969362
223	0xbe6ad24b	-0.22931783
224	0xbd65149a	-0.05592785
225	0x3cd27336	0.025689702
226	0xbc8519bc	-0.016247623
227	0x3e80ebda	0.2517994
228	0xbde18a17	-0.11012667
229	0xbd8d1545	-0.068888225
230	0xbcc26683	-0.023730522
231	0xbe1946b0	-0.14968371
232	0xbcfb9ad0	-0.030713469
233	0x3d7ecef4	0.062209085
234	0xbc7388cc	-0.014864158
235	0xbdcc37ba	-0.099715665
236	0xbdf9c9bf	-0.12196683
237	0xbd8dd6c1	-0.06925727
238	0xbd4453b0	-0.047931373
239	0xbe46cffa	-0.19415274
240	0x3dc3779c	0.09544298
241	0xbe29c9db	-0.16580908
242	0xbd4fd9f7	-0.050744977
243	0xbe6adf36	-0.2293671
244	0xbd7e4478	-0.062077016
245	0xbe1db451	-0.15400817
246	0x3d25ccbd	0.040478457
247	0xbd10194c	-0.035180375
248	0xbeb9fe65	-0.363269
249	0x3df2e5a4	0.11860207
250	0x3df0a4e5	0.11750201
251	0x3d4e7470	0.050404012
252	0xbdf5bd6f	-0.11999022
253	0xbda54171	-0.080691226
254	0x3d0e6d5b	0.03477226
255	0xbdfbd529	-0.122965164

encoder.linear3.bias f4 [80]
0	0x3dd68c50	0.10475981
1	0x3c904730	0.01761207
2	0xbf25d1de	-0.64773357
3	0xbef3684e	-0.47540516
4	0xbe41af54	-0.18914539
5	0xbda00455	-0.07813326
6	0xbf17a8f0	-0.59242153
7	0xbdd91047	-0.10598808
8	0xbf5a5c73	-0.85297316
9	0xbf11f806	-0.5701908
10	0x3ee56c2b	0.44809088
11	0xbe093309	-0.13398375
12	0xbe54be80	-0.20775795
13	0xbe3aa757	-0.18227898
14	0xbe4b504d	-0.19854851
15	0xbf002f2e	-0.5007199
16	0xbf3e71ae	-0.7439221
17	0xbea37848	-0.31927705
18	0xbf123315	-0.57109195
19	0xbe117f2e	-0.14208671
20	0xbf01fd54	-0.50777173
21	0xbefa7d68	-0.48923802
22	0x3ee47a24	0.44624436
23	0xbf49c2ff	-0.78813165
24	0xbf13312c	-0.57496905
25	0xbe658ed2	-0.22417763
26	0x3f56136b	0.8362338
27	0xbe1ea843	-0.15493874
28	0xbed3ce25	-0.41368213
29	0x3f0f734d	0.5603531
30	0xbee3ed33	-0.44516906
31	0xbdf66653	-0.120312355
32	0xbe13edf6	-0.14446244
33	0xbebcdb05	-0.3688585
34	0xbe5b3a30	-0.21408916
35	0x3f479610	0.7796335
36	0x3ecab751	0.39592984
37	0xbde62386	-0.11237244
38	0xbe2751e0	-0.16339827
39	0xbd66b87a	-0.056328274
40	0x3f2b57f4	0.6693108
41	0x3cbaac7d	0.022787327
42	0xbe2ace78	-0.16680324
43	0xbd4c8a36	-0.049936496
44	0x3eba9a32	0.36445767
45	0x3e04bb8e	0.12962171
46	0x3ea04416	0.31301945
47	0xbddc627c	-0.10760972
48	0xbf05ad62	-0.52217686
49	0x3ea4f4a3	0.32217893
50	0xbf01c2d2	-0.506879
51	0x3f4aa3f2	0.7915641
52	0xbe434ee6	-0.19073066
53	0xba875186	-0.0010323978
54	0x3f3576f6	0.70884645
55	0x3f1ba430	0.60797405
56	0xbda4f931	-0.08055342
57	0xbdccd46a	-0.10001452
58	0x3c96df85	0.01841713
59	0xbdd5c7ef	-0.10438525
60	0xbdef0b09	-0.11672027
61	0x3f0e2e8f	0.5553979
62	0xbe2f6654	-0.17128879
63	0x3e79e5d4	0.24404079
64	0xbee1ad7d	-0.44077674
65	0x3e85f6c6	0.26164836
66	0x3e9f0c7b	0.3106421
67	0xbea75e15	-0.32688966
68	0x3dc2dfe2	0.095153585
69	0xbeef37ca	-0.4672225
70	0xbf03c499	-0.5147186
71	0x3f5a74ff	0.8533477
72	0xbeeba080	-0.4602089
73	0x3de6eab2	0.11275233
74	0xbd9cd90e	-0.076585874
75	0xbe672649	-0.22573198
76	0xbe824002	-0.2543946
77	0x3d52ce9d	0.051466573
78	0x3e478bc3	0.19486909
79	0x3f2620ee	0.64893997

encoder.linear4.weight f4 [40, 80]
0	0xbd9c8eed	-0.076444484
1	0xbdb42d44	-0.08797696
2	0x3c620bfe	0.0137968045
3	0xbdc759e9	-0.09733946
4	0x3d92153c	0.071329564
5	0xbcccd322	-0.02500302
6	0x3ca9414e	0.020661023
7	0x3cfd0d79	0.030890213
8	0xbcaf0042	-0.021362428
9	0x3c803112	0.015648399
10	0xbc509488	-0.012730725
11	0xbd6693c4	-0.056293264
12	0xbd204083	-0.039124023
13	0xbd44b9da	-0.048028804
14	0xbdd9a796	-0.106276676
15	0xbd350655	-0.04419549
16	0x3d3cdf24	0.04611124
17	0xbc5f5714	-0.013631601
18	0xbde45a1c	-0.111499995
19	0x3d4a0461	0.049320582
20	0xbc7c5ad4	-0.0154025145
21	0xbd9ebae5	-0.07750491
22	0x3d89ea81	0.06734181
23	0xbdaae913	-0.08345237
24	0xbdf717fa	-0.1206512
25	0xbdeaeb6b	-0.11470684
26	0x3d4f7638	0.05064985
27	0xbde9f035	-0.11422769
28	0xbd9a5024	-0.07534817
29	0xbd74288b	-0.059608977
30	0x3c80b410	0.01571086
31	0xbd870886	-0.065934226
32	0x3d7cf39e	0.06175577
33	0x3cded510	0.027201205
34	0x3b1d6f28	0.0024022553
35	0x3cac20cc	0.021011733
36	0xbc8a8c0c	-0.016912483
37	0x3dbb5396	0.09146802
38	0xbdebcf72	-0.115141764
39	0xbd408352	-0.047000237
40	0xbcc72e60	-0.024314106
41	0x3ca03e1e	0.01956087
42	0xbda1cfab	-0.07900938
43	0x3dbb7f99	0.09155197
44	0xbdedfbae	-0.1162027
45	0x3cb6b22a	0.022301752
46	0x3c3a17ea	0.011358241
47	0x3cbc34d0	0.022974402
48	0x3d5f1aa2	0.05446876
49	0xbdc7f6b1	-0.097638495
50	0xbd91431b	-0.070928775
51	0xbce68808	-0.028141037
52	0x3d6776ba	0.05650971
53	0xbe38e4bb	-0.18056004
54	0xbddb2457	-0.10700291
55	0xbdf28a1c	-0.118427485
56	0xbd13fd26	-0.036130093
57	0x3d66a3fb	0.056308728
58	0x38abbc80	8.189026e-05
59	0xbd74ba81	-0.059748176
60	0xbb9f7d14	-0.0048672054
61	0x3d0384e1	0.032109145
62	0x3db948d0	0.09047091
63	0xbce0bc6f	-0.027433602
64	0xbde11b2b	-0.1099151
65	0x3d98cdaa	0.07461102
66	0xbd6cabdf	-0.057781097
67	0x3da6195d	0.081103064
68	0xbcdb23be	-0.026750442
69	0xbde7b02c	-0.11312899
70	0xbca506ae	-0.020144787
71	0x3cefaf96	0.02925853
72	0x3d78dd5d	0.060757983
73	0xbbbdddbd	-0.0057942555
74	0x3c3d6851	0.0115605155
75	0x3d03ba38	0.032160014
76	0xbddf4807	-0.1090241
77	0xbd2668eb	-0.0406274
78	0x3c9bf404	0.019037254
79	0x3a80aef0	0.000981776
80	0xbdd1231a	-0.10211773
81	0xbe0908f6	-0.13382325
82	0xbcce3e09	-0.025176065
83	0xbde057ea	-0.10954268
84	0xbd0e67c1	-0.034766916
85	0xbd7b9713	-0.061423372
86	0xbb324dd0	-0.0027207024
87	0x3d438192	0.04773099
88	0x3d609a2b	0.054834526
89	0xbd515999	-0.051110838
90	0x3d0b7e37	0.034055915
91	0xbdd01264	-0.10159758
92	0x3dc6b49c	0.09702417
93	0x3c830b10	0.015996486
94	0xbbbcbbbe	-0.0057596853
95	0xbc86fd9e	-0.016478356
96	0x3d3095b4	0.043111518
97	0xbdd75a0f	-0.10515224
98	0xbd97fd7c	-0.07421395
99	0xbc67580f	-0.014120116
100	0xbd9faa75	-0.07796184
101	0x3c60b443	0.013714853
102	0x3d62a0cf	0.05532914
103	0x3cbd14c6	0.023081195
104	0xbd9303a6	-0.0717843
105	0x3d193f04	0.037413612
106	0x3d65027d	0.055910576
107	0xbc4af421	-0.012387306
108	0xbc49e11d	-0.012321738
109	0xbe03ae9d	-0.12859578
110	0x3c8bafca	0.017051596
111	0xbd9d059c	-0.076670855
112	0xbdf3016e	-0.11865507
113	0x3db2f193	0.08737483
114	0xbd4cb6fc	-0.049979195
115	0xbdd81cb9	-0.105523534
116	0xbddb9cdf	-0.1072328
117	0x3d900df8	0.07033914
118	0x3d9e1341	0.07718516
119	0xbd3f1383	-0.046649467
120	0xbd09963a	-0.033590533
121	0xbbe78f8e	-0.0070666736
122	0x3c0899be	0.008337436
123	0xbd477950	-0.048699677
124	0x3cf24088	0.029571787
125	0x3c00c91e	0.00786045
126	0xbdb72ad4	-0.08943716
127	0x3ace7cf0	0.0015753787
128	0xbd091744	-0.033469453
129	0x3db725dd	0.08942769
130	0xbe0d80f5	-0.13818724
131	0xbc635b74	-0.013876785
132	0x3e02f75d	0.12789674
133	0x3db1e918	0.08687037
134	0x3b61926e	0.0034419554
135	0xbda7b9fe	-0.08189772
136	0xbd0dcca3	-0.034618985
137	0xbd17405f	-0.036926623
138	0x3d572449	0.05252484
139	0x3dbe94f6	0.09305756
140	0x3da00c4f	0.07814848
141	0xbdbe2cb2	-0.09285869
142	0xbd8bef9f	-0.068328135
143	0x3d974983	0.07387068
144	0xbd07b430	-0.033130825
145	0xbd8f100b	-0.06985482
146	0x3d833592	0.06406702
147	0x3bec16c4	0.0072048623
148	0x3ddc826f	0.10767066
149	0xbdebe194	-0.11517635
150	0xbd6a8cb3	-0.057263087
151	0x3c385975	0.011251797
152	0x3dc6d7b5	0.097091116
153	0xbda03915	-0.078233875
154	0xbbc66702	-0.00605476
155	0xbdd0509d	-0.10171626
156	0x3d0ebac0	0.034846067
157	0x3d9322b2	0.07184352
158	0xbcf742b9	-0.030183183
159	0x3dbfdbfe	0.09368132
160	0xbd40b2cd	-0.047045518
161	0xbd97ac2e	-0.074058875
162	0xbda78073	-0.081787966
163	0x3d9c6fd0	0.07638514
164	0x3dbdcf08	0.09268004
165	0x3cf5baba	0.029996265
166	0x3beac6ab	0.0071647963
167	0xbbed2170	-0.007236652
168	0x3cb4c0c2	0.02206457
169	0x3bfb147a	0.007662353
170	0x3c9a150e	0.018808868
171	0xbd76296e	-0.060098104
172	0xbd39978b	-0.04531054
173	0x3d2275bd	0.039663065
174	0x3d28af78	0.041182965
175	0xbdb5e351	-0.08881248
176	0xbd4fd64f	-0.05074149
177	0x3cd5a188	0.026078
178	0xbd7f6e4f	-0.062361058
179	0x3d87a18f	0.06622612
180	0xbc95d109	-0.018288152
181	0x3d9d402b	0.07678255
182	0xbdcd42bc	-0.10022494
183	0x3cbfb03a	0.023399461
184	0xbe052102	-0.13000873
185	0xbd6aa365	-0.05728473
186	0xbc551770	-0.013006076
187	0xbe0bb48d	-0.13643093
188	0x3d6c7490	0.05772835
189	0x3d9d96db	0.07694789
190	0xbdba03cb	-0.09082755
191	0xbdbf7262	-0.09347989
192	0xbd847da7	-0.06469279
193	0xbc06ed20	-0.008235246
194	0x3d89fcb5	0.06737653
195	0xbdbc169b	-0.09183999
196	0xbe0ee35d	-0.1395392
197	0x3de685fa	0.11256023
198	0x3c469918	0.012121461
199	0xbd041f64	-0.0322565
200	0xbdc4bd06	-0.09606366
201	0xbdb23c37	-0.08702891
202	0xbc99895a	-0.018742252
203	0x3d98f86e	0.07469259
204	0xbaa4f090	-0.00125839
205	0xbd39fce3	-0.045407187
206	0xbd987373	-0.07443895
207	0xbd0fc18a	-0.035096683
208	0xbddd155b	-0.10795089
209	0x3d98b958	0.074572265
210	0xbdab9094	-0.083771855
211	0xbcd8b6d8	-0.026454374
212	0x3dbb7545	0.09153227
213	0x3d180e0e	0.03712278
214	0x3ca33a90	0.019925386
215	0xbdcbf616	-0.099590465
216	0xbe14bf85	-0.14526184
217	0xbdfe73d7	-0.124244384
218	0xbdf7334d	-0.12070332
219	0xbcc85a08	-0.024456993
220	0x3dd64665	0.104626454
221	0xbdcbbbb4	-0.09947911
222	0x3d4d109f	0.05006468
223	0x3d9f9a74	0.077931315
224	0x3be85cc0	0.007091135
225	0xbc15f93e	-0.009153662
226	0xbd31f07a	-0.043442227
227	0x3c3811e0	0.0112347305
228	0xbc4d7aae	-0.012541456
229	0xba95c3a8	-0.0011426108
230	0xbdaa4291	-0.08313478
231	0xbddcfe74	-0.107907206
232	0xbc92fa19	-0.017941521
233	0x3cd6a48a	0.026201505
234	0xbd3b9996	-0.045800768
235	0x3bb04e90	0.005380459
236	0x3d82dedd	0.06390164
237	0x3c99000c	0.01867678
238	0x3cc860c6	0.024460208
239	0x3d1d983b	0.038475256
240	0xbda8e5e7	-0.082469754
241	0xbcc59d39	-0.024122821
242	0xbc9d7413	-0.019220388
243	0xbcd93787	-0.026515735
244	0xbd9f4100	-0.0777607
245	0xbdfa2f7e	-0.1221609
246	0xbd84a131	-0.06476057
247	0xbcc8357e	-0.02443957
248	0xbe060b64	-0.13090283
249	0xbddae7e6	-0.10688762
250	0xbd4157c7	-0.04720285
251	0xbde4fd97	-0.11181181
252	0xbd1a77bd	-0.037711848
253	0x3defc5f7	0.11707681
254	0xbcf3464f	-0.029696612
255	0x3d0e0c2e	0.034679584

encoder.linear4.bias f4 [40]
0	0xbd121e07	-0.035673168
1	0xbe07449c	-0.13209766
2	0x3d6231d2	0.055223294
3	0xbe04f499	-0.12983932
4	0xbe856a8b	-0.26057848
5	0x3c9345a6	0.017977547
6	0x3f2c0448	0.6719403
7	0x3d832169	0.06402857
8	0xbe4e6834	-0.20156938
9	0xbedc366c	-0.4301027
10	0xbe68dbc5	-0.22740085
11	0x3c853192	0.016258989
12	0xbe7255cd	-0.23665543
13	0x3e82abff	0.25521848
14	0xbd526810	-0.051368773
15	0xbd4a0994	-0.04932554
16	0xbded86f0	-0.11598003
17	0x3d8d7e46	0.0690885
18	0x3b8fd924	0.004389899
19	0xbdd6f226	-0.10495405
20	0xbd9695eb	-0.07352813
21	0xbed7e982	-0.4217034
22	0xbd9e02f3	-0.07715406
23	0xbd344a2c	-0.04401605
24	0x3ec70a1d	0.38874903
25	0xbda3d72d	-0.08000026
26	0x3f2436ac	0.6414592
27	0xbdd4fe14	-0.10400024
28	0xbe60cc20	-0.21952868
29	0x3d172dc0	0.036908865
30	0x3f06e7f0	0.5269766
31	0x3c8a3650	0.016871601
32	0x3f30a16f	0.6899633
33	0x3eaf08a2	0.34186274
34	0xbe12038f	-0.1425917
35	0xbe5b17c3	-0.21395783
36	0xbbc69dbe	-0.006061285
37	0xbeadb7c2	-0.3392926
38	0xbd778ff2	-0.06044001
39	0xbb8d6246	-0.0043146936

encoder.linear5.weight f4 [20, 40]
0	0x3c5722d8	0.013130866
1	0xbc459204	-0.012058739
2	0xbe1ef2ee	-0.15522358
3	0x3d155a84	0.036463276
4	0xbe8c9bea	-0.27462703
5	0xbdb3f374	-0.087866694
6	0xbf088860	-0.5333309
7	0xbee01d06	-0.43772143
8	0xbdea1b38	-0.11430973
9	0x3deda224	0.116031915
10	0x3e814c73	0.2525364
11	0xbd4ef370	-0.05052513
12	0xbe23459c	-0.15944523
13	0x3d5129a7	0.051065113
14	0xbce3a824	-0.027790137
15	0x3deb930c	0.11502656
16	0xbdb4ba45	-0.088245906
17	0xbeedb7c9	-0.4642928
18	0x3ddf8758	0.10914487
19	0xbdb07913	-0.08616843
20	0xbe5bb82e	-0.21456978
21	0xbe00cc4c	-0.12577933
22	0x3d5c3e18	0.053770155
23	0x3da45089	0.08023173
24	0x3e2cbbd4	0.16868526
25	0x3de64b05	0.112447776
26	0xbf089bbd	-0.5336264
27	0x3d9cd4bb	0.076577626
28	0x3d45e4cc	0.0483139
29	0xbd7a0b5f	-0.061046
30	0xbd11682f	-0.035499748
31	0x3df8c9c6	0.1214786
32	0xbe659c0d	-0.2242281
33	0xbdea010e	-0.114259824
34	0x3e8e00b3	0.27734908
35	0xbe61755a	-0.22017422
36	0x3aebdf30	0.0017995592
37	0xbf02b60b	-0.51059026
38	0x3bc5e137	0.0060388106
39	0x3c4c1e40	0.012458384
40	0x3db333e0	0.08750129
41	0x3d4223d3	0.047397446
42	0xbe461e1c	-0.19347423
43	0xbe3beb21	-0.18351413
44	0x3e2aa1b5	0.16663249
45	0xbe175152	-0.14777115
46	0x3dd00378	0.101569116
47	0xbd041f49	-0.0322564
48	0xbdb0149f	-0.08597683
49	0x3e0f059a	0.1396698
50	0xbea1a858	-0.3157375
51	0xbc5e5b6e	-0.013571603
52	0x3e313d02	0.17308429
53	0x3c72b342	0.014813246
54	0x3db4f4b4	0.08835736
55	0xbd0df139	-0.034653876
56	0xbd8c0de3	-0.06838586
57	0x3df5b2d0	0.119969964
58	0x3e11ff23	0.14257483
59	0xbdc84156	-0.09778087
60	0x3d63713c	0.05552791
61	0x3e14371e	0.1447415
62	0xbcad4751	-0.02115217
63	0x3d835544	0.064127475
64	0x3ea2b207	0.3177645
65	0x3e393b93	0.18089132
66	0x3dd149b9	0.102191396
67	0xbdc4e7ca	-0.09614523
68	0xbdd9a65a	-0.10627432
69	0x3de57982	0.112048164
70	0x3e189f28	0.14904463
71	0xbdbc3e24	-0.0919154
72	0x3dedae1f	0.116054766
73	0x3e7631ea	0.24042478
74	0x3e1b14ce	0.15144655
75	0xbda9e83f	-0.082962506
76	0x3da97968	0.082751095
77	0x3ea27510	0.31729937
78	0x3dcf8310	0.1013242
79	0x3ce90b8c	0.028447889
80	0x3e17cc95	0.14824136
81	0xbdf8630d	-0.121282674
82	0x3e04d669	0.12972416
83	0xbc3ac230	-0.011398837
84	0xbe880449	-0.2656577
85	0xbdb77eaa	-0.08959706
86	0xbf152744	-0.5826304
87	0xbe9db955	-0.3080546
88	0x3ca6dddd	0.020369465
89	0x3ea745c2	0.32670408
90	0x3e8b0fbc	0.27160442
91	0xbd8be38a	-0.06830509
92	0xbb9ed07c	-0.0048466306
93	0x3c99b266	0.018761825
94	0xbd9ae47d	-0.07563112
95	0xbd9a71e5	-0.07541255
96	0x3d210648	0.03931263
97	0xbdc3fb13	-0.09569373
98	0xbddc92bf	-0.10770177
99	0x3cf77b6a	0.030210216
100	0xbe5811f6	-0.21100602
101	0xbe2f145f	-0.17097615
102	0x3e05565f	0.13021229
103	0x3d883bc4	0.066520244
104	0xbd867c8c	-0.06566724
105	0xbdd4904b	-0.10379084
106	0xbf209153	-0.6272175
107	0x3c40aa3e	0.011759339
108	0x3c716908	0.014734514
109	0x3defd6ee	0.117109165
110	0x3d609cb7	0.054836955
111	0xbdc4e9c8	-0.09614903
112	0xbe72d4eb	-0.23714034
113	0x3db1f7fa	0.08689876
114	0x3e793c3b	0.24339382
115	0xbef51595	-0.47868028
116	0xbd1feab6	-0.039042197
117	0xbe7e91b6	-0.24860272
118	0x3e8c23fa	0.27371198
119	0x3da7e4ce	0.08197938
120	0x3d8a3f90	0.06750405
121	0x3e0ac12c	0.13550252
122	0x3dcb5a3b	0.099293195
123	0x3e012cc1	0.12614729
124	0xbce4d511	-0.02793363
125	0x3e03885f	0.1284499
126	0xbd5b4100	-0.053528786
127	0x3ef3f45b	0.47647366
128	0x3dcd5e52	0.10027756
129	0x3eb6a722	0.35674387
130	0x3e39cf15	0.18145402
131	0x3d2f2c9f	0.042767163
132	0xbccc84ce	-0.02496567
133	0xbd7e1fe8	-0.062042147
134	0x3dccf435	0.10007516
135	0x3c29e4a0	0.01036945
136	0x3bb4d844	0.005518945
137	0x3e26414f	0.16235851
138	0x3d8f86d2	0.07008137
139	0x3e54634e	0.20741007
140	0x3e280745	0.16409023
141	0x3cacb553	0.021082556
142	0xbc3b79dd	-0.011442629
143	0x3dfb784d	0.12278805
144	0xbed7d88e	-0.42157406
145	0xbb423996	-0.0029636375
146	0xbde2c0e6	-0.11071949
147	0x3ddb21ba	0.10699792
148	0xbe198c7c	-0.14994997
149	0x3e39788c	0.18112391
150	0x3eb83aa0	0.35982227
151	0x3d69b8d4	0.05706103
152	0x3db6d52a	0.089273766
153	0xbe1a9da3	-0.15099196
154	0x3b74326c	0.00372615
155	0xbd43210c	-0.047638938
156	0xbdee8634	-0.11646691
157	0x3d87cdd8	0.066310585
158	0x3e23c33b	0.15992443
159	0x3d57b5b0	0.052663505
160	0xbe2b03f9	-0.16700734
161	0xbd8ac9e0	-0.06776786
162	0x3d8e882e	0.06959568
163	0xbdc10914	-0.0942556
164	0xbe2785e4	-0.16359669
165	0xbd7b3873	-0.06133313
166	0x3e3db5e6	0.1852642
167	0x3dd19a48	0.10234505
168	0xbdb9dfce	-0.090758905
169	0xbe991dcf	-0.29905555
170	0xbebe8ad5	-0.37215295
171	0xbcd68cfa	-0.02619027
172	0xbef1deec	-0.47240388
173	0xbe87fe60	-0.2656126
174	0x3d44d83a	0.048057772
175	0xbd72aba3	-0.059245717
176	0x3df4d13b	0.1195397
177	0x3e017afc	0.12644571
178	0x3bc21f52	0.005924144
179	0x3d4a69e4	0.04941739
180	0xbd23fa2f	-0.040033516
181	0xbf428181	-0.7597886
182	0x3d526e21	0.05137456
183	0x3e1e36cb	0.1545059
184	0xbec55e48	-0.38548493
185	0xbdb2f622	-0.08738352
186	0x3eb31871	0.34979585
187	0xbc94da46	-0.018170487
188	0x3e06831b	0.1313595
189	0x3e1eaa5f	0.15494679
190	0x3e7b6f65	0.24554212
191	0xbe26b29c	-0.16279072
192	0x3e51989e	0.20468375
193	0xbe20d90d	-0.15707798
194	0xbd4c8d1b	-0.049939256
195	0xbe91139d	-0.28335276
196	0x3d742dae	0.059613876
197	0xbec65c4f	-0.387423
198	0xbe50df4d	-0.20397682
199	0xbd70930f	-0.058733996
200	0x3d530312	0.0515166
201	0xbdc21863	-0.09477308
202	0x3cbe1bc6	0.023206603
203	0x3d2af016	0.04173287
204	0x3e5ff12c	0.21869344
205	0xbdb06ced	-0.08614526
206	0xbbed8f72	-0.007249766
207	0x3e1342dd	0.14380975
208	0x3d85df9e	0.06536792
209	0x3dfafb9b	0.12255021
210	0xbd8e50cf	-0.06949007
211	0xbbabac12	-0.0052390182
212	0x3e4416c8	0.19149315
213	0xbeb0fec9	-0.34569386
214	0xbdd75869	-0.1051491
215	0x3c679f84	0.014137153
216	0x3dbc48b0	0.091935515
217	0x3dde19f7	0.10844796
218	0x3dbc5adf	0.0919702
219	0xbe10476c	-0.14089745
220	0xbb130a58	-0.0022436585
221	0x3e9b1e24	0.30296433
222	0x3e1f5eae	0.15563461
223	0xbde18a0b	-0.11012658
224	0xbd63f632	-0.055654712
225	0x3e6d8948	0.231969
226	0x3d3318c8	0.043724805
227	0x3dbf5854	0.09343019
228	0xbe293b0c	-0.16526431
229	0x3bb0251e	0.0053755185
230	0x3e1fc23c	0.15601438
231	0x3d8f2762	0.069899336
232	0x3e6ffcab	0.23436229
233	0xbdaa97fd	-0.08329771
234	0x3db3f32e	0.08786617
235	0x3e0f54ff	0.13997267
236	0xbd9e707c	-0.077362984
237	0x3e94f180	0.290905
238	0x3d83eecb	0.064420305
239	0xbe1724b1	-0.1476009
240	0x3e167e52	0.14696625
241	0xbe36c6ec	-0.1784932
242	0xbd3c5096	-0.04597529
243	0xbdc66558	-0.096872985
244	0xbd95c5b4	-0.073130995
245	0xbcca0460	-0.02466029
246	0xbe6b3eca	-0.22973171
247	0x3daeffb2	0.08544864
248	0x3d1106a5	0.035406727
249	0xbe357e52	-0.17723969
250	0x3d1f9461	0.038959865
251	0xbe08e3f6	-0.1336821
252	0x3cfb1d09	0.030653493
253	0x3b1323c3	0.0022451736
254	0x3d92adf7	0.071620874
255	0x3b15fc88	0.0022886116

encoder.linear5.bias f4 [20]
0	0x3ebfa970	0.37433958
1	0x3eb98ee9	0.36241844
2	0x3c7f572a	0.015584746
3	0xbeb71a44	-0.35762227
4	0x3f3e9f93	0.7446224
5	0x3da25c1e	0.07927726
6	0x3e1cf73a	0.15328684
7	0x3e19e961	0.15030433
8	0x3e41828e	0.18897459
9	0x3f061636	0.5237764
10	0x3f06757b	0.5252301
11	0xbe1bd3e3	-0.15217547
12	0x3da06be9	0.07833082
13	0x3f315937	0.69276756
14	0xbe90ef8e	-0.28307766
15	0x3e32982f	0.17440866
16	0x3f4e3c90	0.8056116
17	0xbeb748d0	-0.3579774
18	0xbe199efc	-0.15002054
19	0xbeb6285a	-0.3557766

encoder.linear6.weight f4 [5, 20]
0	0x3daa582d	0.083175994
1	0xbe651945	-0.22372921
2	0x3e69e6a0	0.22841883
3	0x3ec80ce2	0.3907233
4	0x3e148cac	0.14506787
5	0x3d80aebf	0.0628333
6	0x3dbfbf99	0.09362716
7	0x3e10d473	0.14143543
8	0x3e56d6cd	0.20980377
9	0x3dfe490a	0.12416275
10	0xbe7bdee3	-0.24596743
11	0xbc83c3b0	-0.016084522
12	0x3e70c64d	0.23513146
13	0x3c365b70	0.011130199
14	0x3c005674	0.007833112
15	0x3d7265f4	0.05917926
16	0xbe10c172	-0.14136294
17	0x3dd3f4da	0.10349436
18	0x3de5124d	0.11185131
19	0x3e36443b	0.17799465
20	0xbd933472	-0.071877375
21	0x3d02f835	0.03197499
22	0x3ba55744	0.0050458033
23	0xbcfa2c21	-0.03053862
24	0x3c0eaec4	0.00870866
25	0xbe040928	-0.12894118
26	0x3d9f2abc	0.07771823
27	0x3d7a552b	0.06111638
28	0xbdd6c33c	-0.10486457
29	0x3d8d97c8	0.069137156
30	0x3bc786f4	0.0060890857
31	0x3d8004d3	0.0625092
32	0x3e175e6e	0.14782116
33	0xbdcad211	-0.09903348
34	0xbdb923a4	-0.09040001
35	0xbdd023ed	-0.10163102
36	0xbdf0d86d	-0.1176003
37	0xbe8fc71b	-0.28081593
38	0xbe8d2bf6	-0.27572602
39	0xbe23381b	-0.15939371
40	0xbdaf9a1e	-0.085743174
41	0x3e3ec5f8	0.18630207
42	0xbe841b13	-0.25801906
43	0xbd019a72	-0.03164143
44	0x3e8aad76	0.27085465
45	0x3e684039	0.22680749
46	0xbe8e8b5b	-0.27840695
47	0xbe1525f2	-0.14565256
48	0x3e578c73	0.21049671
49	0x3db04c0a	0.08608253
50	0x3e2e192e	0.17001793
51	0xbe1648e5	-0.14676245
52	0x3d729225	0.059221406
53	0x3e22b6b2	0.15890005
54	0xbbb68f69	-0.005571295
55	0xbe295c47	-0.16539107
56	0x3e180562	0.14845803
57	0x3e4f29ae	0.20230743
58	0x3e5f6fc8	0.21819985
59	0x3e5a7444	0.21333414
60	0x3e8b49bf	0.272047
61	0x3d6e3f8d	0.058166075
62	0x3e12d1b4	0.14337808
63	0xbdb8b4e5	-0.09018878
64	0x3e837067	0.25671694
65	0x3c1bf8ac	0.009519737
66	0x3d4b446a	0.04962579
67	0x3d0c890b	0.03431038
68	0x3e38842f	0.18019174
69	0x3e97d3c9	0.29653767
70	0x3e39c8d6	0.18143019
71	0x3dafe02d	0.0858768
72	0xbc5b79f1	-0.013395772
73	0x3e844bbb	0.25839028
74	0x3d2e5540	0.04256177
75	0x3e5f9f58	0.21838129
76	0x3ea853b3	0.32876357
77	0xbea640c9	-0.32471302
78	0xbd886a61	-0.06660915
79	0xbeaec333	-0.341333
80	0x3debd38e	0.1151496
81	0x3d540dcd	0.051770974
82	0x3d7a35ea	0.061086573
83	0x3dc0110f	0.09378254
84	0x3dd9af33	0.1062912
85	0xbe6517e0	-0.22372389
86	0x3e4540e8	0.19263041
87	0xbe038dfe	-0.12847134
88	0xbe7b550e	-0.24544165
89	0xbdf36185	-0.11883835
90	0x3e2d75ec	0.16939515
91	0x3d0c8d88	0.034314662
92	0x3e008310	0.12549996
93	0xbe608a88	-0.21927845
94	0x3cfd9396	0.030954164
95	0x3bf9f9e8	0.007628668
96	0xbab6f8e8	-0.0013959678
97	0xbe654b4a	-0.22392002
98	0x3dc3ab9d	0.09554217
99	0xbcc5f2fc	-0.024163716

encoder.linear6.bias f4 [5]
0	0xbec261d4	-0.37965262
1	0x3db7886e	0.08961569
2	0x3d87bfbf	0.066283695
3	0x3ef6054e	0.48050922
4	0xbe2999f0	-0.16562629

encoder.linear7.weight f4 [2, 5]
0	0xbe50a031	-0.20373608
1	0xbe8d6b9b	-0.2762116
2	0x3ec910af	0.3927054
3	0xbe769e20	-0.24083757
4	0x3e191373	0.14948826
5	0x3b82f8b0	0.003996931
6	0x3ecaf709	0.39641598
7	0xbb0c6660	-0.0021423325
8	0x3bab9e24	0.0052373577
9	0x3c49e661	0.012322993

encoder.linear7.bias f4 [2]
0	0xbd5298cd	-0.051415253
1	0xbc193a68	-0.009352304

encoder.linear8.weight f4 [2, 5]
0	0x3ef54726	0.47905844
1	0xbe98b21b	-0.29823384
2	0xbe5c94c2	-0.21541122
3	0xbf0cbf35	-0.5497926
4	0x3e8f6f9f	0.28014848
5	0xbae63fab	-0.0017566582
6	0x3cc5bf1b	0.024138978
7	0xba96c435	-0.0011502566
8	0xb89ebbf0	-7.569033e-05
9	0x3e38797a	0.1801509

encoder.linear8.bias f4 [2]
0	0xbf77dca7	-0.96821064
1	0xbeafc18e	-0.34327358

decoder.linear1.weight f4 [5, 3]
0	0x3fa6557b	1.2994837
1	0xbaa05e1e	-0.001223508
2	0x3df3728a	0.11887081
3	0x3ecd59bf	0.40107533
4	0xbc31fb15	-0.010863085
5	0x3f25af83	0.64720935
6	0x3ee15182	0.44007498
7	0xba9efad1	-0.0012129192
8	0xbdcc7173	-0.09982576
9	0xbf17721c	-0.5915849
10	0x3ca02e58	0.019553348
11	0x3f234b2d	0.63786584
12	0xbf51b3b3	-0.81914824
13	0xbc757871	-0.014982329
14	0x3d879d27	0.06621771

decoder.linear1.bias f4 [5]
0	0xbddcdeec	-0.107847065
1	0x3f10bd90	0.5653925
2	0x3ed34ec0	0.4127102
3	0x3eecf5ed	0.46281376
4	0x3d04b38b	0.032397788

decoder.linear2.weight f4 [20, 5]
0	0xbcae1486	-0.02125002
1	0xbeb4ab97	-0.35287163
2	0x3ea53d0a	0.32273132
3	0xbd51cec4	-0.051222578
4	0x3aab7a9a	0.0013082803
5	0xbd898c63	-0.0671623
6	0x3e9c3c9d	0.30514994
7	0x3d4e14e9	0.05031291
8	0xbed0484a	-0.40680152
9	0x3da274c2	0.07932426
10	0x3ee0cb85	0.43905273
11	0xbd928ab6	-0.07155363
12	0xbe80a3e2	-0.25125033
13	0xbd99e0b3	-0.07513561
14	0xbeb2e8e2	-0.349433
15	0x3e626808	0.22109997
16	0xbeba6480	-0.364048
17	0x3d431668	0.04762879
18	0xbe0a814e	-0.13525888
19	0x3cbc94b0	0.023020118
20	0xbedbfd9a	-0.4296692
21	0xbdc8b400	-0.09799957
22	0x3dfa5c38	0.122246206
23	0xbe71277d	-0.2355022
24	0x3d1dd238	0.03853056
25	0xbe86b0bd	-0.26306716
26	0x3f17af01	0.5925141
27	0xbd634e89	-0.05549482
28	0x3d8c9b30	0.06865537
29	0xbee39054	-0.4444605
30	0x3eb26774	0.34844553
31	0xbdaf51ff	-0.085605614
32	0xbb047a9a	-0.0020214678
33	0xbe22cead	-0.15899153
34	0xbe23da06	-0.16001138
35	0x3e65dfb8	0.22448623
36	0xbe038f3b	-0.12847607
37	0x3eda1783	0.42596063
38	0xbe4a0852	-0.19729736
39	0x3db7bfa9	0.08972103
40	0x3ea8a25f	0.3293638
41	0x3f03a6e5	0.51426536
42	0xbe0d1c32	-0.13780287
43	0x3f0b5ec8	0.544415
44	0xbe1d9678	-0.1538943
45	0x3cc3df2a	0.023910124
46	0xbe838d9d	-0.2569398
47	0xbd8929c7	-0.066974215
48	0x3f060120	0.52345467
49	0x3eae8e3d	0.34092894
50	0xbe03b711	-0.12862803
51	0xbdba1566	-0.09086113
52	0x3e8554a8	0.2604115
53	0xbe99e31c	-0.30056083
54	0x3e8738b3	0.26410446
55	0x3f9d0e9f	1.2270087
56	0x3eef4ef4	0.46739924
57	0x3e553df8	0.2082442
58	0xbe855558	-0.26041675
59	0xbe9d5857	-0.3073146
60	0x3f075bbb	0.52874345
61	0x3ea6c7e2	0.32574373
62	0x3dcf629c	0.1012623
63	0xbde07c90	-0.109612584
64	0xbebf814b	-0.3740333
65	0x3eb89e4b	0.36058268
66	0x3e8121bf	0.2522106
67	0x3d26784f	0.04064208
68	0xbcfb63f6	-0.030687314
69	0xbd7f5d73	-0.06234498
70	0x3b9ddec0	0.0048178136
71	0xbd627070	-0.05528301
72	0xbe30ab1e	-0.17252776
73	0xbe56b127	-0.20966016
74	0x3e2c13c0	0.16804409
75	0x3ec64bce	0.3872971
76	0xbe1598d8	-0.14609087
77	0x3f30d6de	0.6907786
78	0xbe9a354b	-0.30118784
79	0xbebebf03	-0.37255105
80	0x3e20c9b0	0.15701938
81	0xbef04782	-0.46929556
82	0x3e6c273b	0.2306184
83	0x3ea10728	0.31450772
84	0x3f465607	0.7747502
85	0xbe3a9cc4	-0.18223864
86	0xbdc6e41c	-0.09711477
87	0xbe3f9cae	-0.18712112
88	0xbe7c2725	-0.24624307
89	0x3df89fe0	0.12139869
90	0x3ef55f42	0.47924238
91	0x3efca281	0.4934273
92	0x3f02fc79	0.5116649
93	0xbe6e37d9	-0.23263492
94	0x3e6b5c5a	0.22984448
95	0xbe4f4b79	-0.20243634
96	0x3ed6a5b1	0.41923288
97	0x3d9004be	0.070321545
98	0x3ed3a4c4	0.41336644
99	0x3e96474e	0.29351276

decoder.linear2.bias f4 [20]
0	0x3ef3cd80	0.47617722
1	0x3ede0911	0.43366292
2	0xbea90b97	-0.33016655
3	0xbedd323f	-0.43202397
4	0xbed8aba5	-0.42318454
5	0xbdbd22b2	-0.09235133
6	0xbe1ce200	-0.15320587
7	0x3ea7cf46	0.32775325
8	0xbef6295c	-0.4807843
9	0x3e1cb0c5	0.15301807
10	0xbea375a7	-0.319257
11	0xbbe8345c	-0.00708632
12	0x3f166427	0.5874657
13	0xbd59312d	-0.053025413
14	0xbebdadfa	-0.37046796
15	0xbd04f570	-0.03246063
16	0x3e32dd4c	0.1746723
17	0xbe54f104	-0.20795065
18	0xbe152182	-0.14563563
19	0x3d58debe	0.0529468
