state_dict_cVAE_Beta=0.1.pt (torch, 77739 bytes, 30 tensors)

encoder.linear1.weight f4 [20, 11]
00000000: 58db 103e 334c 073e 8d73 d5bc 1a06 83bd
00000010: 3512 253e 7722 d33e 1438 68be 4b36 ba3e
00000020: 33bb b8be 239e e73d d3ef 083f bcf7 043e
00000030: df7a 2b3e 5162 1cbe f36f a83d 2d32 863c
00000040: 8559 8a3e d0c2 83be 4ccf 353e 5340 cebd
00000050: 79ef 943e f467 0e3f eb9a 393c 0de7 463d
00000060: 33ae 70bd 9fd7 133d 7f1e 0cbd 7a13 83be
00000070: 5846 c63d 43d2 d6be deaf dbba b54c 04bf
00000080: 629d a23d 23f3 ccbd e0a1 babd 13f8 033b
00000090: d2aa c13d 5e84 943d c800 24be f8a1 763e
000000a0: c8b2 9a3e 9f9c 3a3e 44fe 153e 5853 9ebf
000000b0: 20c1 b4be 0bec 93be 83c7 333c 975e f9be
000000c0: c666 71be 424a c8be bc44 803d ab34 93be
000000d0: 9bfc abbd 6a3b 4cbc 48bf 1d3e bd43 9b3e
000000e0: 33d4 903c 8ff5 e33d ad07 093d 11c5 183e
000000f0: bd1b ed3c 6f9b 99be b209 8fbe 8a38 a93d
00000100: 557b 723e da96 b53e 37eb 25bd 496c fcbd
00000110: 3ebf 8e3d b198 843d 4dbe 1d3d 671c b6bd
00000120: 38e0 313e b75a 873e e288 883d 4dc1 8ebd
00000130: 62d0 61bf 1a13 0a3e 165e ddbd 4830 a73e
00000140: 2395 993e bf97 60be a8d7 5d3e 601d 17bd
00000150: 1f02 93bd ef90 86bd 47a4 24bd 4867 95be
00000160: 5c24 9c3e 83a1 643e 7143 753d 6351 d73e
00000170: f730 923d 4201 003e b83a 30bd 16be c03c
00000180: 18c0 a63d 594c 96be e817 f6be 89eb 78be
00000190: 960e 87bd d565 58bd 68bc 5cbd 8e14 78bd
000001a0: fb45 86be bce8 af3d d9e3 36be 134d a93d
000001b0: ae38 abbe 1637 18bf 79d8 f3bd 75dd 923d
000001c0: 0b00 dabc b50d 97bd f3d6 f3bd 2b9e edbe
000001d0: b87e ad3d c6b4 64be 66c4 77bd 22e1 29be
000001e0: 4724 31bf 2665 6abd 9035 333e 9b3d ce3d
000001f0: 472d debc 9ce5 be3d c8f9 e33e 20c5 a5bc
00000200: 5368 81be 53b6 493e 55d3 af3d 43cd c53e
00000210: fb02 c03d 5a7b 95be 278e 98be 101c 53be
00000220: deff 263d 9c48 93ba 18f3 ca3d 9f85 5f3e
00000230: cdf9 963d ac51 253c 05e0 87bc a771 26be
00000240: ec2c b2bb f2f8 d63d 6468 b0be 8f0b 44be
00000250: 2d86 9ebc 0083 813e 89d3 81be 68ff d4bd
00000260: bddb 84be e586 8bbd f762 873d fe13 7e3e
00000270: 412d c93e 744c 80bd dfc4 75be f750 663e
00000280: 23ae 28be bdda 493e e8a2 963d 6db4 44be
00000290: a5c7 f4be 452a 7c3e a7b3 4dbe 48fd 78bb
000002a0: b452 21be 7cbd 283e d717 763e 801a 803e
000002b0: 9f24 c93d ff0b 0ebc 078e a63d dcf2 dfbd
000002c0: 2fe5 3bbe 6a41 043f d6cf 87be df06 9b3d
000002d0: 91f8 8fbe 3098 0abe 5678 833e 523e 1d3e
000002e0: 088b 4bbe 5404 71be 111b 00bf 7c34 693c
000002f0: 39d0 e6bd 8529 4a3e a83f 073e 7ae7 c4bd
00000300: 79d5 a1bd fc9d 793e 7723 bc3e e531 853d
00000310: b133 943e 14b1 6cbf 1c97 673e b604 313e
00000320: 2c98 b83d f315 003f 05f2 2fbe 083a d33d
00000330: 396d 7cbe 34a0 1b3e 3438 12be 7b9d fcbd
00000340: 5b88 e33d 066b bcbd 0534 2fbd 6743 afbc
00000350: 3a08 0f3e a486 bf3d 8c3f 853e 247e 513e
00000360: ebb2 623e 084b 203e 7e22 c43e c918 1f3b
0.14146173 0.13212661 -0.026056075 -0.06397648 0.16120227 0.41237232 -0.22677642 0.36369547
-0.36080322 0.11309459 0.5349094 0.12985128 0.1674609 -0.1527188 0.082244776 0.016381348
0.27021423 -0.25734568 0.17754859 -0.100708626 0.29088953 0.5562737 0.011328439 0.04856019
-0.05875988 0.036094304 -0.03420877 -0.25600797 0.09681386 -0.41957292 -0.0016760787 -0.51679546
0.07940175 -0.10007312 -0.091129065 0.0020136877 0.094564095 0.072518095 -0.16015923 0.24085224
0.30214524 0.18223809 0.14647776 -1.2369184 -0.35303593 -0.28891024 0.01097286 -0.4870498
-0.23574361 -0.39119154 0.0626311 -0.2875112 -0.0839779 -0.012465337 0.15405 0.30325118
0.01767931 0.11130821 0.033454586 0.14918925 0.02894389 -0.300014 -0.27937084 0.08262737
0.2367986 0.35466653 -0.04050752 -0.12325341 0.0697007 0.06474436 0.038511563 -0.08892136
0.17370689 0.26436397 0.06666733 -0.06970463 -0.8820859 0.13483849 -0.10808961 0.32654023
0.29996595 -0.21932887 0.21664298 -0.03689325 -0.07178139 -0.06570613 -0.04019573 -0.2918036
0.3049649 0.22327237 0.05987877 0.4205428 0.071382456 0.1250048 -0.04302475 0.02352814
0.08142108 -0.29355124 -0.48065114 -0.243086 -0.06594579 -0.05283149 -0.053890616 -0.060566477
-0.26225266 0.085893124 -0.17860354 0.08266654 -0.3344168 -0.59459054 -0.11906523 0.07171146
-0.026611349 -0.07375661 -0.11906233 -0.46409735 0.08471435 -0.22334585 -0.060490035 -0.16589788
-0.6919598 -0.05722537 0.17500901 0.10070344 -0.0271212 0.09321138 0.44526505 -0.020235598
-0.25274906 0.19698457 0.0858523 0.38633165 0.093755685 -0.29195672 -0.29795954 -0.20616174
0.040771358 -0.0011236849 0.09909648 0.21828316 0.073718645 0.010090273 -0.016586313 -0.16254292
-0.005437484 0.10496701 -0.34454644 -0.19145034 -0.01935109 0.25295258 -0.253567 -0.104002774
-0.25948897 -0.068128385 0.06610673 0.24812314 0.39292338 -0.06264582 -0.24000882 0.22491823
-0.16472678 0.19712348 0.07355291 -0.19209452 -0.47808567 0.246255 -0.20088063 -0.0037992764
-0.15754205 0.16478533 0.24032532 0.25020218 0.09821438 -0.008669852 0.08132558 -0.109349936
-0.18349145 0.51662314 -0.26525754 0.0756967 -0.2811933 -0.13534617 0.25677747 0.15355805
-0.19877255 -0.23536807 -0.500413 0.014233705 -0.11270184 0.19742401 0.13207877 -0.09614463
-0.07902045 0.24376673 0.36745808 0.06503657 0.28945687 -0.924577 0.22616237 0.17286953
0.090133995 0.5003349 -0.17182167 0.10313803 -0.2465104 0.15197831 -0.14279252 -0.123347245
0.11109992 -0.092001006 -0.04277422 -0.021394445 0.13967982 0.093518525 0.26025045 0.20458275
0.22138564 0.15653622 0.38307565 0.0024276248

encoder.linear1.bias f4 [20]
00000000: ea20 e1bd 5ee9 593e 0467 603f ffa4 90bf
00000010: 5f69 b03e 4bc2 8a3e 51e6 68bf fdc6 8bbf
00000020: 325d 75be b502 e43e 9c3a 873e 8137 ee3d
00000030: 0335 513e 3583 35bf 4efb c4be a3c9 253e
00000040: 9d17 b83d e0ce 49bf d996 4d3f f6c2 fcbe
-0.10992606 0.21280429 0.8765719 -1.1300353 0.34455392 0.2710136 -0.90976435 -1.0920101
-0.23961332 0.44533315 0.26411903 0.1163168 0.20430379 -0.7090333 -0.3847298 0.161902
0.08988879 -0.7883129 0.803083 -0.49367493

encoder.linear2.weight f4 [40, 20]
00000000: 8926 063e 4936 a53e 3984 8bbe 0dea f1bd
00000010: 3b4e 2abd f998 a5bd 1aa7 a8be 94a9 0dbe
00000020: 7563 0d3d c20c 10bf f8ec f2be 8545 363d
00000030: 0afe ff3d a4c2 1e3e 2842 993d b435 9e3d
00000040: 26e5 e83d 5e84 5bbe 2fe6 8d3e 31ff e2bb
00000050: 012a 683e b7a8 fbbc e740 46be fbd8 893d
00000060: 8e98 11bd 91eb 10bf 5202 8cbe 7d7c 423e
00000070: 7e3c 533e e9c2 abbe e8b9 3bbe 4acd 9abd
00000080: a271 3f3e f654 753d c538 4dbe 8504 30bc
00000090: c0bb 8ebd 65e7 aa3d a942 913e 9b45 763d
000000a0: 1cf7 ebbe 228e 5abf cbaf 2d3e dfb0 d2bd
000000b0: ee3d 69be 7c67 fc3b 4072 dabe 1006 a53b
000000c0: a9bd 7d3e dada 863e 386f 48be 0c52 a9bd
000000d0: 9a25 3c3e 63ca e4bb 72ef 96bd a85d 753d
000000e0: eabf d03e 147d 0abe 2b92 283e 9df9 8dbe
000000f0: e9bc 1dbc 523b e9bd 1646 cbbc b499 0cbe
00000100: 8e62 733d 1bd4 21bd b9d2 4abe 5968 113e
00000110: b6c1 773d 0f15 18bd e85c 0bbe 6118 93bd
00000120: c88c 5e3e d30b 76be 9d01 43be 7434 343e
00000130: 8916 bcbd 0c7a 3cbe abea 873c c81c 2fbe
00000140: 3112 1cbd 38df 6f3d 3374 b6be e56f 40be
00000150: 763b 92be 0bbe 823e ca0e 11be fcf7 b83d
00000160: 298a 26bd d236 823d fd08 82bd ef51 7c3d
00000170: aa5e 7e3e 4410 56be 8292 95bc 7693 f7bd
00000180: f146 a03e 1914 03be 378f ebbd 2084 21bd
00000190: 0117 3a3d 4341 74be cd27 fdbd 5d68 17bd
000001a0: 7e28 83be 241a 213d d56a 5dbe 3c2a 1cbe
000001b0: a92b 84be 78a5 b2bd ec5d 17be d564 b2bb
000001c0: 100e 01bd d767 18be 1aa0 0abe 8e12 f53c
000001d0: df89 28bc fab7 48bd 8b82 a93d f3d8 b33d
000001e0: d16e 483e 0818 12be 4611 e7be 61bb 85bc
000001f0: 6316 29be 07ed c33c 6479 cabc 0db1 863e
00000200: 1af5 823e a722 0bbe 865f f03c 1cad 7c3d
00000210: 4871 233b 2261 d1bd 7158 263e ea13 203e
00000220: eb4e 283d 8f83 ba3e 7abc 4b3e f789 d43c
00000230: 719b 943e 01f2 cc3e 092b d03e 33a2 12bd
00000240: bb36 40be 89a8 1ebe 4996 13be a53c 7c3d
00000250: 5964 91be bfda 14bf cd4c adbe c604 00be
00000260: b0e3 98bd 2177 49be 40bc 8abc 8220 35be
00000270: 1efd e03c d4b8 6f3e a7be 6f3e 6236 9b3e
00000280: c87a bd3c 694a 673c c042 dcbb e7bd 42bd
00000290: 8568 c03c b4de 943d 6e88 2dbe 1cae bebe
000002a0: c478 93be a838 2dbe 5f1a 3fbe b2e0 ab3b
000002b0: 9d30 bdbe 3ddf 53be 8ce6 a9be 2405 d9bd
000002c0: 3890 163e 5f30 16be 6cde 76bc 010e 733c
000002d0: 6001 30be 37db 17be c8fe 873c 608b 4a3d
000002e0: c02d 06bd cc6e 56bd 9caf 28be 4e3a 51be
000002f0: 449d 13bd 5776 31be 0226 fabd 0efa 46be
00000300: 98af e1bd d677 f2bd caff 2c3e f4ae 02bd
00000310: 36a0 2bbe 1959 51be c15a 4cbe 0842 943d
00000320: 9230 df3d b57a 10be fab9 af3e 6fef 5c3e
00000330: fdce 733e c611 88bd 4f08 0dbd 0f98 3f3d
00000340: 0c31 30be 5c29 b1bc b4fc 103e a499 99be
00000350: dccb a4bc 8ed9 533e 5f4b c13d e021 823d
00000360: 54e6 0b3d 16b1 fdbc 6aa5 74be d48c 21be
00000370: 0d24 a9be 5973 a3be fd75 693d 01bf 51be
00000380: 8e8f 5b3e f820 4f3e 34a6 a1be 3087 953e
00000390: f8fa 9dbd 3f60 603e 2a89 8f3d 038c 303e
000003a0: eefe bbbd b4ad 733e 27fb 483e 64e4 9b3d
000003b0: b19b 87be 3de5 57be 06b1 afbd a875 2b3e
000003c0: f962 e53d 8fae 64bd 8663 353e 360d 84be
000003d0: 1423 71be a54e b43e 2a9d e2be 0b66 2d3e
000003e0: dbc1 41be 74ae 20be 2ab1 7f3d f8a4 f73d
000003f0: 557d 46be b201 d43d 9752 19bb 1c48 1ebe
0.13100637 0.3226798 -0.27249315 -0.1181222 -0.041578513 -0.08085818 -0.32939988 -0.1383422
0.034518678 -0.56269467 -0.47446418 0.044499893 0.12499626 0.15503937 0.074833214 0.07725087
0.113718316 -0.21437213 0.2771468 -0.006927394 0.22672273 -0.030720098 -0.19360696 0.06730839
-0.035545878 -0.56609446 -0.2734552 0.18992801 0.20628545 -0.33547142 -0.18332636 -0.07558687
0.18695691 0.05989548 -0.20041187 -0.010743265 -0.06969404 0.08344916 0.2837117 0.060124975
-0.46086967 -0.8537313 0.16961591 -0.10287642 -0.2277753 0.007702766 -0.4266529 0.005036123
0.24779381 0.26338845 -0.19573677 -0.08267602 0.18373719 -0.006982134 -0.07369889 0.05990377
0.4077142 -0.13524276 0.16462009 -0.27729502 -0.009627559 -0.113882676 -0.024813693 -0.13730508
0.05942016 -0.03950892 -0.19806947 0.14199962 0.06048747 -0.037129458 -0.1360966 -0.07182384
0.21733391 -0.24027948 -0.19043584 0.17598134 -0.09183986 -0.18405932 0.01659139 -0.17100823
-0.038103286 0.058562487 -0.35635528 -0.18792684 -0.2856099 0.25535616 -0.14165798 0.09031674
-0.040659104 0.063581124 -0.06349371 0.061601575 0.24840799 -0.20904642 -0.018258337 -0.12088673
0.31304124 -0.12800635 -0.115019254 -0.039432645 0.045432094 -0.2385302 -0.12361107 -0.036964763
-0.2561683 0.03933157 -0.21622784 -0.15250486 -0.2581456 -0.08722967 -0.14781922 -0.005444149
-0.03150755 -0.14883362 -0.13537636 0.029916074 -0.010286777 -0.04900358 0.08276852 0.08781614
0.19573523 -0.1426698 -0.45130366 -0.0163247 -0.16512446 0.023916734 -0.024716087 0.26306954
0.25577623 -0.13587438 0.029342424 0.061688527 0.0024939347 -0.10223605 0.16244675 0.15632597
0.041090887 0.36428496 0.19896117 0.025944693 0.29024842 0.40028384 0.40657833 -0.035799216
-0.18770878 -0.15493979 -0.14412798 0.061581273 -0.28396872 -0.5814628 -0.33847657 -0.12501821
-0.07465303 -0.1967435 -0.016935468 -0.17688182 0.027464446 0.2341035 0.23412572 0.30314928
0.023129836 0.014116862 -0.0067218244 -0.047544386 0.023487339 0.0726904 -0.16946575 -0.3724221
-0.28803074 -0.16916144 -0.18662404 0.0052452916 -0.36951151 -0.20690627 -0.33183706 -0.105966836
0.14703453 -0.1466689 -0.015067678 0.014834882 -0.17188025 -0.14829718 0.016600981 0.049449325
-0.032758474 -0.052351758 -0.1647324 -0.20432398 -0.036038652 -0.173303 -0.12214281 -0.19431326
-0.1101982 -0.11839263 0.16894451 -0.03190513 -0.16760334 -0.20444144 -0.19956495 0.07239157
0.10897936 -0.14109309 0.34321576 0.21575712 0.23809429 -0.06644015 -0.03443175 0.046775874
-0.1720621 -0.021626167 0.14158899 -0.3000003 -0.020116739 0.2068846 0.09438204 0.063541174
0.034155205 -0.03096823 -0.23891225 -0.15776378 -0.33035317 -0.3192394 0.056997288 -0.20483018
0.2144148 0.2022742 -0.31572115 0.29204702 -0.07713884 0.21911715 0.07008584 0.1724091
-0.09179483 0.23796731 0.19627057 0.076119214 -0.2648597 -0.21083541 -0.085786864 0.16744101
0.11200518 -0.055830535 0.17713746 -0.2579133 -0.23548537 0.3521625 -0.44260532 0.16933458
-0.18921606 -0.15691549 0.062424816 0.12092012 -0.19383748 0.10351886 -0.0023395175 -0.15457195

encoder.linear2.bias f4 [40]
00000000: e953 243f d8ca aabe 2788 1fbc ab73 25be
00000010: e8df 923e 6208 52be 107b b8be 6180 27be
00000020: 1b5a 963c a440 3e3e daf6 3fbf f774 48be
00000030: ba1a b03d 2069 29bf 561d 933c 8ef3 26be
00000040: 810f 1b3e 63dc 4c3e 8910 633e ee64 8cbf
00000050: a6c4 2bbf bc86 9f3e b842 d8be b6d1 963d
00000060: 2eb9 8a3e cc83 23be 6001 fabd 5872 d1be
00000070: fff2 13bf aa33 86bd b0de b4bd 2d43 74bf
00000080: f0bc 93be 9218 39be bfc8 a7be 643c eabe
00000090: b6cc 0ebe b026 793d 3fc5 963e f40f 9bbe
0.64190537 -0.33357882 -0.009737051 -0.16157405 0.28686452 -0.2051101 -0.3603139 -0.16357566
0.018353513 0.18579346 -0.7498604 -0.19575869 0.08598848 -0.66176033 0.017958324 -0.16303846
0.15142633 0.20005946 0.22174276 -1.0968301 -0.67096937 0.31157482 -0.42238402 0.07364218
0.27094406 -0.15968245 -0.122072935 -0.4090755 -0.5779266 -0.06552823 -0.08831537 -0.95415
-0.28855085 -0.18075779 -0.32770345 -0.457492 -0.13945279 0.06082791 0.29447362 -0.3028561

encoder.linear3.weight f4 [80, 40]
00000000: 834e 84bc dc53 e9bd bf07 303d c4ef 11be
00000010: f7bd a0bc 2873 18bd 4c31 62be 2781 c7bd
00000020: a098 f4bd 2b77 c6bd 82cd 993c 462c d23c
00000030: 9438 5b3e 70e3 d13d 4c49 00bd 7b3b 8a3d
00000040: 34a1 bfbd d80f 443c 6616 c4bd 1e2a 063e
00000050: 5e1c 27be 167a 44bd b83f 9abd 892e 5c3e
00000060: eb9d da3d 41ac c1bd cf4c 563d 9a3f b9bd
00000070: bb01 383d c053 c2bb ee8b c23b 7482 023c
00000080: f787 98be 515a 153e 4022 1fbe a61c cabe
00000090: 6f9b 28be 74ee 213d 11af dcbc 4a15 ccbe
000000a0: e9a7 a6be 9a8c 373e 752a 46bb 6d1b 72be
000000b0: 3544 63bc 80b3 a1bd f637 0d3d 72be afbd
000000c0: 5090 0dbd c069 68bc 8f68 0b3e 92c9 97be
000000d0: c647 9c3d 84e8 bfbd 33f9 97bc 7c9d 393d
000000e0: eee5 ae3d d0a1 7a3a 261a f9bd 6a71 813d
000000f0: 3b73 b6bc 5aea 20be 5f04 153e 9d05 29bf
00000100: ce28 38be 0f10 4fbe 24ac 80bd e896 b5bd
00000110: e78c 27be 4692 793c 1755 3a3d bbb4 833d
00000120: adde 24bd 08b2 09bd 79db 5ebe e0c2 6abd
00000130: 7a26 7a3d e974 dbbc 24ee f9bb 5c52 d0bc
00000140: c0ec f0bc bcdd 0cbc dbb7 7a3d f982 a2bd
00000150: aea0 a6bd 6965 01be cacc 5a3c 4ff8 003e
00000160: cedd 8e3d 9d70 073e 9fed a3bd 4815 273d
00000170: 137c 0dbe 18ab 1bbd 018c 723d 3e5c f53d
00000180: e6e3 f2bb 80a6 cbbd 36ef ea3d c9f6 08be
00000190: 8dff 24bd 530e d3bd a99d f1bd bd48 fb3c
000001a0: 0600 a8bd 7349 833d dc7d 8a3d 27ee 1dbe
000001b0: 2961 cb3d 7a93 d7bd 2c7f 1bbd c776 94bd
000001c0: 6c15 aebd d0b5 9ebd 2aab cebd 6e9c 11bc
000001d0: c7a0 e2bc b3c9 0ebd ca0d 54be e240 8abd
000001e0: 9039 0c3d 08c8 123e 048e 963d f2c6 a23d
000001f0: eccf 83bd f7c0 a23d da2e 65be 6f78 57be
00000200: 0c3c 98bd c6db e73d 499b 963c ad06 c73d
00000210: f84e 5ebd 95bf 033d 9643 4abd cc1b 203e
00000220: 67c0 ef3d fb9e 0fbe 55e4 88be 970b 42bc
00000230: 1e8e febd 8d13 8bbd f1dc 4dbd b411 e93c
00000240: 00ec 623b fa78 babd 567c 5cbc e0c8 83be
00000250: 21fc 53be 11cf 823d 9549 203d dd36 bfbc
00000260: a03b e6bd dedb ad3d 4133 76be a601 1dbd
00000270: cc41 c73b af68 47be b5ba e3be aa6d 7bbe
00000280: a0d9 c3bd cd4f c8bd fac9 b13d 08ab 1dbe
00000290: 9e4f 923c b556 143d 0557 1fbe 6ee0 ebbc
000002a0: fe48 8e3b a006 263d e9f2 37bc cb8f e6bd
000002b0: 3439 7cbc c29f d13c d0c6 d8bc e1e4 043e
000002c0: 42a4 4ebd 4f8a 333d e26c 47bb 81b9 7c3c
000002d0: 1f65 28be cc6e 003d 7781 883d d00c a5bc
000002e0: 94f2 cfbc 08c9 9abc a982 7fbc 6d5a 44bd
000002f0: b293 32bd 3830 44bd 963d b1bd 5af9 39be
00000300: cd57 4ebe d310 98bd e367 3bbd f754 923d
00000310: dc42 d03d ecbb e9bd 7816 5dbe e76a 9c3d
00000320: f2b7 b63d da92 f7bd 7fb9 1bbe 450d 433d
00000330: 6422 f8bc 65b2 9e3c bd41 87bd 53b5 0abe
00000340: 9692 3cbe 8954 cdbd 4cd7 24be 054e f73d
00000350: 1c66 04be 7227 013d 0290 d23b 5436 883d
00000360: 580c 193d 11f0 9fbd 6f23 fcbc fc05 01be
00000370: c4ac 4fbe 2e6f 933d 3a00 66be 6277 0fbe
00000380: 2ac9 43bd 1d0e 85bd 137c 6c3d a93b 713c
00000390: c442 5bbd 93c0 fbbd 858e 31bd d8e2 963d
000003a0: 48d8 0cbd bdf6 903d 94eb 08be 6e52 4d3d
000003b0: 94b0 8bbc 4463 a53c 179e 09be eda6 c03c
000003c0: 40d2 aabd fa69 913c 5a5a fabd 83d9 333d
000003d0: b354 11be 058c 8abd 8249 d63c 1c03 81be
000003e0: 9b0f d63d 5c55 8fbd 4f7e 8abd cda6 9bbe
000003f0: 6564 7fbe a8fd 17be 8066 10be c8b4 32be
-0.016150719 -0.11392948 0.042976137 -0.1425162 -0.019621832 -0.037219197 -0.22089118 -0.09741431
-0.119431734 -0.09690698 0.018774752 0.025655877 0.21408302 0.102484584 -0.0313199 0.06749626
-0.09356919 0.011966668 -0.09574585 0.13102004 -0.16319415 -0.047967993 -0.07531685 0.21502127
0.10674652 -0.09456683 0.052319344 -0.09045334 0.044923525 -0.005930394 0.005937091 0.007965673
-0.29791233 0.14585234 -0.15540409 -0.39474982 -0.16465543 0.039534047 -0.026938947 -0.39859992
-0.3254998 0.17924729 -0.0030237709 -0.23643275 -0.013871242 -0.07895565 0.034477197 -0.085812464
-0.034561455 -0.014185369 0.13614105 -0.29645973 0.07630877 -0.09370521 -0.018551445 0.045316204
0.08539949 0.0009560855 -0.121631905 0.0632046 -0.022271743 -0.15714398 0.14552449 -0.6602419
-0.17984316 -0.2022097 -0.06282833 -0.08866674 -0.16362344 0.015232628 0.045491304 0.06430956
-0.040251423 -0.03361705 -0.2176341 -0.057314754 0.06107185 -0.026789146 -0.0076272655 -0.025429897
-0.029409766 -0.0085977875 0.061210494 -0.07935137 -0.08136116 -0.12636341 0.01335449 0.12594722
0.069759 0.13226552 -0.08004307 0.04079178 -0.13816862 -0.038004965 0.05921555 0.119804844
-0.0074124215 -0.09943867 0.11471407 -0.13375391 -0.040282775 -0.103054665 -0.117976494 0.030674333
-0.082031295 0.06410494 0.06762287 -0.15422879 0.09930641 -0.10526176 -0.037963077 -0.072492175
-0.0850018 -0.07749522 -0.10091241 -0.008887393 -0.027664555 -0.034860324 -0.20708385 -0.06750657
0.034234583 0.14334118 0.07351306 0.07948102 -0.06436142 0.079469614 -0.22381154 -0.21042036
-0.07433328 0.11321215 0.018384593 0.0971807 -0.05427453 0.03216513 -0.04938086 0.15635604
0.1170662 -0.1402549 -0.26736704 -0.011843584 -0.124294505 -0.067908384 -0.050259534 0.028450824
0.003462553 -0.09105106 -0.013457378 -0.25739193 -0.20701648 0.06387151 0.039132673 -0.02334159
-0.11241841 0.08489202 -0.2404299 -0.03833165 0.0060808416 -0.19473527 -0.44478384 -0.24553552
-0.09562993 -0.09780846 0.08681102 -0.15397274 0.01786023 0.036215503 -0.15560539 -0.02879354
0.0043421974 0.04053366 -0.011227348 -0.11257895 -0.015394498 0.025588874 -0.026461989 0.12977935
-0.050449617 0.043833073 -0.003042989 0.015425087 -0.16444825 0.031355664 0.066653185 -0.020147711
-0.025384225 -0.018894687 -0.015595117 -0.0479378 -0.043597884 -0.047897547 -0.08654325 -0.18161526
-0.20150681 -0.07425084 -0.04575337 0.07145112 0.101690024 -0.114127964 -0.21590602 0.076375775
0.089218035 -0.120885566 -0.1520748 0.047620077 -0.030289836 0.019372175 -0.066043355 -0.13545732
-0.18415293 -0.100258894 -0.16097754 0.12075428 -0.12929577 0.03153176 0.0064258585 0.06650987
0.037365288 -0.07809461 -0.030778615 -0.12599939 -0.20280749 0.0719894 -0.22461024 -0.14010385
-0.047799267 -0.064968325 0.057735514 0.014723697 -0.05353047 -0.1229259 -0.043348808 0.07367486
-0.03438595 0.070783116 -0.13371116 0.05012744 -0.017051972 0.020188935 -0.13439213 0.023517096
-0.08340883 0.017750729 -0.122242644 0.043908607 -0.14192466 -0.06764988 0.026158098 -0.25197685
0.10452195 -0.06998703 -0.06762373 -0.30400696 -0.24940641 -0.14842856 -0.141016 -0.17451775

encoder.linear3.bias f4 [80]
00000000: 78d6 213d a500 34bd d8e7 1ebe 1e71 04be
00000010: 5192 46be e032 153e 7cab 22bf 361a eebd
00000020: 19eb 83bf b0b9 1abf 050c 6fbe 6b87 12bf
00000030: 1784 d5bd 0299 353d 18c8 febb 5acb 25be
00000040: 306c 96be 6027 713d 79e0 b7bd adfb a7bd
00000050: a931 69bd 71bf a33d ec59 803d 0f39 66be
00000060: d63f 3d3e 0095 56b8 486a 153d 852b 0bbe
00000070: 5007 293d 3af5 e3be f94f b2bc 1511 72be
00000080: 777d 75bd 60d4 60bb f090 a73c acc4 59be
00000090: 59a9 4c3e f7af c4be 6e0e d6be 0a6e abbd
000000a0: 9219 503d 069c eebc 8a81 edbd 531b cfbe
000000b0: 3b91 e3bc 99cd ba3d 8d76 b6bd 53f9 b13d
000000c0: a687 40be 6963 19be c7d8 6abe 89ec 223f
000000d0: 0b20 33bf 1890 253f a379 aabd d519 81be
000000e0: 7410 1dbc 2e38 b6be 254b 093e 0e2b 23be
000000f0: b006 56bd 3f7f f7bc 8e80 2b3c 18ea afbd
00000100: f1f7 19be 8325 01be 6517 a3bd 826e eb3d
00000110: 008f f1be 0373 56be 6d1b 923d 55bb a03b
00000120: 1251 1a3f 4ccf 62be c9ab 9abe e893 7bbd
00000130: a71b 313e a03b 91bd 573f 87bf aa98 14bf
0.039511174 -0.043945927 -0.15518129 -0.12933776 -0.19391753 0.14570189 -0.63542914 -0.11626093
-1.0306121 -0.60439587 -0.23344429 -0.5723788 -0.10425585 0.044335373 -0.007775318 -0.16190854
-0.29379416 0.05887544 -0.08978362 -0.082023 -0.056932125 0.07995499 0.06267151 -0.22482704
0.18481383 -5.1160343e-05 0.03647831 -0.1359082 0.04126674 -0.4452303 -0.02176665 -0.23639329
-0.059934106 -0.0034306273 0.020454854 -0.2126643 0.19986476 -0.384155 -0.41807884 -0.08370598
0.050805636 -0.029127132 -0.11596973 -0.40450534 -0.027779212 0.09121246 -0.089093305 0.08690133
-0.18801746 -0.14979328 -0.22934256 0.63642174 -0.6997077 0.64672995 -0.083239816 -0.2521502
-0.009586442 -0.35589737 0.13407572 -0.15934393 -0.05225247 -0.030212043 0.010467662 -0.08589572
-0.15035988 -0.12611966 -0.079634465 0.11495687 -0.47179413 -0.20942311 0.07134137 0.004905144
0.60279953 -0.2214939 -0.30209187 -0.06142035 0.17295705 -0.07091451 -1.0566205 -0.58045447

encoder.linear4.weight f4 [40, 80]
00000000: 436a 6cbc dcd9 113e c278 dd3c 3755 353d
00000010: 7cab 713c 5539 033d 46e4 c3be b1f9 863d
00000020: 83c1 973d 94ae 3b3e b5a7 08bd 3970 f23b
00000030: 7e37 393d 87c1 8d3e 8b9e bfbd b6a0 32bd
00000040: 1ded 253c f859 2dbe 28f9 01be b7d8 963c
00000050: 60ac 31bd 4c21 44be 03d8 4fbe df1e 163e
00000060: 9b56 e5bd 4fba 4f3d fa50 c4bd 7f01 10be
00000070: 85bd a0bd 1d3b 713e 5709 5c3e 31fb 993c
00000080: 8dea 973d a452 80be e5f0 2abd 80b6 31bd
00000090: d65e 0b3e 4ba6 0cbe 3798 893e 20b8 71be
000000a0: 5bd2 bc3b 5a8f babb a43c 93bd 7d64 ca3d
000000b0: 3808 bebe 0602 fa3b 7ff4 75be 56dd ce3d
000000c0: 5502 46be 16c3 29bd dd7d c2bc 611f 96bd
000000d0: 990d ffbd 768d 30be 9666 513d f812 6dbe
000000e0: e4d9 8ebc 77e6 e8be 9689 dcbd a40a 653e
000000f0: 981e 6d3e 6d2c 843c f890 ff3d cc8c f23d
00000100: 6092 bd3e e0f9 953c ef0e b3bd a81f 04bd
00000110: 4ecd 87be b0d6 79bd bed5 bf3d d41c 3f3e
00000120: 0ec3 8fbe 26bc 763c c5a7 b13c 89d1 723e
00000130: 6616 4b3e cb7b 96bd 9466 0ebd a780 a7bd
00000140: 9710 91bd f0aa 96bd dc90 df3d 60db 41bd
00000150: e432 c5bd 24ed 99bc e445 823d 2efe 9c3d
00000160: 87b5 1fbe 712f afbd ba58 0abe 993c 4a3d
00000170: d01e b63c 6d9a 91bd 199a d1bd 38b1 aabb
00000180: 92c1 04be ebe0 6ebd dc75 03bd a9f7 8a3d
00000190: 0ba2 05bd d5f4 dbbd 6843 45bd e0ca a8bc
000001a0: 9fb3 0dbd 84b3 b8bd 14b0 cc3d fa2a f23b
000001b0: c0e3 2a3d ec32 7abd 0efa c7bd d8fa c43d
000001c0: 7c29 213b f0dd ca3d f100 933d 4b94 473d
000001d0: e8c9 d1bd a81f 3ebd 602a 9ebd 2449 92bd
000001e0: 14cc fbbc 9897 baba 44b6 593d f4ba 863d
000001f0: 08a9 d2ba b543 06be b5f9 a13d 4838 a53d
00000200: 7297 c93d ee74 c03d e4a9 b9bd 6cce cfbd
00000210: 5695 c6bd 8818 243d e21b b8bd 6630 2dbd
00000220: 4a78 5abd 54ba 82bd 380e 46bc 6465 253d
00000230: a50c e93c 1813 b23c 120d cabd 3e28 c6bd
00000240: afba d0bc f20e db3d 00bd 86bd 7463 9e3d
00000250: c397 c7bd 0a18 d6bd 3fdc 95bd 0845 5fbd
00000260: cda5 20be c886 843d 1a18 8b3d 40df a7bc
00000270: e8f9 af3d 456b 83bd de3f bdbd d5b9 0dbe
00000280: 797c 733d 144e 9cbd e07f dd3c 191b bfbd
00000290: 9584 bd3d 5c55 443d bb05 f5bd 8aa7 0bbd
000002a0: 4b1d dc3c d572 ecbd 7854 0fbd f282 8ebb
000002b0: d3d6 adbd d2de 8d3d 3652 ae3d 8448 1a3d
000002c0: f805 fdbc 1040 acbc 53b6 83bd f17a b73d
000002d0: c7ad 453d d5d5 f2bd a133 86bd 803d 10ba
000002e0: b4e8 303d 92c9 933d 4635 65bc d490 d7bd
000002f0: fec2 85bc 0c61 f63d 89b7 fdbd 83d7 b4bd
00000300: b0df a9bc afc6 a43c e22d 883d a6d8 cfbd
00000310: 3435 853d 9a14 abbd 1e11 eabd 49b6 983d
00000320: 4ad9 c33b 7345 453d 2c7e 86bd b859 12be
00000330: 89c9 143d 97a7 94bd dc07 91bd 592f a83d
00000340: fc44 79bd 2a62 b9bd 7ef4 12be 745e 77bd
00000350: 20ba 253a ccb6 32bd 7687 973d a6ad 70bd
00000360: ec17 d43c c8e7 4cbe 0a5f c2bd 55b2 6cbd
00000370: 7d9c 49bd ea08 2abd 8a15 20bd c71a 88bd
00000380: aa7a 813d 149a dabd 60d1 ec3c ee04 37bd
00000390: c809 2f3b 8257 c83c 35f6 e5bd ba8a a0bd
000003a0: b14b bfbd 5059 503d 43a5 8abd 3bb7 0abe
000003b0: 0356 b9bc d30d 45bd ca9f 21bd d968 6fbd
000003c0: a25d 123d 62f8 b9bd e0cb 89bb cc1a 64bb
000003d0: 7d63 93bd 9732 ddbd 28f4 9c3b eba8 a6bd
000003e0: ea0d 01bc 8dca 5fbd 3a0e eabd 29c1 d6bd
000003f0: 4c00 c93d b378 f23c 6812 82bc 283c 983d
-0.014429632 0.14243263 0.02703512 0.04427072 0.014750358 0.032037098 -0.38260096 0.065905936
0.07409956 0.18328315 -0.033363063 0.007398632 0.045218937 0.27686712 -0.093564115 -0.043610297
0.010127333 -0.16928852 -0.12692702 0.018413885 -0.04337728 -0.19153327 -0.20297246 0.14660214
-0.11198159 0.050714787 -0.095857576 -0.1406307 -0.07848648 0.23557706 0.21487938 0.018796535
0.07417784 -0.2506305 -0.04173364 -0.043386936 0.13610396 -0.1373531 0.26873943 -0.23605394
0.005762381 -0.0056933584 -0.07189301 0.09882448 -0.37115645 0.0076296357 -0.24019049 0.1010081
-0.19336827 -0.041445814 -0.023741657 -0.07330204 -0.124537654 -0.17241463 0.051123224 -0.23151767
-0.017437883 -0.4548833 -0.1076843 0.2236734 0.23156202 0.016134465 0.124788225 0.11843261
0.37025738 0.018307626 -0.08743083 -0.032256752 -0.26523823 -0.060995758 0.0936694 0.18663341
-0.28078502 0.0150595065 0.021686444 0.23712744 0.19832763 -0.073478304 -0.034765795 -0.08178835
-0.070832424 -0.073568225 0.109163016 -0.047328353 -0.09628847 -0.018789835 0.06360987 0.076656684
-0.15596591 -0.085539706 -0.13510409 0.049374197 0.02223149 -0.071095325 -0.1023447 -0.0052091144
-0.12964466 -0.058319967 -0.03209482 0.06785519 -0.03262524 -0.107400574 -0.048159987 -0.02060455
-0.03459513 -0.09018615 0.09994522 0.007390377 0.041721106 -0.06108372 -0.09764491 0.09618157
0.0024591377 0.099056125 0.07177914 0.048725408 -0.10243589 -0.04641691 -0.07722926 -0.07142857
-0.03073696 -0.0014235852 0.053152338 0.06578627 -0.0016072104 -0.13111766 0.07908956 0.080673754
0.09843339 0.093973026 -0.09065607 -0.10146794 -0.09696452 0.040062457 -0.08989693 -0.042282484
-0.053337373 -0.063831955 -0.012088351 0.040379897 0.028448412 0.02173762 -0.09865774 -0.09675644
-0.025479643 0.1069621 -0.06579018 0.07733813 -0.09745743 -0.10453804 -0.07317399 -0.054509193
-0.15688248 0.0647102 0.067917064 -0.020492196 0.08592588 -0.064169444 -0.09240697 -0.1384042
0.05944488 -0.0763208 0.027038515 -0.0933134 0.09253804 0.047932968 -0.119639836 -0.034095325
0.026869437 -0.1154534 -0.034992665 -0.004349106 -0.0848824 0.06927265 0.08511774 0.037666813
-0.030886635 -0.021026641 -0.0643126 0.08958996 0.04826143 -0.118571915 -0.06552816 -0.0005502328
0.043190673 0.07216181 -0.013989752 -0.10525671 -0.016328331 0.12030229 -0.12388522 -0.08830168
-0.020736545 0.020114271 0.066493765 -0.10148744 0.06504288 -0.08353539 -0.11429046 0.07456643
0.0059768306 0.048161935 -0.06567034 -0.14292037 0.03632501 -0.07258528 -0.07081577 0.08212156
-0.060856804 -0.090519264 -0.14351079 -0.060392812 0.0006321985 -0.04363136 0.07398884 -0.058759354
0.025890313 -0.20010293 -0.094907835 -0.05778726 -0.049221504 -0.041512407 -0.03908304 -0.066457324
0.063222244 -0.10673919 0.028908432 -0.044682436 0.002670871 0.02445579 -0.11228601 -0.0783896
-0.09340609 0.050866425 -0.067698024 -0.1354646 -0.022624021 -0.048108887 -0.039459027 -0.0584496
0.035733826 -0.090805784 -0.004205212 -0.0034806011 -0.0719671 -0.10800665 0.004789848 -0.08137687
-0.0078768525 -0.054636527 -0.11428495 -0.10486061 0.0981451 0.02959857 -0.015877917 0.07433349

encoder.linear4.bias f4 [40]
00000000: b840 41be 101e 083d e9d3 8abd 8310 f2bd
00000010: c27a 7c3e adb9 44be d427 bfbd 15d5 25be
00000020: 4c2f 313e fd03 06bd e3ff aabe 0d59 d7bd
00000030: a3b2 1cbe 4bbb 04be 8561 13bd d48f c0be
00000040: ea6d b7be a49f 7a3d 8bd6 3abe 7d17 0a3e
00000050: 4ed0 4abd 76de 21bd 6c6f 493e e0b7 9cbe
00000060: 8d5e 18be 60ad c2bd 716b aa3e 947a 06be
00000070: f28c 04bf c420 b9bd 3d02 d8bd e903 c73d
00000080: c83e 0bbe de9c 92bc 422a 5dbd 789f ba3e
00000090: da08 c1be 4bc9 c9bd 560f cabd 5c6c 73be
-0.18872344 0.033231795 -0.067787 -0.118195556 0.24656203 -0.19211455 -0.093337685 -0.16194566
0.17303199 -0.032718647 -0.3339835 -0.10515032 -0.1530252 -0.12962072 -0.035981674 -0.37609732
-0.35826045 0.0611874 -0.18245904 0.13485523 -0.04951506 -0.039518796 0.1967141 -0.30609035
-0.14879818 -0.09505725 0.33285096 -0.13132697 -0.51777565 -0.09039453 -0.10547302 0.09717543
-0.13598168 -0.017897066 -0.05399538 0.3644979 -0.37702066 -0.09852847 -0.09866206 -0.23771805

encoder.linear5.weight f4 [20, 40]
00000000: 65e1 073e 1c48 edbc 267e a7bd b179 c0bd
00000010: b834 f7bd fb6c 98be 0a18 5e3d c4cc 81bb
00000020: b43e 603d 5709 45be 2e24 12bd 347b 463d
00000030: 568c 25be 6fb9 b63d 149f 03be f597 7b3d
00000040: a6eb 623e febc 353e 51a1 4fbc cb61 003d
00000050: d241 d23b b675 d8bd 3b5a 813e e193 0abe
00000060: fd47 e3bc 0272 5abd 6c28 19bd 5da6 d2bd
00000070: c261 53bc 7cfe e6bd f55a 33be 9114 b3bd
00000080: bb30 1b3e fa24 753c 38a8 803c e265 0cbd
00000090: 2e6c 53bb a4ec 963d 6111 4e3e 6ead 09be
000000a0: 3c86 cdbe 2042 15be 48e4 173d 7ef5 7f3d
000000b0: c12f 033e d62f b73d dfcb 80bd 2026 50bf
000000c0: 944f 68be ffab 7a3c 8ab4 5ebe 240a a5bd
000000d0: e10d f2bd 586e 243e f070 f43c 1427 393e
000000e0: 4dc9 263e 467a 7e3c 1473 b7bd 5544 103e
000000f0: 074e a03c aee6 81bd 2f7c 723d 5649 aa3b
00000100: 8227 e03e 77be 51bd 62a5 febd 9336 a3bd
00000110: 2017 dbba 55e2 993c a17a 3c3d 77d2 eabd
00000120: 47d7 e6bd 32b9 21bd b3e7 22be a0a1 36ba
00000130: 8a48 babc affe 96bd 0d11 e2bd 551f b63c
00000140: e192 b33d 6c16 d33c 81ae 6dbd a286 3e3c
00000150: e207 943b 2f26 a2be f45c 9bbd 17d3 32be
00000160: 88e2 d7bd 9874 463c 6d99 f0be 55d8 03be
00000170: 9a9c 393e ee05 00be cc55 d9bc 7af2 743a
00000180: 3520 0a3e 2fd1 30bc 7e01 a63d 984d 193d
00000190: 7f8b 0bbd ccd4 763d cdd2 92bd 5a8e 1dbe
000001a0: 789f 1ebd c923 d7bd ffad 00bc 7617 bcbd
000001b0: 9307 82be 1ff3 a2bd f401 213e e091 0bbe
000001c0: 82a4 58bd 5999 2abe 5fd3 0e3e afc0 5a3e
000001d0: 1da7 923c a62b cf3d bbb5 c43d cf8e a0bc
000001e0: 2573 1f3e 0ae2 213e 90f6 83bc b284 da3d
000001f0: 663b 9ebc 3dfb 353e 6bae 17be 8633 763d
00000200: 450d 2cbd 557e 99bd a5d7 63bd 2c22 5ebb
00000210: 5e07 82be 26bf 32bd edca 4bbd 033d 2fbe
00000220: fb71 923d 05b5 ca3d 48fd 2e3c 2034 a9ba
00000230: 71b2 8c3d 8745 a8bd 2952 583e 7679 45bb
00000240: 7055 a63b 1557 b93c 905d d9bc 1a06 f33b
00000250: e6fc dc3d dabf 0a3e 5bf6 4fbd befd 803d
00000260: 4760 e8bd 0a4d 1dbe 883e d43d 7cfd 47be
00000270: 1599 ca3c 1b25 d33c 02c2 afbe f2c4 7ebc
00000280: 2e6a 33be 004c 0939 9ab9 27bd e06c 3e3d
00000290: 6419 e93c 0d97 e8bd c04e 90bd a04a d9bd
000002a0: 1bd4 61bd 5dc5 f9bd 7975 003e 58a6 283d
000002b0: f68b 7fbe 663c 85bb b23f 953d abab 88be
000002c0: 6474 8cbe 04db b43c 0b9b fbbd 3fc7 963d
000002d0: 9f7f ff3d f1f9 19be 49d5 3ebc cb0b a6bd
000002e0: af37 9e3d 1695 15be fc6a bcbd 9a57 e73d
000002f0: 7f90 f3bb cfc4 0a3e 666c ac3d 4235 5b3d
00000300: 9cde 773d 7e60 cb3d 1366 cabd a7bc aabd
00000310: 522c da3c 74cb cbbc e80b 10be 8f9e 17be
00000320: a63f 86be 51ed 9dbc bcb4 cf3b fd32 63bd
00000330: dd8c a6bd 4612 bdbd cb6b ff3d d189 a4be
00000340: 7f4b 36be 3dc8 2b3e 38de 223b a34c d93d
00000350: d5d6 e2bd e085 01bc 7646 d63d 143f 02be
00000360: 2bec 1e3d 45a4 f8bc 803f 10be 1568 873d
00000370: 754e 34be d43f 73bd c031 043e b4b1 993d
00000380: f9db f1bc b907 f33d fc5c 813d c6c4 1f3e
00000390: 1076 813e 6e96 f33d b1d0 213e a4c1 663d
000003a0: 3d23 99bb 122b 043d 4075 16be 2b68 3e3e
000003b0: d9d5 00be a752 c33d a699 533e 2524 97bd
000003c0: 33ec 363d d5f2 003e 52f0 25bd db77 e7bd
000003d0: 803a aabd b608 c03c 8608 0bbe e65f fdbd
000003e0: 9d47 08be 6015 74bb 79d1 103e 6ca6 d73b
000003f0: 16a7 02be 3f5d 0fbe 3da7 063e b209 48be
0.13269575 -0.028965048 -0.08178358 -0.09398211 -0.12070602 -0.29770645 0.054222144 -0.0039611775
0.0547473 -0.19241844 -0.035679035 0.04845734 -0.16166815 0.089220874 -0.12853652 0.061424214
0.22160205 0.17747876 -0.012672738 0.031343263 0.006416538 -0.105693266 0.25264153 -0.13532974
-0.027744288 -0.053331383 -0.037392065 -0.102856375 -0.012901725 -0.11279008 -0.17515166 -0.08744157
0.15155308 0.014962429 0.015705213 -0.03427685 -0.0032260525 0.07369354 0.20123817 -0.13445064
-0.40141475 -0.14576006 0.03708294 0.06248998 0.12811185 0.08944671 -0.06288885 -0.81308174
-0.22686607 0.015299796 -0.21748558 -0.08058575 -0.118190534 0.16057718 0.029839009 0.18081313
0.16287728 0.015532082 -0.08957496 0.14088567 0.019568456 -0.06342827 0.059200462 0.0051967306
0.43780142 -0.051207032 -0.12433888 -0.079693936 -0.0016715266 0.018784681 0.046015386 -0.11465924
-0.1127153 -0.039483257 -0.15908699 -0.0006966833 -0.022739667 -0.07372796 -0.110384084 0.022231737
0.08768249 0.025767528 -0.058027748 0.011628779 0.0045175413 -0.31669757 -0.07586089 -0.17463337
-0.10541254 0.012112759 -0.46992055 -0.12875493 0.18126145 -0.12502262 -0.026530169 0.0009343993
0.13488849 -0.010792061 0.08105753 0.037427515 -0.03406858 0.060261533 -0.07169113 -0.15386334
-0.0387263 -0.10504872 -0.007853984 -0.09184162 -0.25396404 -0.07956528 0.15723401 -0.13629866
-0.052891262 -0.1666006 0.13947819 0.21362565 0.017901951 0.10115747 0.09604975 -0.019599346
0.15571268 0.15808883 -0.016108781 0.10669841 -0.019315433 0.17771621 -0.14812629 0.06010773
-0.042004842 -0.07494799 -0.055625577 -0.003389488 -0.25396246 -0.043639325 -0.049754072 -0.17113118
0.07150646 0.09897808 0.010680504 -0.0012909211 0.068699725 -0.08216386 0.21125092 -0.003013221
0.005076103 0.022624532 -0.026533872 0.007416499 0.10790424 0.13549748 -0.050772052 0.062983975
-0.113464884 -0.1536142 0.103634894 -0.1953029 0.024731198 0.02577453 -0.34327704 -0.015549885
-0.17520973 0.0001309365 -0.040948488 0.04649055 0.02845449 -0.11356936 -0.0704627 -0.10609937
-0.05513392 -0.12195847 0.12544812 0.041174263 -0.24955735 -0.004066038 0.072875395 -0.26693472
-0.2743255 0.022077091 -0.122854315 0.07362222 0.12475514 -0.15036751 -0.011647531 -0.08107718
0.077254646 -0.14607653 -0.09200093 0.112960055 -0.0074329968 0.13551639 0.08419113 0.053517587
0.06051503 0.09930514 -0.0988275 -0.08336764 0.026632462 -0.024877287 -0.14067042 -0.14806579
-0.26220435 -0.0192782 0.006338684 -0.055468548 -0.08132336 -0.09232001 0.12471732 -0.32136396
-0.17802237 0.16775604 0.002485169 0.106103204 -0.11076132 -0.007905453 0.10462658 -0.12719375
0.038799446 -0.030351767 -0.14086723 0.06611649 -0.17608054 -0.059387043 0.12909603 0.07504597
-0.029523836 0.11866707 0.063165635 0.15602407 0.25285387 0.118939266 0.15802266 0.056337014
-0.00467339 0.032267638 -0.14693165 0.18594424 -0.12581576 0.09537249 0.20664081 -0.07379941
0.04465885 0.12592633 -0.04051239 -0.113021575 -0.08311939 0.023441654 -0.1357747 -0.12371807
-0.13308568 -0.0037244186 0.14142407 0.0065811183 -0.1275905 -0.14000414 0.13149734 -0.19534948

encoder.linear5.bias f4 [20]
00000000: d596 ee3e 30c6 acbe de0b 523f 14e7 c93d
00000010: 0eff c5bd 0ea8 e73d 4499 f1bd 6c1c 733e
00000020: f93e 82be c9fd 443e 9a38 69be adc8 a9be
00000030: 3d0d 2d3f 05a1 ffbd 716a 84bd 6342 393f
00000040: 16fb d23e 0eb4 ac3b 5dc3 6cbe c4a7 45bd
0.4659945 -0.33744955 0.8204936 0.09858528 -0.096677884 0.11311351 -0.11796811 0.23741311
-0.2543867 0.19237436 -0.22775498 -0.33160916 0.67598325 -0.12481884 -0.064656146 0.72366923
0.41207188 0.0052704876 -0.231214 -0.048255697

encoder.linear6.weight f4 [5, 20]
00000000: f101 7a3e 93da 013e b2f3 7d3e 8006 25be
00000010: a344 92bd 18b7 503e 5788 31be 1d55 693e
00000020: f366 24be fd12 373e cc5f 973e 9b95 953e
00000030: be7a 31bf db16 8c3d 8739 6dbe 6066 fabe
00000040: 38ce 193e 5b62 6b3d 6a81 993d ddb6 3bbe
00000050: ab08 363e 3388 b6bf 2a42 7d3e e682 223e
00000060: 2e31 993c a49d d43d b7ab 76bd 167b 77bf
00000070: 0513 853d eb9c 9fbd 1c1d 443e 058b 423e
00000080: 84ff 40bd 1562 ba3d b42b 9dbd d1bd 173c
00000090: f2a9 1f3e 37e3 143d 10e0 b83b 5e53 7c3e
000000a0: c6e9 00be fbdc 293e 2ee1 cdbe 8c20 593e
000000b0: 8a12 863e 1df1 4d3e c6f0 663d fc03 f83d
000000c0: a1db 9ebe 4c39 1ebf 8e00 b33c bef7 ba3e
000000d0: 593a a13d d5b1 24bf 985a a1bd 9261 6d3e
000000e0: 590e 54bc 39af 30bb b602 aabd 8019 aa3e
000000f0: 933f 69bd 3a22 b03e 3bff b3be 9516 2cbc
00000100: 9274 4fbe 09fd 8d3e b7be 1bbc 69e6 693e
00000110: 3554 adbb b203 79be b1ab 2c3e 10d1 843e
00000120: 1707 38be b360 613e d0ef c6be 5aaa 023e
00000130: 269a 9abe 91fb e0bc 4173 15be 222d b4bd
00000140: cf11 14be 5422 6a3d a9cc 1f3e 41b4 e6be
00000150: 0d23 92be f0fb f9bd e8b0 cabd a6b8 1abd
00000160: 3d84 6e3e cb5f 753e 36bb 32bd d52c 96bc
00000170: 300f bcbe 3d5f de3d 4aad 0ebd 2a20 153c
00000180: c250 3a3e d2ec 5d3c 3efc d13d 422e 8cbd
0.24414803 0.12681036 0.24799994 -0.16115761 -0.07141998 0.20382345 -0.17337166 0.22786374
-0.16054897 0.17878337 0.29565275 0.29215702 -0.69327915 0.06840297 -0.23166476 -0.4890623
0.15020072 0.057466846 0.07495387 -0.18331476 0.17776744 -1.4260315 0.24732271 0.15870246
0.018700209 0.1038163 -0.060222354 -0.9667219 0.06497768 -0.077936016 0.1915173 0.18998344
-0.04711868 0.09100739 -0.07674351 0.009261564 0.15592173 0.0363495 0.0056419447 0.24641177
-0.12589177 0.16588204 -0.4021086 0.21203822 0.2618602 0.20111509 0.056381963 0.12110135
-0.3102694 -0.6180618 0.02185085 0.36517137 0.07872457 -0.6433385 -0.078786075 0.23181751
-0.012942874 -0.002695991 -0.08301298 0.3322258 -0.056945395 0.34401113 -0.35155663 -0.010503431
-0.20259312 0.27732113 -0.009505919 0.22841801 -0.0052895793 -0.24317816 0.1686237 0.25940752
-0.17971455 0.22009544 -0.38854837 0.12760296 -0.3019573 -0.027463706 -0.14594747 -0.08797671
-0.14459918 0.057161644 0.15605415 -0.45059398 -0.28542367 -0.122062564 -0.098970234 -0.03777375
0.23292632 0.23962323 -0.04363557 -0.018331924 -0.36730337 0.10858009 -0.03483323 0.009101907
0.18194869 0.013545232 0.102531895 -0.068447605

encoder.linear6.bias f4 [5]
00000000: 9c4f 883e 100f e4bd 397d 6e3e 443c f2be
00000010: d7be 88be
0.26623237 -0.111356854 0.23289956 -0.47311604 -0.267081

encoder.linear7.weight f4 [2, 5]
00000000: 089d 113e 18bb f2be 7e76 4ebe cb97 1c3e
00000010: 1c9c 9c3e fa43 81bd 8c63 c33e c1e9 01be
00000020: b29c 21bd 37d3 8c3e
0.14220059 -0.47408366 -0.20162389 0.1529228 0.30587852 -0.063117936 0.38161886 -0.12686826
-0.039456077 0.27504894

encoder.linear7.bias f4 [2]
00000000: f418 42bf 9b0f 56be
-0.75819325 -0.2090439

encoder.linear8.weight f4 [2, 5]
00000000: 89c5 be3c 6eb0 8c3d 43de 13bd 1d97 d13d
00000010: 5c55 edba 910e 02be 389d 383e b1a3 3e3d
00000020: 15f7 203e 4ee7 123d
0.023287551 0.06869589 -0.036100637 0.10233901 -0.0018107104 -0.12700869 0.18028724 0.046542827
0.15719254 0.03586512

encoder.linear8.bias f4 [2]
00000000: 6cfb 51c0 0477 5fc0
-3.2809706 -3.4916391

decoder.linear1.weight f4 [5, 3]
00000000: 34cc 273f ee2d 2f3e 83c9 e13d f9de 293d
00000010: 129d 393f 7ebf 0cbf 8080 f93a dc00 47bb
00000020: 3a6c 8dbc 51e1 81bd 80e8 313f 0931 563f
00000030: 7a95 aabb 202d 44bf f5ad b83d
0.65545964 0.17107365 0.110247634 0.04147241 0.72505295 -0.54979694 0.0019035488 -0.0030365502
-0.01726352 -0.06341804 0.6949539 0.8366857 -0.0052058073 -0.76631355 0.09017555

decoder.linear1.bias f4 [5]
00000000: ca94 4f3f 7878 e33e 8067 9dbd 458d b23e
00000010: 7029 a23c
0.8108641 0.44427848 -0.07685757 0.34873405 0.01979515

decoder.linear2.weight f4 [20, 5]
00000000: 5b81 af3e 118d ad3e fda2 c3be b217 0b3f
00000010: ac64 13bf 8e26 913d 259c ebbe c556 3a3c
00000020: 3329 26bc 3021 583f cdf8 1abf 493a 02be
00000030: b88f 723e 9e50 173f 2930 30bf 100d a1be
00000040: eb68 cb3e 4860 413e 93a3 7a3e 85e0 fcbe
00000050: fb45 263f 151b a6be a399 913d 582e c1be
00000060: 5675 203f 6f3f e93e bb86 383e 16b9 833e
00000070: 9d3e 18be 58b0 1dbe 4e1b e4be 3641 ccbe
00000080: 46d7 cfbe a456 1cbe 6f16 a53d 2e7e 473e
00000090: 4412 b8bc 2d26 ca3e 2921 233e 2f2b 143d
000000a0: bf86 8cbb 2375 aa3e 75b9 9d3e 3783 90bf
000000b0: 6c65 d5be 4ca5 dabe 6c24 4c3e 9018 c4be
000000c0: 6a5a 643e befa a5be 5f4c 5abd 144b debe
000000d0: adf6 9bbe 0284 9abf 2917 1e3f bf4b b5be
000000e0: baf4 8b3e aa2c 003e 1964 193e 7901 113f
000000f0: bacf 91be fe33 9a3e 70b4 e23e 58d2 1b3e
00000100: 824a 043e b671 97be 83ad 64bf ae82 603d
00000110: 959c e4bf 9fd0 283e d858 c23e 5341 f93e
00000120: d58e 803e 98d1 563f daaf 22bf 5fa5 fabe
00000130: 459a a23e e9ec b53e aa63 f03d 306f b93e
00000140: b247 c43e a2e1 1f3e 6b45 c6be bd64 98be
00000150: 118b 5cbe 2e55 133f 4381 023f d4b1 bfbe
00000160: 8a0f 54be 0ad6 4dbf ffc9 343f c3bb d8be
00000170: 6cba 503e b651 613e 301e 163f cacc 52bc
00000180: 080a 1c3f 2896 a5be ae7b 183d 1615 8b3e
0.34278378 0.33896688 -0.38210288 0.5433303 -0.5757549 0.07087432 -0.46017566 0.0113732265
-0.010141659 0.8442564 -0.6053589 -0.12717547 0.23687637 0.5910739 -0.68823487 -0.31455278
0.39728484 0.18884385 0.24476461 -0.49390045 0.6495053 -0.32442537 0.07109382 -0.3773067
0.6267904 0.45556208 0.18020146 0.25727147 -0.14867635 -0.15399301 -0.44552082 -0.39893502
-0.40593928 -0.15267426 0.080609195 0.19481727 -0.022469647 0.3948225 0.15930618 0.036173996
-0.004288524 0.33292493 0.30805555 -1.1290044 -0.4167894 -0.42704237 0.19935769 -0.3829999
0.22300115 -0.32417864 -0.05329549 -0.43416655 -0.30461636 -1.2071536 0.6175409 -0.35409352
0.2733515 0.12517038 0.1497959 0.5664287 -0.28478795 0.30117792 0.44278288 0.15216959
0.12919047 -0.29578942 -0.8932726 0.054812126 -1.7860285 0.16485833 0.37958407 0.4868265
0.25108972 0.83913565 -0.6354958 -0.48954293 0.31758323 0.3553231 0.117377594 0.36217642
0.3833595 0.15613416 -0.38724837 -0.29764357 -0.21537425 0.5755185 0.5097849 -0.3744036
-0.20709053 -0.8040472 0.7062072 -0.4233075 0.20383614 0.22003826 0.5863981 -0.012866208
0.60952806 -0.32341123 0.037227325 0.27164525

decoder.linear2.bias f4 [20]
00000000: 5b04 bc3c fe0f b93d 05e6 d53c c9fb 94bd
00000010: f1c6 833d 5153 913c 3c84 83be 7bca 393e
00000020: fd86 353f 5ff2 c43e 488e 583c 6029 f43d
00000030: 7cdb acbc 5cb9 4b3e a264 13be d2c4 4a3e
00000040: 4b22 833e 32a7 783e 1714 7ebc 8b11 94bd
0.022951296 0.090362534 0.026110658 -0.07274587 0.064344294 0.017739924 -0.25686824 0.18143646
0.709091 0.38466164 0.013217516 0.11921954 -0.021100752 0.19894928 -0.14393857 0.19801643
0.256121 0.2428253 -0.0155077195 -0.072299086

decoder.linear3.weight f4 [40, 20]
00000000: e7eb aa3e 6dc4 4fbd 4fba 163c ce22 46be
00000010: 5714 e33d b570 503d 14f2 ff3d cf24 8f3e
00000020: 44a1 27be 9ac3 573c 5e5b 57be 3861 8ebe
00000030: 4b1e 80bc 1d79 803e b02a ae3e 2265 8bbe
00000040: 0eef a23e 2b1b 1a3d 693c 8f3e 6297 90bc
00000050: fe0c c43d 6f9a 0dbe fb32 bebe ca43 f7bb
00000060: 8f14 e23e 362c a03e 74f3 2d3e f961 313e
00000070: b44e 97be 5dd9 643c a7a3 1cbe 1a16 85be
00000080: 38ff 4b3e b4ca f53d 650b f53b 672a b4be
00000090: f5aa 653e a080 893e b364 903e 7a6f c43d
000000a0: c46f 2d3e 02d4 153f 9ba1 be3e 3822 a8be
000000b0: aba9 b03d af14 343b 827c 523e f897 d03c
000000c0: 606c 9cbd 5ade e63e e5fc 7cbe 4508 9d3e
000000d0: df7a bebd 73f9 90be eada 84be 8ca9 1d3e
000000e0: a452 02be f9d7 c0be 2af7 9b3e c500 12bf
000000f0: b17c bb3e d9b6 bebe 1184 7fbe 11d1 76bd
00000100: 6be7 303d 640d 763e be68 39be fcb1 a73e
00000110: e15c b93e 8714 a8bd bdd0 293e d14d a3be
00000120: c675 81bd 6c8b ae3e 645c 933e c63c 4a3c
00000130: 7a32 a43e 1865 ac3e 2a9e b83d 393c 323e
00000140: 1f5c 4ebd e7a4 933d 8a1f adbd 30a2 6b3e
00000150: 4124 f5be af69 1e3e e5f0 663c 69ab 9dbd
00000160: 5b45 87bf d2bb 013f e8b7 72bc f1c3 153f
00000170: 6f75 e63e aef3 cdbe e42b 9ebd 5de3 0b3f
00000180: 9f37 013e 896d 9cbd 3215 3bbe b1d5 123f
00000190: 1267 b1bd 7d47 1cbe cc48 51be b977 25be
000001a0: a97d 1d3d 4046 2f3e ee8e 60be ccf2 77bc
000001b0: 0537 243e 6e99 73be 155e ea3d 6efc 5bbe
000001c0: ff33 483e cebb 3b3e 6878 14bd 636d b93d
000001d0: 5680 5bbe 16a0 1ebe f052 fd3c a6f4 2f3c
000001e0: 0b6a f03e d695 11be 6aa3 3bbe c3ed 5e3e
000001f0: 1125 843d b37e a53e 47fc d33d 0e54 a73e
00000200: 06d7 48be 4980 813e af35 693d cd2a 93be
00000210: 2783 a6be 89ae 003f c9fb b53e 69f1 57be
00000220: 4ec6 78bd 6117 3d3d 4e5a 7b3e 65de a3bd
00000230: 0c93 663e 4c9d 2cbe 9f28 82bd c11e 443d
00000240: 60ad 4b3f 17f3 833e c276 c63c d227 4f3e
00000250: 97a8 9d3d 720e c7be 1305 cfbd b8f0 b7bd
00000260: ead9 2a3e 0176 473e 2554 fa3d 2ce4 8fbe
00000270: 721e a83e f8a6 9c3e 0003 353e e7f7 bdbd
00000280: 3f25 9dbe 8cd6 0a3f 667f bf3e 621b 1bbe
00000290: 201b 233d ef7c 3bbd c089 573d a314 103e
000002a0: 6af3 87be 57c6 2bbd ac7c a23e 5641 dc3e
000002b0: 3535 183f acbb 5d3e b80b 0dbf 1446 573e
000002c0: ef70 b13d 20c9 a9be 73d8 803e a1d0 d23e
000002d0: 6a19 aabd 00df e73e 89c0 e6bd ab9f 5dbe
000002e0: 9ec7 4c3f 93b2 113e f455 6d3e efcb cd3d
000002f0: c87b c1be 7008 9bbe 3819 14bf 3148 86be
00000300: f12c 7cbe 84fe 1b3d 87c4 0e3e 8cb5 bdbe
00000310: 323c b3bd 6353 ddbd 1767 c53e c770 c13d
00000320: bfd4 0a3e 9bdc a5be 5732 94bc fb17 583c
00000330: ad58 883e d303 10bc c1f9 1cbd f096 dfbd
00000340: 5f0d 143f ca8f 75be c6fb 2f3e ee75 523e
00000350: 19cc 343e ee09 163e d860 ba3d 1cff 6b3e
00000360: d8ed 8f3e ed5b ab3e d6d1 d83d 3f15 0bbd
00000370: f9a9 83be 9517 3a3e 8139 25bf 7202 38be
00000380: 4cef d73e 59f3 4fbd 94ff 34be 8092 8e3e
00000390: f326 cabe 94a2 25bf 703d 99be e422 94be
000003a0: 80d6 a0be 0402 afbe 2bd4 8dbd 86c6 d0bd
000003b0: a222 ae3e b0ae 443e c2e5 c03e 4018 4c38
000003c0: 2aa8 e9bd 4e1c 2d3f 2dfb 4bbf 8ad3 873e
000003d0: f1a2 3f3f 08cf 673e 9013 35bc f482 8c3e
000003e0: 49a3 50bf db7e b9be ae58 fe3c a388 f23e
000003f0: ea5a 9f3e 2687 8bbe 2d63 9ebd 5e90 863e
0.33383104 -0.050724436 0.009199693 -0.19349214 0.11087864 0.050888736 0.124973446 0.2795777
-0.16370112 0.013169194 -0.21030948 -0.27808547 -0.015639445 0.25092402 0.34016943 -0.27225596
0.3182301 0.037623566 0.27975777 -0.01765031 0.095727906 -0.13828443 -0.3714827 -0.007545923
0.4415631 0.3128373 0.16987401 0.1732253 -0.29552233 0.013967839 -0.15296803 -0.25993425
0.19921577 0.12001553 0.007478165 -0.351886 0.22428496 0.26855946 0.28201827 0.09591575
0.16937166 0.58526623 0.3723267 -0.32838607 0.086261116 0.0027478149 0.20555308 0.02546309
-0.076378584 0.45091516 -0.24705847 0.30670372 -0.093007796 -0.28315315 -0.25948268 0.15396708
-0.12726837 -0.37664774 0.3046201 -0.57032424 0.3661857 -0.37248877 -0.24952723 -0.060257975
0.043189447 0.24028546 -0.18106362 0.3275298 0.36203673 -0.0820704 0.16583534 -0.31895307
-0.063212916 0.34090745 0.28781426 0.012343591 0.3206976 0.33670878 0.090145424 0.17405786
-0.050380822 0.07209187 -0.08453281 0.23011088 -0.47879222 0.15470003 0.01409552 -0.076987095
-1.0568041 0.50677216 -0.0148143545 0.5850211 0.4501147 -0.40224975 -0.07723215 0.54643804
0.12618874 -0.0763808 -0.18269804 0.5735732 -0.08662237 -0.15261646 -0.20437926 -0.16158952
0.038449917 0.17116642 -0.21929523 -0.015133571 0.16036613 -0.23788998 0.11443726 -0.21483013
0.19551085 0.1833336 -0.03624764 0.09054067 -0.21435675 -0.15490755 0.030923337 0.010739481
0.46955904 -0.14217314 -0.18324056 0.21770386 0.06452382 0.32323226 0.103508525 0.32681316
-0.19613275 0.25293186 0.056935962 -0.28743592 -0.32521936 0.5026632 0.3554366 -0.21088184
-0.060735993 0.046164874 0.24546167 -0.08001403 0.22517031 -0.16856879 -0.06355404 0.04788089
0.79561424 0.257714 0.02422655 0.20230034 0.076981716 -0.38878208 -0.1010839 -0.0898146
0.1668469 0.19478609 0.122230805 -0.2810377 0.32835728 0.30596137 0.17676926 -0.09275799
-0.3069248 0.5423362 0.37401885 -0.15147164 0.03982079 -0.045773443 0.052621603 0.14070372
-0.26552898 -0.0419372 0.31735742 0.43018597 0.5945619 0.21653622 -0.55096006 0.21022826
0.086641185 -0.3316126 0.25165138 0.41174796 -0.083056286 0.45287323 -0.11267192 -0.2164294
0.7999209 0.14228277 0.2317732 0.10048663 -0.3778975 -0.30279875 -0.5785098 -0.26226953
-0.24626519 0.038084522 0.13942157 -0.37052572 -0.08751716 -0.108069204 0.38555214 0.09445339
0.13557719 -0.3239487 -0.01809041 0.013189311 0.26630154 -0.008789974 -0.03832412 -0.10917461
0.578329 -0.23980632 0.17185888 0.20552799 0.17655982 0.14652225 0.09100503 0.23046535
0.28111148 0.3346857 0.10586898 -0.03395581 -0.25715616 0.18173058 -0.6454087 -0.17969683
0.42174757 -0.050769184 -0.1767562 0.27846146 -0.3948284 -0.647012 -0.29929686 -0.2893287
-0.3141365 -0.34181225 -0.069252335 -0.10194115 0.34010798 0.19207263 0.3767529 4.8659975e-05
-0.11409028 0.67621315 -0.7968014 0.2652858 0.74858004 0.2263757 -0.011052027 0.2744366
-0.81499153 -0.36229596 0.031048145 0.4736987 0.3112405 -0.27251548 -0.0773376 0.26282018

decoder.linear3.bias f4 [40]
00000000: 8d43 1f3e 256a 533e 41a7 0f3f f76c 66bd
00000010: 3fd0 65bd 5afd 18be 2282 283d 3f71 8bbd
00000020: e08b a8bc 735f 5c3e 1425 43be d473 7b3e
00000030: 43f8 8abe 6e4f 1cbe 6d9c b53e 4b5d cebe
00000040: 7b31 babd 7532 443e 6831 b7be 8d08 9cbe
00000050: b3e4 0abe 0af3 28be a3a1 6c3c 926f 223d
00000060: f9f1 883e 93c7 2c3e fb96 1bbe 1961 203e
00000070: be10 fbbd b8bc 4b3b 68bd 1f3e a8bb 6fbe
00000080: 5de3 ccbd 4354 fdbd d864 acbe 9c5b 89bd
00000090: 88f9 fbbc 3a45 89bd fc62 f8bc 00a0 943e
0.15553112 0.2064596 0.56114584 -0.05625626 -0.056106802 -0.14940396 0.04113973 -0.06808709
-0.02057451 0.21520786 -0.19057113 0.24555904 -0.27142534 -0.15264675 0.35470906 -0.40305552
-0.09091469 0.19159873 -0.3577988 -0.30475274 -0.13563804 -0.16498962 0.014442834 0.039657183
0.2674711 0.16873007 -0.15194313 0.1566204 -0.12259053 0.0031087827 0.15599597 -0.23411429
-0.100043036 -0.12369587 -0.33670688 -0.06706926 -0.030758634 -0.06702657 -0.030320637 0.2902832
